checkpoints/cql_model_2022_2023.pth (torch, 767109 bytes, 9 tensors)

backbone.0.weight f4 [258, 208]
000000 6e c5 33 c0 63 09 b6 be 4c 51 3a 3f b3 d1 45 bd
       -2.8089252 -0.35554036 0.727803 -0.048295688
000010 c7 da 93 3d 6a 1d 69 3d dd c8 27 bd c9 3b 9b bd
       0.07219463 0.056912817 -0.040963043 -0.075797625
000020 b2 f7 25 bc fe f3 62 be 8c a1 55 3d 57 fd a0 3e
       -0.010129856 -0.22163388 0.052156016 0.31443283
000030 7c 87 81 be 09 89 e2 bb 93 08 53 ba 4d a5 98 bd
       -0.2529868 -0.0069133085 -0.0008050289 -0.074534036
000040 42 b2 f5 bc 47 28 1c be 88 57 db 3b 7b 5a ea bd
       -0.029992227 -0.1524974 0.006693784 -0.11443039
000050 2b e8 b3 bd d0 5b 1b be 5e f9 60 be e2 98 0e be
       -0.08784517 -0.15171742 -0.21970126 -0.13925508
000060 a5 40 cb bd cb d4 fa bd 48 cb 7f be 68 ba 32 3d
       -0.09924439 -0.12247618 -0.2497989 0.043634802
000070 7f 8a 9c be b5 ee 32 3d c8 5c 3b 3d c3 db 7a bd
       -0.30574414 0.04368468 0.04574278 -0.061244737
000080 26 62 c1 3c fd e2 dc bd c0 73 70 bd 70 54 9b bd
       0.023606371 -0.10785482 -0.058704138 -0.075844646
000090 14 c8 56 bd ff 9d 21 be f6 f9 d9 bd d3 53 bc bd
       -0.052436903 -0.15782927 -0.106433794 -0.09195676
0000a0 fa 81 21 be 6d d9 0b be fb 62 44 be 78 82 1b be
       -0.15772238 -0.1365716 -0.19178383 -0.15186489
0000b0 5c b7 95 be 96 28 eb bd 02 59 94 be 91 1a 2f 3d
       -0.29241455 -0.114823505 -0.28974158 0.042749945
0000c0 56 82 6d 3d 1e e0 50 bd 4d da 29 bd 72 cd e4 bd
       0.057985626 -0.050994985 -0.041467953 -0.11171998
0000d0 01 d2 35 bd 54 1b 44 be fe 28 13 3d 1f 11 04 be
       -0.04438973 -0.1915105 0.035927765 -0.12897156
0000e0 86 bd a3 bd 86 69 2c be 21 a1 33 be bb 79 3b be
       -0.07995133 -0.16837129 -0.17541935 -0.18308155
0000f0 9e a0 59 be 76 7e 39 be 9a d8 9a be 2b 49 77 bc
       -0.21252677 -0.18114647 -0.3024338 -0.015093128
000100 b6 7e 76 be 37 cf d3 ba b7 10 75 bd 56 3b 80 bc
       -0.24071774 -0.0016159777 -0.059830394 -0.015653294
000110 8e 84 01 bb a4 72 cb bd 6f 22 66 be 3c c8 7d ba
       -0.0019762847 -0.09933975 -0.22474073 -0.00096810213
000120 cc 18 14 be 13 96 8f bd 43 b4 a2 bd 22 1c c6 bd
       -0.14462584 -0.07011046 -0.079445384 -0.09673335
000130 21 bd 74 bc 3f 13 b7 be 4d 0b 09 be a1 89 5c be
       -0.01493767 -0.3575687 -0.13383217 -0.21536876
000140 c0 7c 58 be 46 50 78 be 88 f3 ee 3e 97 05 00 bf
       -0.21141338 -0.24249372 0.46670175 -0.5000853
000150 0c fe db 3c 00 8f 99 bb 57 61 c4 3c 95 f1 b8 bd
       0.026854537 -0.0046862364 0.023972197 -0.09030453
000160 2d b1 a6 be d2 ca 00 be b2 1b 48 be 91 76 2d be
       -0.3255705 -0.1257737 -0.19541815 -0.1693976
000170 1d 71 9b bd 84 98 5d be 50 86 35 3c e8 96 83 be
       -0.07589934 -0.21640211 0.011079386 -0.2570107
000180 f1 46 09 be f3 a2 7a be 5c bd 5f be 3e 7c 43 be
       -0.13405968 -0.24476223 -0.21849579 -0.19090363
000190 98 1e 35 be d4 26 78 3c 80 ea 1f 3d 28 d1 2e be
       -0.17687452 0.015145976 0.039041996 -0.17071974
0001a0 60 0e 36 bb 16 0a 48 3d f6 67 f1 bc 82 a1 2f 3d
       -0.0027779564 0.048837744 -0.029468518 0.042878635
0001b0 1a 78 dd bc aa ef dc bd ea 76 39 3d b6 d9 98 bc
       -0.027034808 -0.107879 0.04527942 -0.0186585
0001c0 a0 fc 7e 3c ce 50 d9 bc 50 aa e4 3b 27 ba 89 bd
       0.01556316 -0.026527788 0.0069783106 -0.06724959
0001d0 8a 02 7b 3d ac 49 95 3c 76 fc 74 3d 06 09 72 3d
       0.06128172 0.018223606 0.059811078 0.059090637
0001e0 9a b1 8c bc be 89 36 be 80 0b d3 3b 48 0b 62 3c
       -0.01717453 -0.17825982 0.00644058 0.013796635
0001f0 2a 67 4b 3d b5 70 87 bd f4 fe 8b bc 7a 1b f2 bd
       0.04965893 -0.06613294 -0.017089345 -0.11821647
000200 c9 b5 47 bd be a6 e0 bc 0b 10 88 bd 99 fd 9f be
       -0.04875735 -0.027423259 -0.06643685 -0.31248167
000210 eb ff b6 3b 87 d8 67 3b 67 33 a7 bd c9 dc 16 be
       0.005584707 0.0035376863 -0.08164101 -0.1473266
000220 09 f5 be bd b6 2e 81 bd c2 96 f6 bd ce 73 0d bf
       -0.093240805 -0.063077375 -0.120404735 -0.5525483
000230 13 53 f2 3c 43 d1 06 be 49 46 44 3d 59 8d 26 bc
       0.029580628 -0.13165765 0.04791859 -0.010165536
000240 80 fe 6d 3d 36 6c 11 3d 52 b4 be bc 84 91 74 be
       0.05810404 0.03550359 -0.023279343 -0.23883635
000250 ad 58 b8 bc b6 39 73 bd b7 7d ba bd ad b2 15 be
       -0.022503221 -0.05938121 -0.091060095 -0.1461894
000260 be e6 fc 3b bb 9a d0 3d c1 fc e6 3d 4d af a3 be
       0.0077179363 0.101857625 0.11278678 -0.3196968
000270 03 8e c6 bb 8c 7c 91 3d 20 56 30 3d 75 e6 03 3e
       -0.0060594096 0.071038336 0.043050885 0.12880881
000280 b5 e9 b3 3d 45 de 54 bd d3 d9 2b 3c 3c 3c a6 be
       0.087848105 -0.051969785 0.010488945 -0.3246783
000290 35 5c 4f bd 39 cf c8 3c ed c2 60 3e 57 6c 6d bd
       -0.050625045 0.024512874 0.21949358 -0.05796465
0002a0 a4 4a d8 bc 66 89 e9 bd d0 c9 79 bc 86 59 bd 3c
       -0.026402779 -0.1140316 -0.01524587 0.023113977
0002b0 da 43 74 bd 60 f5 44 be f5 2b 35 be dd 3c ff 3e
       -0.05963502 -0.19234228 -0.1769255 0.49851122
0002c0 a4 8b c8 bd 14 85 42 bc 78 30 21 bd 71 f8 0b bf
       -0.09792259 -0.011872549 -0.039352864 -0.54675967
0002d0 0f 7e 1b bd 60 44 35 3e d7 1f a3 3d 5d 87 6c be
       -0.037962016 0.17701864 0.07965057 -0.23098512
0002e0 d4 44 42 be 71 c1 89 bd 92 90 43 be 40 47 5d 3e
       -0.18971568 -0.06726349 -0.19098118 0.21609211
0002f0 93 4a da 3d a4 92 29 bd 52 5b 48 3d 0a 7c ca 3e
       0.10658755 -0.041399613 0.048915215 0.3954776
000300 87 4e ef 3c 40 93 16 bc d5 15 dc 3c 69 5f 2a bf
       0.02921225 -0.009190381 0.02686588 -0.66551834
000310 da de 01 3e ec cb d8 bc 8b 9b 9e 3c 30 8e 25 3f
       0.12682667 -0.026464425 0.019361278 0.64670086
000320 3b da 15 be 7b 5e 86 be cf 91 44 be cd dc e0 3e
       -0.1463403 -0.26243958 -0.19196247 0.43918458
000330 61 d6 01 be fc 0c 40 bd 8c 52 08 bd 77 07 46 3d
       -0.12679435 -0.046887383 -0.033281848 0.048346963
000340 60 4a 03 40 a7 4f 08 3f bb d7 b0 3e 99 92 65 be
       2.0514145 0.5324654 0.3453959 -0.22419204
000350 6a ce ec 3c c7 53 64 be a6 88 a3 bd 37 72 64 be
       0.02890702 -0.22297584 -0.07985048 -0.22309195
000360 8e 9e 0a bf 81 22 30 3e ac 9f fe bc f1 ae b3 be
       -0.54148185 0.17200662 -0.031081997 -0.35094407
000370 3b a9 58 3d 5c 4a 36 bc 2a 3e 81 3c b0 19 86 be
       0.052895766 -0.011126127 0.015776712 -0.26191473
000380 c1 c7 c1 be 07 5e f3 bd 5a d8 c2 be e0 e6 29 be
       -0.37847713 -0.11883169 -0.38055688 -0.16591978
000390 cb 91 ca bd fb 8f 45 bd 1b 68 51 bc d0 9b f1 bb
       -0.09891089 -0.048233014 -0.012781168 -0.0073733106
0003a0 5d 13 11 be 99 c1 2a bd 3d 57 87 3d 19 5d d5 be
       -0.14167543 -0.041688535 0.06608436 -0.4167259
0003b0 00 8d 46 3e 45 78 ea be fb 80 89 bd fb 8a a6 bd
       0.19389725 -0.45794883 -0.06714054 -0.08131977
0003c0 79 39 4a 3c ed 90 93 be d7 6e 97 be a8 b0 0c be
       0.012342804 -0.28821507 -0.29576752 -0.13739264
0003d0 d2 8e fe be 74 9d 82 be eb be c8 bd 5d 6e a3 b9
       -0.49718338 -0.25510752 -0.0980204 -0.0003117201
0003e0 6e f2 5c bd e3 72 db 3d 47 6a 9a bd 58 57 9e bd
       -0.053942136 0.10715272 -0.07539802 -0.07731503
0003f0 ce 60 87 3e d0 f5 87 be 9f 87 22 be 2b 31 8f bd
       0.26441044 -0.26554728 -0.15872048 -0.069918

backbone.0.bias f4 [258]
000000 24 7e c9 bd e4 e5 a6 bd f5 5e 2f 3e 76 ab 87 be
       -0.098385125 -0.08149317 0.17126067 -0.26498002
000010 36 f0 a0 3e 21 85 8e be b8 76 a5 bc b7 8d f6 bd
       0.31433266 -0.27835944 -0.020198211 -0.12038749
000020 50 dc 10 be 0b f3 41 be b0 11 82 3e 59 15 3d bd
       -0.14146543 -0.1894037 0.2540412 -0.046162937
000030 b4 4a 6d 3e d5 d1 77 3e 3a f1 ea 3c 95 ef b3 3e
       0.23173028 0.24201138 0.028679479 0.35143724
000040 c0 23 8e 3e 2f 16 46 be c9 9c aa 3c a4 d4 2e be
       0.2776165 -0.193444 0.020826714 -0.17073303
000050 df 7d 59 bc 3d ac dd bd d9 35 e9 3d da da 76 3b
       -0.013274639 -0.108238675 0.11387224 0.0037667067
000060 85 fb e5 bd 7a eb 3f be 47 e6 3d be fc d8 0f be
       -0.11229614 -0.18742171 -0.18544875 -0.14047617
000070 c4 0f 82 3e b7 da 93 bd f4 f1 9c be f8 3a 9c be
       0.25402653 -0.07219451 -0.30653346 -0.3051374
000080 76 30 da 3e d8 cb 3e be 16 00 3a bb f2 e9 99 be
       0.42615098 -0.18632448 -0.00283814 -0.300613
000090 6e 02 0d be 7a d4 30 be 94 f3 c6 3d 95 b0 1b be
       -0.13770458 -0.17268553 0.097144276 -0.1520408
0000a0 bb c6 b3 be c7 73 db 3e cb 3c 01 bd fc 38 28 be
       -0.35112557 0.4286177 -0.031552117 -0.16427988
0000b0 30 ab 0b be 22 b7 32 3e 82 7d 70 3d 8b ab eb 3e
       -0.13639522 0.17452672 0.058713444 0.46029314
0000c0 20 b7 db be 25 2f f9 bd cd 4e e9 bd 65 4f 5b 3e
       -0.4291315 -0.12167195 -0.11391983 0.21417005
0000d0 d1 d8 15 3e 1b fe af 3d 62 63 38 3d 25 29 2a be
       0.1463349 0.08593389 0.045016654 -0.16617258
0000e0 a3 f6 91 be b1 7a 14 be 43 54 03 be d8 13 8d 3d
       -0.2850848 -0.14499928 -0.12825112 0.068885505
0000f0 e7 36 98 3b 60 4d 5b bd bb 1b 44 ba 2c db 55 bd
       0.0046452167 -0.053540587 -0.0007480939 -0.05221097
000100 4d 89 a2 be 4c 20 89 be d3 d7 d1 3c 3b 85 40 3e
       -0.31745377 -0.26782453 0.025615608 0.18800823
000110 4b 52 dc 3e f4 4f 9d 3e 5b f8 3a be 32 3d 2c be
       0.43031535 0.30725062 -0.18258803 -0.16820219
000120 d4 8b a9 3d 63 41 4f 3e ae 78 cf 3e 0e de 0e 3e
       0.08278623 0.20239787 0.4052176 0.13951895
000130 93 74 da 3b c1 bd a7 3d 53 2d 62 bd 3a 90 39 bd
       0.0066667288 0.081904896 -0.055219006 -0.04530356
000140 c2 14 cb 3d 94 67 31 be fc 64 a2 3d 25 2e 18 3e
       0.099160686 -0.17324668 0.079294175 0.14861353
000150 1a a2 a7 bd e6 d1 8f b9 a6 2c 51 be 29 a0 9f bd
       -0.08185215 -0.00027431472 -0.20427188 -0.0779422
000160 37 d9 76 be 9d 72 f8 be b6 6e a8 3e 53 05 53 3d
       -0.24106298 -0.48524943 0.32896966 0.05151875
000170 37 31 c6 3e 3d 9c 9a 3d 67 f5 51 be 86 d4 dd 3d
       0.38709423 0.07549331 -0.2050377 0.10831551
000180 59 3f 6a be a5 45 02 be 58 f3 31 bd 76 68 37 bf
       -0.22875728 -0.1272188 -0.04344496 -0.7164377
000190 a1 14 a5 bd 3b 62 3e bd 29 79 d5 be 7c 57 4a 3e
       -0.08060575 -0.0464804 -0.41694 0.19759935
0001a0 20 f6 ae b8 d8 d4 87 be 4c 77 22 3e 85 8c a6 bd
       -8.342811e-05 -0.26529574 0.1586582 -0.08132271
0001b0 3d af c9 3e de 0e bd 3e b3 e6 ce 3d 66 20 88 bd
       0.3939151 0.36925405 0.10102596 -0.066468045
0001c0 bd cf c2 bc 15 b0 a3 be ef 42 b6 3d 7e ba e7 bd
       -0.023780698 -0.31970277 0.08899485 -0.113148674
0001d0 60 cf 9e 3e 10 54 31 3e 4d d2 e7 bd 78 0f 9e be
       0.3101759 0.17317224 -0.113194086 -0.30871177
0001e0 de 5f 85 be 64 ea 67 3e e3 9e 3f 3e 37 e8 f3 bc
       -0.26049703 0.22648007 0.18712954 -0.029773815
0001f0 ea 69 b7 bd 3b 29 f0 be d6 ac 32 3e db 67 e4 be
       -0.089557484 -0.46906456 0.17448744 -0.44610485
000200 83 1f 45 be ff 29 9d be 09 01 99 be 71 7a 2e 3e
       -0.19250302 -0.30696103 -0.29883602 0.17038895
000210 8a 32 98 3d fc 28 65 bd ef b4 90 bc 00 2e 10 3d
       0.074315146 -0.05594729 -0.0176644 0.03520012
000220 be 70 ca bd ad 4a a7 3e 81 30 61 be f0 97 2b 3e
       -0.09884785 0.3267416 -0.21991159 0.16757178
000230 cf 11 80 bd 98 9f 21 3d 12 f3 18 be 15 5f 50 3e
       -0.06253397 0.03945884 -0.14936474 0.20348771
000240 a1 d9 01 3e 95 6b 8e 3e 85 4c 8c 3d 5e 85 96 3e
       0.12680675 0.27816454 0.068505324 0.29398626
000250 a5 63 75 3e 00 4d 8f 3d cf 44 2e be 08 9a f0 3d
       0.23963793 0.069971085 -0.17018436 0.11748129
000260 68 25 05 be 4b 50 02 be 4c 38 3b be 68 51 83 be
       -0.1300255 -0.12725942 -0.18283194 -0.25648046
000270 44 46 2d be d1 92 4e be 10 fe f8 3e 18 62 66 3c
       -0.16921335 -0.20173194 0.48631334 0.014061473
000280 87 fe 08 3e 07 ad 84 be 7f fb 57 3e b3 7d 2d be
       0.13378344 -0.2591326 0.21092032 -0.16942482
000290 4e ff 5e be 3f 74 e7 3b b3 10 46 bc f4 d1 02 3e
       -0.21777079 0.007063418 -0.012088942 0.12775403
0002a0 67 83 6b be 6a dd 8d 3e f1 ea 61 3c 32 dc 6d 3e
       -0.22999345 0.27707988 0.013788925 0.23228529
0002b0 e4 83 ab 3e 84 a1 ee be 4c c9 84 be 54 18 c9 3d
       0.33499062 -0.46607602 -0.25934827 0.09819093
0002c0 b7 fc 23 3e 43 ec 5a 3e f7 0c 65 be c2 c9 c4 3d
       0.16014372 0.21379189 -0.22368227 0.09608795
0002d0 43 8d 9d be e5 62 91 3d 5b fe e8 bd 1e 37 de bd
       -0.30771837 0.07098941 -0.113766395 -0.108503565
0002e0 1f 11 19 be e8 4c 16 3e b4 91 ca 3e dd 32 d2 be
       -0.14947937 0.14677775 0.39564288 -0.4105443
0002f0 5d 1a d8 bd 9c 96 26 be 3c 06 0f 3e 41 ea 06 3d
       -0.105519034 -0.1626839 0.13967222 0.032938246
000300 fe 12 24 be da 9a 77 bd 3b 72 c7 3d 32 ed d3 be
       -0.1602287 -0.060450412 0.097385846 -0.41391903
000310 fc f7 f2 3d 51 68 8e bd e6 dd 27 be f1 e8 c8 3d
       0.118637055 -0.069534905 -0.16393241 0.09810055
000320 21 9e eb be 9a 7a 07 be 62 31 02 be c0 a8 64 3e
       -0.4601908 -0.13230363 -0.1271415 0.22329998
000330 b6 36 60 bd ea 81 4a bd ca c1 82 3e ed f1 ee bd
       -0.054739676 -0.049440302 0.25538474 -0.116672374
000340 6a 84 88 be ca 57 34 be 68 f3 a0 3d 76 aa 88 be
       -0.26663524 -0.17611614 0.07858926 -0.2669255
000350 43 8b 9d 3e b9 11 2b 3e f2 0c 51 3e 72 1e 45 3d
       0.3077031 0.1670598 0.20415094 0.048124738
000360 97 50 78 bd 5c d5 4a 3e 9d 3a 17 bd cd 68 08 bd
       -0.06062373 0.19807953 -0.036921132 -0.03330307
000370 0e fe cd bc e1 ab 5f 3e 07 cf c6 be 52 12 68 bd
       -0.025145557 0.2184291 -0.38829824 -0.056658097
000380 f3 3a a1 be 52 46 08 be 5c a5 f5 3d 91 42 c6 be
       -0.31490287 -0.13308075 0.119944304 -0.3872266
000390 8a 8a 8d 3e 72 a8 88 be db 82 13 bd 06 2a 4a be
       0.2764476 -0.26691014 -0.036013465 -0.19742593
0003a0 65 69 51 be f8 89 bb bd e3 ef 75 be 0b 46 ef 3e
       -0.20450361 -0.09157175 -0.24017291 0.46733126
0003b0 c2 21 2f bc 27 98 7f bd a1 56 32 bb 46 33 8b 3e
       -0.010689201 -0.062400963 -0.002721228 0.27187556
0003c0 c7 60 76 3e 9a 20 c9 be 24 32 68 3e a7 86 ca bd
       0.24060355 -0.39282686 0.22675377 -0.09888964
0003d0 05 01 1b be ff 79 69 bd 54 02 a5 be 5d cb 1d bc
       -0.15137108 -0.05700111 -0.3222834 -0.009631005
0003e0 1f a9 cb 3e 15 d8 50 bd 13 a9 db be 9a 18 90 3e
       0.39777467 -0.050987322 -0.4290243 0.2814377
0003f0 5e 04 04 3f b0 92 82 be 81 19 f7 3d 42 66 a4 3d
       0.51569164 -0.2550254 0.12065411 0.08027317

backbone.3.weight f4 [258, 258]
000000 d4 ec ac bd a3 e1 11 be 51 b3 0b bd 23 e6 0f bd
       -0.08443609 -0.1424623 -0.034106556 -0.035131585
000010 ac c8 0f be 50 85 28 3d ec 66 ca bc d7 c3 f5 bc
       -0.14041394 0.04114276 -0.02470728 -0.03000061
000020 c9 cf c6 bd 7a 2a 8f bd 0a f7 a8 3c 35 23 b2 bd
       -0.097076006 -0.06990524 0.02062561 -0.086981215
000030 31 67 06 bd c9 4a cd bc c4 c4 a0 bc e5 20 13 be
       -0.032813255 -0.025060074 -0.019625075 -0.14368017
000040 09 34 48 bc da 4b af bd 4f 59 3a bd 2a 52 87 bd
       -0.012219437 -0.085593894 -0.045495328 -0.066074684
000050 74 2b 7c be 7c fa 85 bc 4d 01 b5 bd 01 68 27 bd
       -0.24625951 -0.016354792 -0.08838139 -0.04087067
000060 2e d7 25 be 76 a3 13 bd 7d 83 2d 3c d9 ee c3 3c
       -0.16195366 -0.03604456 0.010590431 0.023917602
000070 97 5c 28 be cd 8d 6a bd 51 51 ef bc 29 c8 cb bc
       -0.1644157 -0.057264138 -0.02921358 -0.024875717
000080 c0 24 59 bd 89 5c 0d 3c 05 21 3a bd 04 cb 76 bd
       -0.053013563 0.008628019 -0.045441646 -0.060252205
000090 5c 91 cd 3b 49 3b ef bc 14 9d 02 be 7f 8d 0e bb
       0.0062734317 -0.029203074 -0.12755233 -0.0021751819
0000a0 55 a5 06 3c 93 ea 3a be e4 59 b6 3c da 36 ac bd
       0.008218129 -0.18253545 0.02225966 -0.084088996
0000b0 b6 01 65 bd 66 4d 51 bd 1c 8d 84 bd 43 ea 47 be
       -0.055909835 -0.051099204 -0.06472227 -0.19522958
0000c0 5e a7 bc 3b e7 2b 83 3c 04 99 e5 3b 51 6c a0 3c
       0.0057572564 0.016012145 0.0070067663 0.0195829
0000d0 c9 26 15 bd ab 07 a8 3c 31 87 d3 3b 41 a4 ad bd
       -0.03641394 0.020511469 0.006455325 -0.084785946
0000e0 84 68 42 bc a9 5f 84 bd da 34 9f bd d5 92 b4 bd
       -0.011865739 -0.06463558 -0.077737525 -0.088170685
0000f0 a9 0b 23 bd d7 8a 78 bd 41 84 0a bd 97 1d 0f bc
       -0.039806042 -0.060679283 -0.033817533 -0.008735082
000100 06 ba f7 bd e7 ed bd bd 12 73 55 be 40 29 f1 bd
       -0.12096028 -0.09273892 -0.20844677 -0.11775446
000110 eb fe e0 3c f5 f2 26 bd 05 10 04 be 84 5a 84 bd
       0.027465304 -0.040759046 -0.12896736 -0.06462577
000120 39 1d 44 bd a6 4e 00 be 2a 53 4d bc 9a 93 af bd
       -0.04787943 -0.12530002 -0.012532035 -0.08573075
000130 6c 66 75 bd 1b 38 01 be d9 2b 82 bd 8b a7 61 bd
       -0.05991213 -0.12619059 -0.063560195 -0.055091422
000140 0c 20 b0 bc b3 fe a7 3d 03 98 bc bd 7b c5 dd bd
       -0.021499656 0.08202877 -0.092086814 -0.10828682
000150 06 9a bd 3d 48 f0 00 3d 5c 88 90 3c 36 f2 95 bc
       0.09257893 0.03147915 0.017643146 -0.018303972
000160 58 6c 90 bd 6e d1 17 be 8f 0e 5b 3d 6f cd 5d bc
       -0.07051915 -0.14825985 0.05348068 -0.013537749
000170 11 8a 1e bc e0 72 16 bd ca 98 e5 3a 65 58 90 3d
       -0.009676472 -0.036730647 0.0017516848 0.0704811
000180 4f 41 63 3d 18 1a 4b 3b 4f cd 3b bd 47 fb a9 3b
       0.055482205 0.0030990895 -0.045850094 0.0051874253
000190 e0 c4 1d 3b a5 1b d5 b9 c4 8c bb bc 09 78 8e bd
       0.0024073645 -0.00040647123 -0.02289427 -0.06956489
0001a0 1b c2 22 3d d6 17 e3 bd 7b fe fa bd 9f 8b 09 be
       0.039735895 -0.11088531 -0.122555695 -0.13432167
0001b0 ab f7 36 3d d7 7e 01 b9 e2 3e 1b be 78 43 b3 bd
       0.04466979 -0.0001234965 -0.15160707 -0.08753103
0001c0 15 ca 9e 3a 9b 46 f4 bd 87 95 87 bd 73 60 99 bd
       0.0012114668 -0.119275294 -0.06620317 -0.07489099
0001d0 01 74 25 be 21 1b 05 3d 9a c2 30 bd 10 c5 94 bd
       -0.16157533 0.032496575 -0.043154337 -0.07264149
0001e0 15 1a 84 bd af e0 ec bd 71 8a 01 be 34 b7 4e bd
       -0.06450287 -0.115662925 -0.12650467 -0.050467685
0001f0 3d 2a 29 3a 60 b5 ff 3c d3 05 51 bc b6 fb 1d bd
       0.00064531324 0.031214416 -0.012757736 -0.03857013
000200 0f 0d 80 bd 0d 1f 96 bd 46 98 90 bd 1a 9b c2 bd
       -0.06252491 -0.07330141 -0.07060294 -0.095022395
000210 0b e2 ff bc 3a f1 b1 bd 74 fe 35 bd df c5 41 bc
       -0.031235715 -0.086885884 -0.04443212 -0.011826961
000220 27 ec 8c 3d 62 de 56 be 51 0e c2 bc 6f eb 85 bd
       0.0688098 -0.2098327 -0.023688467 -0.06539046
000230 f7 7a 94 bb 20 a2 14 bd 39 b9 95 bd b6 50 0b be
       -0.00453126 -0.036287427 -0.07310719 -0.13605008
000240 75 3b e4 bb 98 52 fe 3b 73 58 11 be 84 dc 6c bd
       -0.0069650956 0.007761311 -0.14193897 -0.057827488
000250 8e 71 51 3d 05 0e a3 bd e9 e2 20 bd 14 76 9f bd
       0.051133685 -0.079616584 -0.0392789 -0.077861935
000260 fb ca 96 bc 82 a5 33 3b c8 45 05 3d 25 01 08 be
       -0.018407336 0.0027411883 0.03253725 -0.13281687
000270 b2 95 ca bd 9e 65 4d bd 71 2c f8 bd fd 29 96 3d
       -0.09891833 -0.050145738 -0.121178515 0.073322274
000280 82 19 ca 3c dd 13 83 bd 82 b0 42 be d1 f0 a4 bd
       0.024670366 -0.06400273 -0.19012645 -0.080537446
000290 8c 1b 43 bd 9d b9 08 bd 49 79 e1 bc 66 95 4a bd
       -0.047633693 -0.03338014 -0.027523654 -0.049458884
0002a0 a0 3d 04 be cd 6c d7 bd 0b 42 ac bc 53 90 21 bd
       -0.12914133 -0.10518799 -0.021027585 -0.03944428
0002b0 fc 23 be bb 85 80 50 3c d6 4e ad ba e1 58 4c bd
       -0.0058026295 0.012725954 -0.0013222347 -0.04988945
0002c0 6f 37 9e bd 08 ae aa 3d cc 8f fb bd dd e5 7c 3d
       -0.07725417 0.08333975 -0.122832865 0.061742652
0002d0 74 e1 db bd 45 5c cd bd e5 69 00 bd 44 f7 70 bd
       -0.10736361 -0.10027365 -0.03135099 -0.05882956
0002e0 ee 9f a3 bd 45 fd e7 bc b8 41 05 be fb 13 96 bd
       -0.079894885 -0.02831901 -0.13013351 -0.0732803
0002f0 89 ad 32 3d 2c 61 09 3e c0 5d 0d bd e0 27 71 bd
       0.043622527 0.13415974 -0.034513235 -0.05887592
000300 19 d1 c9 bd 2a 64 4e bc 13 5e 8f 3d 2f 81 db bd
       -0.09854335 -0.012597123 0.07000365 -0.10717999
000310 d7 8f 88 ba 47 75 31 bd 45 ff 73 bd 2e 1d bc bd
       -0.0010418844 -0.043324735 -0.059569616 -0.09185253
000320 2f 31 05 bc fb 73 96 3c a5 8b 89 bd e9 ba 32 be
       -0.008129402 0.01836585 -0.06716088 -0.17454113
000330 9b a8 92 bd 58 9e 55 3d 09 29 09 bd fe 00 38 bd
       -0.07161065 0.05215296 -0.0334864 -0.04492282
000340 ca ff 29 3d 8f 4e 57 bd 26 18 16 bd 6c 83 8b bd
       0.041503705 -0.052565154 -0.036644123 -0.06812176
000350 ae 15 63 bd 8c e4 e9 bd 7c 63 c8 bd 6c 00 40 3d
       -0.055440597 -0.11420545 -0.097846 0.046875402
000360 52 d4 37 bd e1 5d 08 bd 23 6b df bc 85 e1 a0 3c
       -0.04488022 -0.033292655 -0.027272766 0.019638786
000370 5b 7f f3 bd 49 4d 1b be e2 c9 e4 bc 2b d8 50 bb
       -0.118895255 -0.151662 -0.027928296 -0.0031867127
000380 94 74 79 bd 42 7b 06 be 00 1f af be 16 40 aa bd
       -0.060902193 -0.13132957 -0.3420334 -0.08313005
000390 33 71 91 be 26 d3 f3 3c f9 a3 5b bd 5c 87 7b bd
       -0.28406677 0.02976377 -0.053623173 -0.061408386
0003a0 ec b2 48 3d e7 77 12 3d ad 72 8e bd 2f bf 3b 3d
       0.04899876 0.03575888 -0.069554664 0.045836624
0003b0 d8 1b fa bd ba e3 76 bd e2 3e 14 be 4b d9 25 bd
       -0.12212342 -0.06027577 -0.14477113 -0.04049043
0003c0 18 b6 52 bd 33 e0 fd bd 7d cd 5d bd 86 4f bf bd
       -0.05144319 -0.12396278 -0.054151047 -0.0934134
0003d0 ec 80 b9 b9 e2 8f c2 bd cd 52 6a bd 0b 7c e3 bc
       -0.00035382004 -0.095001 -0.05720787 -0.02776911
0003e0 5a f2 17 bd 60 03 60 bd ac f1 82 3b f4 11 bb bd
       -0.03709636 -0.05469072 0.0039960947 -0.09134284
0003f0 bf 39 32 bd 0a 1b 95 3d 3b ab 3d bc 41 c0 51 3c
       -0.043512102 0.07280548 -0.011576469 0.012802185

backbone.3.bias f4 [258]
000000 db 00 bc 3c 31 7c 0c be 56 be c6 bc 18 b6 ec bd
       0.022949627 -0.1371925 -0.024260681 -0.11558169
000010 44 76 92 be 5a 3a a6 bc 7c 26 1c 3e 1e 57 1f 3e
       -0.28605855 -0.020291496 0.15249056 0.15560576
000020 24 a2 35 bd d2 e5 80 3d 29 aa 29 bd 25 d6 bf bd
       -0.044344082 0.06293835 -0.041422043 -0.09367017
000030 3e 86 7d bd ff 4c cd 3d 52 41 a1 bd 5e 31 3d bd
       -0.0618956 0.100244515 -0.07873787 -0.04618966
000040 a2 15 35 3d ee be 25 bc 10 40 65 3d 9c e9 22 bd
       0.044210084 -0.010116322 0.055969298 -0.03977357
000050 4b 97 e3 bd 3a 32 02 3c 87 a2 b9 3d c1 17 5f 3d
       -0.11112841 0.007946545 0.09064203 0.054466013
000060 6a b4 23 be 57 92 bd bd f5 a8 6a 3c 1e b2 28 be
       -0.15986791 -0.09256428 0.014322509 -0.16474196
000070 94 4e 04 3d eb 68 94 3c 71 79 5d bd 29 a2 94 3c
       0.0323015 0.018116435 -0.054070894 0.01814373
000080 88 3a 3a 3e c5 76 c9 3d 0e 26 b6 bc 2b e3 2c 3d
       0.1818639 0.098371066 -0.022234943 0.04220883
000090 9d 42 af 3d 79 7d f1 bb 63 78 6a bd 51 7b c5 bd
       0.08557627 -0.007369694 -0.057243716 -0.09642661
0000a0 ba f8 04 3d 2d 34 04 be dc 59 a6 bd 57 10 c0 bd
       0.032463767 -0.12910528 -0.08122608 -0.093781166
0000b0 6b 8f 0a be d0 20 81 bc 51 78 f2 bd f7 d7 24 bd
       -0.13531272 -0.015762717 -0.11839355 -0.040245023
0000c0 23 89 07 bd c5 c7 35 bd c1 75 73 bd f2 e9 c8 3d
       -0.03308977 -0.04437997 -0.05943847 0.098102465
0000d0 4a 71 34 be bb 5f 9a bd cd 82 22 3d f1 4b 65 bd
       -0.17621341 -0.075377904 0.039675523 -0.055980626
0000e0 38 86 b6 bd a0 0e a3 bd c8 e3 40 bc 40 be 07 be
       -0.08912319 -0.07961774 -0.011773057 -0.13256168
0000f0 28 53 9b 3d be 8c 08 3d eb 9e e1 3d 5b c9 e9 bd
       0.0758422 0.033337347 0.11016639 -0.11415359
000100 83 2d e7 bd 93 b3 7f 3c 30 cf 64 3d dc 0c 37 3c
       -0.112879775 0.015606779 0.055861652 0.0111724995
000110 9c 72 93 bc 46 51 19 be d7 57 d2 bd 9a 54 d2 bd
       -0.017998986 -0.1497241 -0.1027066 -0.10270043
000120 59 3b 92 bd ec e5 3f 3d 81 df 9f bd 94 f4 9a 3e
       -0.07140226 0.04685013 -0.07806302 0.30264723
000130 c2 0e f0 bd b7 96 ac 3d 68 a2 c4 bc 8b 9a 39 bd
       -0.11721565 0.08427184 -0.024003223 -0.0453134
000140 38 a3 8f bd 72 91 39 be eb fd 84 3d 23 51 c6 3d
       -0.070135534 -0.18121889 0.064937435 0.09683444
000150 84 b5 3f be 79 e4 22 39 fd 25 41 3c 82 87 9c bd
       -0.18721586 0.00015534637 0.011788842 -0.076430336
000160 96 66 6b bd c5 17 36 bd 07 2f d2 bc d2 37 4c 3b
       -0.05747088 -0.044456262 -0.02565719 0.0031161201
000170 35 7d b0 bb 43 4d 44 39 5d 9b 52 bd 76 7f a0 3a
       -0.0053860196 0.00018720799 -0.051417697 0.0012245018
000180 07 1c b8 3d 9a d8 67 3c 73 9a 08 be 65 19 ba bc
       0.08989721 0.014150763 -0.13340168 -0.022717187
000190 d5 27 de 3c 66 78 5c 3c de 24 43 3e 94 05 14 be
       0.027118603 0.01345644 0.19057032 -0.14455253
0001a0 48 2a 94 bd 37 a8 e8 3c 42 22 b2 3d 2c e6 42 bd
       -0.07234627 0.028400524 0.086979404 -0.04758279
0001b0 ba 3f 19 bd e6 92 3d be 11 c5 2d bd df 71 c9 bc
       -0.03741429 -0.18513069 -0.042424265 -0.02459043
0001c0 6d 6d ce 3d f3 43 c8 bd 94 37 b6 bd 3f 11 21 be
       0.10079465 -0.09778585 -0.088973194 -0.15729235
0001d0 3c 4d b3 3d 8c fd 98 bd a4 73 bb bc 68 71 16 3e
       0.08754966 -0.07470235 -0.02288229 0.14691699
0001e0 27 fe e5 3b 04 45 fe bd cf 81 6a 3d 66 11 57 bd
       0.0070188227 -0.124155074 0.0572527 -0.052506827
0001f0 4f 64 1a bc fb 6d 54 be 05 20 c5 3d 53 57 25 be
       -0.0094233295 -0.20745079 0.09625248 -0.16146593
000200 6e 29 86 3d a8 e4 e6 3d f1 94 a5 3c 45 12 52 be
       0.06550871 0.112740815 0.020212622 -0.20514782
000210 6e f9 86 be 48 c5 57 3e c7 a0 8f bc 2a 48 a2 3b
       -0.26362175 0.2107135 -0.01753272 0.0049524503
000220 b6 c7 2f bd a3 24 b8 3d e5 40 80 bc 01 d9 d2 3b
       -0.04291507 0.08991363 -0.015655944 0.0064345603
000230 02 8c 17 be 2f c3 01 be e2 f7 a3 bd af a1 0b be
       -0.14799502 -0.12672113 -0.08006264 -0.13635896
000240 15 c0 73 be df 87 e4 bd 31 6f be bd fe cc 03 bd
       -0.23803742 -0.11158728 -0.09298552 -0.032177918
000250 99 01 38 3b 78 0c 4a 3b dd 42 b6 3d e3 ff 30 be
       0.0028077124 0.0030830186 0.08899472 -0.17285113
000260 b4 c4 f4 3b 41 5b 8b 3d 4f 71 9e bd 73 60 36 bd
       0.007469738 0.06804515 -0.07736456 -0.044525575
000270 26 d6 15 bd ea 08 56 bd dc 18 4c be 4d e7 17 be
       -0.03658118 -0.052254595 -0.19931358 -0.14834328
000280 71 e5 ae bc 72 ef 3e 3c 43 7b c6 bd ac 67 dd bd
       -0.02134964 0.011653768 -0.09691479 -0.108107895
000290 d1 f1 06 3e a8 0d ef bd 50 fe d6 bd 73 6d 3a bd
       0.13178183 -0.116725266 -0.10497725 -0.045514535
0002a0 26 be 1d be d8 47 6c bd 1f 6d 09 be 04 f8 52 bd
       -0.15404567 -0.057685703 -0.13420533 -0.051506057
0002b0 bc 7a ae 3c 02 ef 9a bd db 06 81 bd 2b 8d 23 be
       0.021298759 -0.07565118 -0.06300136 -0.1597182
0002c0 cc 56 39 be 3e f3 4e be 6f b7 84 bd 8d 69 99 bd
       -0.18099517 -0.20209977 -0.064803 -0.07490835
0002d0 6b e1 5f bd 2b 96 82 3c a5 67 ba 3d ee 8e 9e be
       -0.054658335 0.015940746 0.091018 -0.30968422
0002e0 a6 41 33 bd 99 f3 1b bd 91 af 01 be 09 fc 16 3e
       -0.04376378 -0.03807411 -0.1266463 0.14744581
0002f0 59 71 9e bd 60 9b 88 bd 06 41 c3 bd 58 e5 f6 bd
       -0.07736463 -0.066702604 -0.095338866 -0.120554626
000300 ce 03 b9 3b c6 19 7a bc c1 ff 49 3e 4c 92 87 3d
       0.0056462055 -0.015264934 0.19726469 0.06619701
000310 77 5d 37 3d 4c 31 8a bd bb c0 55 be 05 37 11 be
       0.04476687 -0.06747684 -0.20874302 -0.14181145
000320 7b f7 10 be 5e 31 9b be 5a 32 8a bd 76 c3 ed bd
       -0.14156906 -0.30311102 -0.06747885 -0.11609547
000330 ca bb 33 3d 6d 56 c2 3c 61 a1 b4 3c 3e dc d7 3b
       0.04388026 0.023722852 0.022049608 0.006587534
000340 0f d9 da 3d 90 64 7c bd b4 c3 95 bd fd 70 c5 3d
       0.10685932 -0.06161934 -0.07312718 0.096406914
000350 3a 2c 6e be 16 58 96 3d 22 b9 00 bd 6b 69 ca 3c
       -0.23259059 0.0734102 -0.031426556 0.02470847
000360 43 e2 46 bd 1f c0 0b be f1 3b 8d bd 94 d7 15 be
       -0.048555624 -0.13647507 -0.068961985 -0.14633018
000370 91 45 e5 bd 10 8c ea bd 56 98 d7 3d 00 9f 30 bd
       -0.11194909 -0.11452496 0.10527103 -0.043120384
000380 67 a9 69 3d 79 9b 68 3d 0a 04 5a 3c 28 66 ad bd
       0.05704632 0.056788895 0.013306627 -0.084667504
000390 c3 05 05 bd b1 91 68 3d ca 5b 00 be ed 30 3f bd
       -0.032476198 0.056779567 -0.12535015 -0.04667752
0003a0 92 6a 10 3b 2a b1 f3 3c b9 94 79 bd 64 8f 82 3d
       0.0022036177 0.029747564 -0.06093285 0.06375006
0003b0 45 fe da 3c 38 0e af bd 7b b3 37 be 17 e1 bd bd
       0.026732573 -0.08547634 -0.1793956 -0.09271448
0003c0 3b 06 fe 3d d5 c4 63 3d 08 6c 57 bd e2 a6 15 bc
       0.12403532 0.055607636 -0.05259326 -0.009134026
0003d0 df b6 42 bb 64 84 20 bc 6e 0a 35 bd 30 43 b7 bd
       -0.002971105 -0.009797189 -0.0441994 -0.08948362
0003e0 13 b3 9c 3d 40 50 30 3d 91 b9 d2 bd 83 4a 6c bb
       0.07651343 0.043045282 -0.102893 -0.0036055155
0003f0 da 45 7b be 73 84 3a be 05 63 27 3c 5a f7 7c bd
       -0.24538365 -0.18214588 0.010216479 -0.06175933

backbone.6.weight f4 [258, 258]
000000 b4 39 0a be 72 56 33 3b e0 0e a4 3c 62 49 0e bd
       -0.13498574 0.0027364758 0.020026624 -0.034737952
000010 54 76 b7 bc 48 7d 1b bc 99 5c 8b bd 1e 3f 44 bc
       -0.02239529 -0.009490319 -0.06804771 -0.011977939
000020 11 88 0c bc d9 c8 7a 3c d7 1f e0 bd e9 5f 61 bb
       -0.008577363 0.015306675 -0.10943573 -0.0034389442
000030 47 53 cf 3c a8 bd f4 3c 09 f1 02 be 2f 2a 40 bc
       0.025308264 0.029875591 -0.1278726 -0.011728807
000040 98 33 54 3d cd aa 70 bd f9 70 25 3d 23 75 2d 3d
       0.051807016 -0.05875664 0.040390942 0.04234804
000050 e9 c7 83 bd 8f 22 3a bc 65 11 bf 3c e8 da d0 3b
       -0.06434614 -0.0113607785 0.023323724 0.006373752
000060 68 4a ca bc 64 93 d4 bd 61 c8 9c 3c 77 80 ab 3d
       -0.024693683 -0.10379675 0.019138517 0.08374112
000070 a3 22 d4 bc 25 c2 56 bd 97 6f 76 bd 13 34 97 3c
       -0.025895422 -0.052431244 -0.060165014 0.018457448
000080 46 1b c5 3b 8e 73 4a bd 10 c7 e5 3d fe aa e7 bc
       0.006015214 -0.049426608 0.11219609 -0.028279778
000090 00 68 a0 bd 4f 5b 2d be 94 a4 95 3c 21 b4 51 3d
       -0.078323364 -0.16929363 0.018266954 0.051197175
0000a0 55 0e b7 bc 40 5c 96 bd 61 2e 83 bd ab 65 ae bc
       -0.022345701 -0.07341814 -0.064053304 -0.021288713
0000b0 f0 09 6a bd d5 e1 8c bd 80 81 42 3d d0 98 a5 bb
       -0.057138383 -0.068790115 0.047486782 -0.005053617
0000c0 30 e5 8a bd 50 d7 43 bd 6e 91 89 bd c4 88 3e bd
       -0.06781995 -0.04781276 -0.06717192 -0.04651715
0000d0 2c 8e 81 bb 6f 37 f9 bb 09 82 9a 3d 5c 10 c4 bd
       -0.003953716 -0.007605485 0.075443335 -0.09573433
0000e0 78 1b 43 3c be a2 c0 bd 6a 28 1e bd 7e 50 de bb
       0.0119084045 -0.094060406 -0.03861276 -0.0067844978
0000f0 f2 ef 71 bd fa f5 b4 bd f8 6c 8b bd b0 11 85 bd
       -0.05906672 -0.08835979 -0.068078935 -0.06497514
000100 51 c2 2c bd c5 c1 8e 3d 2b 58 9b bc 5e 46 b2 bd
       -0.042177502 0.06970552 -0.01896294 -0.08704828
000110 8c ad b9 bc de 7f b1 bd 34 bc 93 bd ca 55 41 3d
       -0.022665761 -0.08666967 -0.07213631 0.047200955
000120 3a de af 3c f6 10 9f bc 81 d9 8e bb af aa c6 bd
       0.02146827 -0.019417267 -0.0043594246 -0.09700524
000130 91 2b 91 3c 61 2e 80 3d f4 5a f8 bc 91 c0 d3 bc
       0.01772097 0.06258846 -0.030316807 -0.025848659
000140 5f 01 a7 3c f4 44 1f bd 63 20 98 3c 3d 3d b8 bd
       0.020386396 -0.03888412 0.01857013 -0.08996055
000150 12 4d 60 bd 6d 8b e8 3b 71 39 bd bd 59 3b 20 3c
       -0.054761 0.007096699 -0.09239472 0.009779775
000160 f1 dc 99 bc 17 47 c0 3d 40 37 34 3d 91 7b 15 bb
       -0.01878211 0.09388559 0.043998003 -0.0022809247
000170 f4 90 8c 3d 10 bc ea bd c6 79 fb 3c 6e 92 16 be
       0.06863585 -0.11461651 0.030697715 -0.14704296
000180 40 a5 aa 3c 57 68 88 3b 2f eb 2a bc 6f b1 35 bd
       0.02083075 0.004162829 -0.010432049 -0.044358667
000190 f8 d6 06 bd ee b6 2a 3a bf 3b 9b bc 11 97 02 3d
       -0.032919854 0.0006512244 -0.018949388 0.03188235
0001a0 83 b1 1d 3e cb 86 cd bc 7a 2f e8 bd 63 8f 0e be
       0.15399747 -0.025088688 -0.113371804 -0.13921885
0001b0 c2 fc ad 3c 2e d7 24 3d 7b 9e 9a bc f0 24 37 3d
       0.021238688 0.040244274 -0.018874398 0.04471296
0001c0 f3 eb 48 3d fa 1e 6f bd e8 0b eb bd 26 e8 0a 3a
       0.049053144 -0.05837915 -0.1147688 0.0005298875
0001d0 6f da 5c bd 42 4d 38 3d 65 db 5a 3d b9 15 bc bd
       -0.053919252 0.044995554 0.053431887 -0.09183831
0001e0 ae c6 d8 bc 02 a7 0e bd 36 1f 80 bd 4b 43 7b 3b
       -0.026461925 -0.03482724 -0.06255953 0.003833967
0001f0 32 ed 9a bd 03 ee a7 bd 8a 5f b6 bb ef 9d 18 bc
       -0.07564773 -0.08199694 -0.0055655884 -0.009314998
000200 fe 14 69 bd 68 e0 82 bd 25 dd 8a 3c 6d 6f 82 bd
       -0.056904785 -0.06390458 0.016951153 -0.06368909
000210 12 bc c7 3c 81 5e c3 bd 88 6c de 3c d8 37 ca bb
       0.024381671 -0.095395096 0.027151361 -0.006171208
000220 0f 75 ef bc 62 95 01 3e 3e 34 80 3d 4f fd a0 bd
       -0.029230623 0.12654641 0.062599644 -0.07860815
000230 52 a6 f8 bc 6c 34 9c bc ca 0b cb 3d 19 bc cc bd
       -0.030352745 -0.019067965 0.09914358 -0.09996814
000240 fd bc 7d bd 1a 71 15 bd 07 c5 35 bd fc 85 e4 bd
       -0.06194781 -0.036484815 -0.044377353 -0.11158368
000250 a4 91 91 bd 83 80 b1 3d 79 07 14 bd 09 6a 16 bd
       -0.07107857 0.0866709 -0.03613994 -0.036722217
000260 18 d0 1c 3c 42 24 8f 3d db 20 79 bd 83 a8 96 3c
       0.009571098 0.069893375 -0.06082235 0.0183909
000270 bf 84 ad bc 92 1d a2 3d ae 33 3d bc 17 b4 e2 bc
       -0.021181462 0.07915796 -0.011547966 -0.027673764
000280 ef 59 63 3d 8d 92 e0 bc f2 17 4b bd 29 de 32 bc
       0.05550569 -0.02741363 -0.049583383 -0.010917225
000290 2d da 2e bc 8b dd 59 bd be 8c 9a bd 30 a1 0c 3d
       -0.010672134 -0.053189795 -0.07546376 0.034333408
0002a0 ce 47 b6 3b 6c 6c 06 3c 60 42 f7 bc d9 4a c1 bc
       0.005562759 0.008204561 -0.030183017 -0.02359526
0002b0 83 84 90 bd dc 74 32 3d c6 c8 cf bc cc c7 15 3d
       -0.070565246 0.043568477 -0.02536429 0.036567494
0002c0 02 35 0f bc 93 2a da 3d 91 ca c6 3c 93 da 35 bd
       -0.008740665 0.10652652 0.024266513 -0.0443979
0002d0 e9 b6 9e 3c 15 84 33 3d 31 5d 06 bd b3 e8 b3 bd
       0.019374328 0.043827135 -0.032803718 -0.08784618
0002e0 68 7c 98 bd 80 26 bd bd 58 3f fa bb 99 be 8b bd
       -0.074456036 -0.09235859 -0.0076369457 -0.06823463
0002f0 4f e7 d4 bc 55 1f be 3d 5a 5c a1 3b 7a 22 2b 3d
       -0.025989203 0.0928332 0.0049243392 0.041780926
000300 f8 fa cc bd 69 8b bb 3b 3f 16 72 bd ee f4 1f be
       -0.10008806 0.005723406 -0.059103247 -0.15620777
000310 50 55 1a bc 1d 5b 88 bb fb 62 06 bd 0e 0d 5a bd
       -0.009419754 -0.004161252 -0.03280924 -0.053235106
000320 3e 5e 87 bd 9d 03 29 3c 27 7e ae bd 96 25 2b 3a
       -0.06609772 0.010315803 -0.085201554 0.0006528733
000330 b3 da 91 bd 80 eb f4 bc 05 16 13 3e 52 c4 00 bd
       -0.07121792 -0.029897451 0.14363869 -0.031437226
000340 99 55 ba bd 12 5b b5 bc 01 c9 b3 bd b0 fc 61 bd
       -0.09098358 -0.022138152 -0.08778573 -0.055172622
000350 7d 08 f5 bd 64 a3 9f bd d2 bb e0 bd 25 7d 9f bd
       -0.1196451 -0.07794836 -0.10973324 -0.07787541
000360 1e d4 94 bc ff bc e1 bc 06 b0 67 3c 54 7a 21 bd
       -0.018167552 -0.02755594 0.014141088 -0.0394233
000370 ac 76 89 bd 4d e2 d3 3d 86 e2 e2 3c 97 ad 60 bc
       -0.06712088 0.10345898 0.027695905 -0.013713262
000380 d4 f3 7e 3b 30 87 96 3c f0 37 b3 b9 8b 8b 0c bd
       0.0038902657 0.01837501 -0.00034183217 -0.034312766
000390 cf 1b 16 3d 5e 9a f6 bc 68 6c ed bc 04 87 35 bc
       0.036647614 -0.030102905 -0.028982356 -0.0110795535
0003a0 e3 ee c8 3c 7a ec f4 bd 30 b6 2a 3d 47 ea 9b 3c
       0.024527973 -0.11959167 0.041677654 0.01903261
0003b0 b0 21 43 bd 76 0a 9a 3c 4f 7d 02 3c cf 3f 54 bd
       -0.04763955 0.018803816 0.007964446 -0.051818665
0003c0 d3 58 2e bd 61 9a 9c 3d 46 be 84 b9 4e bc 4e 3d
       -0.042565178 0.07646633 -0.00025318767 0.05047255
0003d0 6a 7a ec bc f8 47 97 bd 38 f0 8f bd fc 86 2d bc
       -0.028866965 -0.07386774 -0.0702824 -0.010591265
0003e0 3e 29 46 b9 2b 00 dc 3d f6 89 8f bc 24 ff a3 bd
       -0.00018898115 0.107422195 -0.01752184 -0.080076486
0003f0 5b 45 7e bc 96 34 ed bc ae f6 4a 3d 38 4e 33 bc
       -0.015519465 -0.028955739 0.04955166 -0.010943942

backbone.6.bias f4 [258]
000000 33 7d 4a bd a2 fd 0c 3e 44 dc da 3e 67 26 6c be
       -0.049435806 0.13768628 0.42746174 -0.23061524
000010 69 7a 91 bc 11 c7 ab be b1 d2 ea 3d 5f 1d 03 3f
       -0.017758565 -0.33550313 0.114659674 0.5121669
000020 c9 90 44 be 85 94 37 3f ab 4e 91 3f bb 13 4d 3f
       -0.19195856 0.71711 1.1352133 0.8010823
000030 82 54 20 3f 0e b7 d1 3d 01 71 a5 be 28 f2 c6 3d
       0.6262895 0.10239993 -0.32312778 0.097141564
000040 3c b0 ea 3e 8b 0e 7d be 9d 33 60 3d ae d3 ba bc
       0.4583758 -0.24712579 0.054736722 -0.022806015
000050 69 c4 d3 be 76 88 54 be 02 36 84 3e 0e a0 97 3d
       -0.41360787 -0.2075518 0.25822455 0.07403575
000060 b7 71 25 be d4 05 cf 3d b3 fd 42 be 5b a6 9f be
       -0.1615666 0.101085335 -0.19042091 -0.31181607
000070 66 57 df 3e 31 34 a6 be 92 32 61 3d 66 bd c3 be
       0.43621367 -0.32461694 0.05497987 -0.38230437
000080 14 19 fd 3e 15 59 e2 be b2 26 0d bd b0 3c aa be
       0.49433196 -0.4420859 -0.03446073 -0.33249426
000090 b4 19 b2 3e a9 97 83 be fa dc 48 3f b4 1f 09 be
       0.34785235 -0.25701645 0.78462183 -0.13391
0000a0 0c ba d4 be c1 a1 bb 3e 17 bc df be 2f 6e 48 3f
       -0.41548193 0.36646846 -0.4369819 0.78293127
0000b0 1a a3 80 3e 56 c0 d0 3e 36 41 da bd 42 c7 91 3f
       0.25124437 0.4077174 -0.10656969 1.1388934
0000c0 04 9b 04 3e d4 89 58 bc 35 1a 1c 3f 90 0d 77 be
       0.12949759 -0.013216455 0.6097749 -0.24126267
0000d0 9e f8 aa be c9 86 2f 3f d8 97 5a 3e ab e7 54 be
       -0.33392805 0.6856504 0.21346986 -0.207915
0000e0 de 86 0d 3f 4c c3 ea 3e 86 4e 4a 3f 21 34 a0 be
       0.55283916 0.45852125 0.7902607 -0.3128977
0000f0 c5 97 08 3f d7 09 68 be 28 20 07 bf 39 de 0d be
       0.5335658 -0.22660004 -0.5278344 -0.13854302
000100 a1 30 3d be d0 29 57 3e 08 9f 15 be 72 e0 3c 3f
       -0.18475582 0.21012044 -0.14611447 0.73779976
000110 7c 8b b3 3e 3b e0 5f be 84 f2 5d be 65 d0 4a 3f
       0.35067356 -0.21862881 -0.21674544 0.79224235
000120 67 d7 06 3e 95 dd bb be 1e 61 39 3f 77 26 d3 be
       0.13168107 -0.3669249 0.72413814 -0.41240284
000130 f9 ee ed 3d a1 2b ac 3e 92 c2 d8 3e 76 67 b3 3c
       0.11617846 0.33627036 0.42335945 0.02189992
000140 de f1 72 be 4a ca 96 be be f5 87 3e 2c 30 b6 3e
       -0.23725078 -0.2945121 0.26554674 0.35583627
000150 ac 2e d5 3e 58 9c a4 bd 7f 13 c0 3e 60 9e 53 3f
       0.4163717 -0.08037633 0.37514874 0.82663536
000160 4e 80 2e 3f ba c7 b1 3e 99 38 ad bc a8 8d 22 3f
       0.6816453 0.34722692 -0.021145152 0.634974
000170 e8 19 9b 3e c0 af a4 3e 32 f1 d6 3e 13 ff 58 3f
       0.30293202 0.32165337 0.41980892 0.8476421
000180 fe 5e d6 3e c3 b8 a2 3e c9 56 59 3f fd b2 94 bd
       0.41869348 0.31781587 0.8489805 -0.07260702
000190 e3 65 fb 3d d8 5c c4 3e b5 e1 5c 3f be d9 cb 3e
       0.12275293 0.38352084 0.862819 0.39814562
0001a0 6a bf bc 3e 31 f4 c1 3e 57 cf 4b be 74 95 10 3f
       0.36864787 0.37881616 -0.19903313 0.5647805
0001b0 c5 17 43 bc 2d 8e bf be 87 73 9b 3f 49 b2 ae 3d
       -0.011907523 -0.3741316 1.2144631 0.08530099
0001c0 f9 31 c5 3e ff ed a1 be ef 84 a4 3e b7 ba ee 3e
       0.3851469 -0.3162689 0.3213267 0.46626827
0001d0 96 dc c2 bd 05 11 03 3f 6f 48 49 be 4f be 27 3f
       -0.0951473 0.51197845 -0.19656537 0.6552476
0001e0 de 9b ab bd 12 17 a0 3c f4 6f 46 3f 41 c6 22 3e
       -0.08379339 0.01954225 0.77514577 0.1589594
0001f0 10 f7 02 3e 15 85 77 3f ac a9 95 3e c6 7e 32 3f
       0.1278956 0.9668744 0.29231012 0.6972469
000200 a2 d2 94 be ca d9 96 bd a4 8f 92 3e 41 e3 c2 be
       -0.2906695 -0.07365759 0.28625214 -0.38064006
000210 e8 4e bd be 76 eb 1a 3e f6 63 c2 3e d5 75 9e bd
       -0.36974263 0.15128884 0.3796689 -0.077373184
000220 3c 51 1c 3e 42 f2 0f be 1f 10 02 3f 49 47 77 be
       0.15265363 -0.14057258 0.5080585 -0.24148287
000230 f7 18 c4 3e 19 bc 91 be ff 4b 78 3d ce 18 25 3f
       0.38300297 -0.2846382 0.06061935 0.64490974
000240 39 f9 62 3e c9 3e ab be 7c 51 a3 3e 86 d3 c1 3e
       0.22165383 -0.3344634 0.31898105 0.37856692
000250 36 8b 70 3f da 8b 2b be ee dd 3b 3f e0 e7 c2 be
       0.9396242 -0.16752568 0.7338551 -0.38067532
000260 18 5a e3 3e b2 21 86 be 86 50 66 3f e8 cf cb bd
       0.44404674 -0.26197582 0.8996662 -0.09951764
000270 de dc 84 be ae cd ec 3d ac 5b 8b 3e d2 27 7d 3f
       -0.25949758 0.11562668 0.27218378 0.98888886
000280 df cf 39 be 02 e3 e9 3e d3 d4 8a 3e 11 91 94 be
       -0.18145703 0.45681006 0.27115497 -0.29016927
000290 ad 39 eb bd 29 8a 06 bd 69 bc 34 be 53 46 18 3e
       -0.1148561 -0.032846604 -0.17649998 0.14870577
0002a0 d7 83 1e 3f 21 9d 01 be 7f ad 65 3f ba c5 e0 3c
       0.6191992 -0.12657596 0.8971786 0.027438033
0002b0 c0 eb 96 3e a9 f9 c0 3e 4f 1f f0 3e ec 71 06 3d
       0.29476738 0.37690476 0.46898887 0.032823488
0002c0 50 a1 b3 be ce bf 4b 3e 29 05 ff 3e 1b ee 3f 3f
       -0.3508401 0.19897386 0.49808624 0.74972695
0002d0 d0 09 43 bd ad 13 cf 3e 52 d4 30 be 21 bb 9d 3e
       -0.04761678 0.404447 -0.17268494 0.3080683
0002e0 54 cf a5 3e db f7 eb 3e 71 89 8c 3e 59 2f ad be
       0.3238474 0.46087536 0.2744861 -0.33825186
0002f0 04 72 4e 3f 8d 00 d7 bd d0 d8 47 3e aa 0a 57 be
       0.80642724 -0.10498152 0.19516301 -0.21000162
000300 65 f3 11 3f 15 a6 6a 3d ab 9f 14 3f 02 8d 44 be
       0.57012016 0.057287294 0.58056134 -0.19194415
000310 aa c5 cc 3e 83 0a 71 be 43 24 90 3e d4 64 aa be
       0.39994556 -0.23539166 0.28152665 -0.3328005
000320 07 8f 90 3e bf e1 a5 be 72 fd a0 3e 4b fb 6c be
       0.2823412 -0.32398793 0.31443363 -0.23142736
000330 22 ac 4b be 1a 7a 0f 3f 9c fa c4 3e 67 b6 a1 bd
       -0.19889882 0.5604569 0.3847245 -0.078961186
000340 67 1c c3 bd 61 f7 a8 bd af 16 07 bc a8 02 52 3e
       -0.09526902 -0.08250309 -0.008245154 0.20508826
000350 90 02 82 be 02 b8 e0 3d 9d a8 a8 be 1e 4a af be
       -0.2539258 0.10972597 -0.32941142 -0.34236234
000360 a2 cd 34 3e d6 6d 0e 3f d8 c3 0a 3f 49 b8 53 3f
       0.17656568 0.55636346 0.54205084 0.8270307
000370 ad c9 8a 3f 42 3c b3 3f 8b 64 33 3f a4 45 27 3e
       1.0842797 1.4002764 0.7007529 0.1633516
000380 16 13 15 3f 37 7f 49 be 15 97 9f 3e 51 40 1c be
       0.5823225 -0.19677435 0.31169954 -0.1525891
000390 ac 28 ce 3e 26 de 8a 3e 2c cd 60 be 9f 4e bb bd
       0.40265405 0.2712261 -0.21953267 -0.09145855
0003a0 4b f4 15 bb 60 d2 7d bc c8 2e 91 3e 00 37 89 3d
       -0.0022881206 -0.015492052 0.28356004 0.066999435
0003b0 7f 02 c9 3c 3c 23 f9 be 7b 6c 48 3e 89 da 80 3e
       0.024537323 -0.48659694 0.19572632 0.2516673
0003c0 ff 6b 7d be bc c9 eb 3e ae c3 14 3f 58 1f 07 3f
       -0.24748228 0.4605235 0.58111084 0.527822
0003d0 00 8c c6 3e fb 54 02 3f 11 9b 45 3f 9d 91 51 3e
       0.38778687 0.5091092 0.7718974 0.20465703
0003e0 05 fa 00 3f 6f 36 73 be 48 d1 8c 3f 5c 3b c4 be
       0.503815 -0.23751234 1.1001368 -0.38326538
0003f0 89 32 95 bd f7 b0 13 be ea 5c b6 3e 79 68 2e 3f
       -0.072850294 -0.14422975 0.35617763 0.6812816

value_head.weight f4 [1, 258]
000000 2c 0f a4 bd 44 71 c1 3c 1c 7a 41 3d f8 10 3b 3c
       -0.08010706 0.02361358 0.047235593 0.01141762
000010 dc fa 37 3a 4a 34 59 bd c5 fa c7 3a b2 e1 fe 3c
       0.0007018277 -0.053028382 0.001525723 0.03111348
000020 70 32 52 bc 3b f6 0b 3d 5a a9 c1 3d 5a 95 5d 3d
       -0.012829408 0.03417037 0.09456129 0.05409751
000030 34 63 83 3d fc 7c 9a bc 0c df 3a bd 5c 03 dc 3c
       0.06415406 -0.018858425 -0.04562287 0.02685707
000040 a0 99 7d 3d 9e 1e 97 bc 7b 5c 39 3d 76 a6 a3 bc
       0.061914086 -0.018447217 0.045254212 -0.019976836
000050 f1 c9 01 bd cf 90 5f bd cf 0e 83 3c c6 65 e4 bb
       -0.031686727 -0.05458146 0.015998272 -0.00697014
000060 81 c0 2c bd 94 c5 12 3b b0 0d 9c bc 1c da 49 bc
       -0.042175774 0.0022395598 -0.019049495 -0.012320068
000070 cf d0 f3 3c 54 e1 15 3c 30 bd e5 bb ca 92 b0 bc
       0.029762654 0.009147961 -0.0070110783 -0.02155437
000080 85 e5 39 3d ce cc 6a bd 52 21 7f 3b a9 5e a6 bc
       0.045384903 -0.057324223 0.0038929773 -0.02030881
000090 d4 dd 9b 3d 61 d4 bb bd b3 46 59 3d 1e 5e 98 bc
       0.0761067 -0.091713674 0.05304594 -0.018599566
0000a0 20 7a 5d 3c 22 e2 0b 3d b0 9f ea bc 55 da 95 3d
       0.013517886 0.034151204 -0.028640598 0.07317034
0000b0 0f e3 7e 3c 8b f4 cc 3c ba 44 85 bc 45 f3 88 3d
       0.015557065 0.02501895 -0.016268123 0.06687025
0000c0 7d c4 10 3d 2d 8d 1c 3d 94 f8 5a 3d 52 73 be bc
       0.035343636 0.038220573 0.05345972 -0.023248348
0000d0 f0 df 83 bd 24 ff 54 3e 60 c7 87 3c 13 69 85 bc
       -0.06439197 0.20800453 0.016574562 -0.016285455
0000e0 fd 23 d1 3d 0c f8 ae 3c b5 3d 58 3d c8 0c d1 bc
       0.10211942 0.021358512 0.052793223 -0.02551879
0000f0 5c 82 01 3d 21 f3 9e bc e4 39 e2 bc bf 0d 51 bd
       0.03161846 -0.019403042 -0.027615495 -0.0510385
000100 b4 a9 a2 bb ce b3 92 3c 2f 95 a0 3b f5 6b 4b 3d
       -0.004964078 0.017908003 0.0049005966 0.049663503
000110 78 4d 46 3d 1e 73 a2 bc df 91 d0 3b d0 26 72 3d
       0.048413724 -0.019830283 0.0063650454 0.059119046
000120 11 60 0c 3c 0e 05 c9 3b a6 e0 3b 3d 5c 13 04 bd
       0.008567826 0.006134636 0.04586854 -0.032245025
000130 4a 43 21 bc 62 0b 0a 3c 9f 5c 4b 3c 77 ac a7 3c
       -0.009842703 0.008425565 0.012412219 0.02046798
000140 70 6e da 3c 8b 5f a0 bc 0f ce 9b 3c 4f 74 35 3d
       0.026663989 -0.019576808 0.019019155 0.044300374
000150 4f 1d 2e 3d d3 04 60 bc 45 82 87 3d ed e7 7d 3d
       0.04250842 -0.013673025 0.06616644 0.06198876
000160 42 71 71 3d b9 96 79 3d 98 22 6b 3d 3b f7 74 3d
       0.0589459 0.060934756 0.057406038 0.05980609
000170 8c e1 ae 3c 0c 75 ed 3c 49 bd 29 3d 48 83 93 3d
       0.021347784 0.028986476 0.041440282 0.07202774
000180 75 90 87 3d 72 4b c5 3c 80 bb 57 3d 3f 1c e7 bc
       0.0661935 0.024083827 0.05266905 -0.028211711
000190 be c8 85 b9 07 3f b0 3c 16 4a 52 3d 5f 05 00 3d
       -0.000255173 0.021514429 0.051340185 0.031255122
0001a0 67 5e d9 3c 91 1c a6 3c de 79 c2 bc b3 fb 9d 3d
       0.026534272 0.020277293 -0.023739751 0.077140234
0001b0 34 e0 4a bc 12 e6 cb bc bc 5b 99 3d 9e 43 38 3d
       -0.012382556 -0.02488998 0.074882 0.04498636
0001c0 ab ee 94 3d 6e ff 54 bd 8b 57 f7 3c 1d 87 4f 3d
       0.07272085 -0.05200141 0.03019311 0.050665963
0001d0 f7 7a a8 bc d9 49 11 3d 65 4d 33 bd 35 d0 80 3d
       -0.020566447 0.035470817 -0.04377498 0.06289712
0001e0 51 8a fd 3c c5 64 44 3b cf 56 40 3d 9a 80 0e 3c
       0.030949743 0.002996729 0.046957787 0.008697653
0001f0 49 e3 d9 3c 31 39 99 3d fa ea 0d 3d 38 f0 0e 3e
       0.026597636 0.074816115 0.03464792 0.13958824
000200 ac a5 88 bc bd a2 eb bc 58 aa 17 3d 93 18 23 bd
       -0.016680561 -0.028764123 0.037027687 -0.039818358
000210 bb 1e 5d bd fd 79 7a 3c 5c 3c 44 3d 61 72 fa bc
       -0.053984385 0.015287873 0.047909126 -0.030572118
000220 ac 49 05 3c a4 72 e8 bb 64 69 4b 3d 8d 3f d9 bb
       0.0081352405 -0.0070937444 0.049661055 -0.0066298903
000230 69 7a 43 3d 1e bf bf 3c f8 fa 92 3c b9 d6 be 3c
       0.04772416 0.023406561 0.017941937 0.023295747
000240 21 79 a4 3c 7b 1f 2a 3d b5 ab 39 3d 72 36 03 3d
       0.02007729 0.04153393 0.04532977 0.032034345
000250 c0 70 a8 3d 05 f6 2f bd 54 dc 1b 3e 2a 59 b6 bc
       0.0822463 -0.042959232 0.15220767 -0.022259314
000260 84 67 38 3d 09 00 eb bc 0d 3a 8e 3d 72 9d 1f bb
       0.045020595 -0.02868654 0.06944666 -0.002435532
000270 57 f5 d7 bc 31 5d 81 3c 43 7d 1d 3c 78 2c 81 3d
       -0.026362104 0.015791507 0.009612384 0.0630731
000280 39 5f 47 bd 6f df 26 3d d7 77 68 3c fc 01 31 3c
       -0.048674796 0.040740427 0.014188728 0.010803696
000290 1f be 66 bc ce 65 02 bd 69 de c2 bc a1 fd 9b 3c
       -0.014083414 -0.03183537 -0.023787694 0.019041838
0002a0 7c 3c 3d 3d d9 14 a8 bb 27 3e 46 3d a6 96 8e bc
       0.04620026 -0.0051294384 0.048399117 -0.01740582
0002b0 5f e4 a3 3c b1 38 ef 3c 02 0a 1e 3d d6 ac 8a 3b
       0.020006357 0.029201837 0.038583763 0.0042320294
0002c0 c2 03 f0 bc a1 8d 55 3c b6 95 78 3d 50 09 2e 3d
       -0.029298667 0.013034255 0.06068965 0.04248935
0002d0 59 66 f5 bb 10 6f 12 3d a4 39 33 bd 36 e3 d2 3c
       -0.0074890074 0.03575045 -0.043756142 0.025743108
0002e0 aa 28 70 3d bb 9d fa 3c 26 34 96 3d 84 51 62 bb
       0.05863253 0.03059279 0.07334165 -0.003453345
0002f0 f0 ce a1 3d ff e3 28 bc 4f ff b4 3c 11 68 45 bd
       0.07900798 -0.010308265 0.022094397 -0.04819495
000300 a4 04 5e 3d 5c 3e 27 3c 64 e3 07 3d 20 42 cb bc
       0.054203644 0.010207739 0.03317584 -0.024811804
000310 34 e1 41 3d 7b ae 1e bb 2c dd 06 3d df a0 42 bd
       0.04733391 -0.0024212885 0.03292577 -0.0475167
000320 cb 69 c9 3c b8 fb f1 bc 12 52 e0 3c 85 f9 b8 bc
       0.024586579 -0.029538974 0.027382884 -0.022579918
000330 79 94 68 3c 4e 27 66 3d 1b cc 93 3d 52 8b c0 3b
       0.014195555 0.056189828 0.072166644 0.0058759833
000340 05 d7 f1 bb e9 fe 0e bc 72 cf aa 3b ec 3d e6 3c
       -0.0073803687 -0.0087277675 0.0052127177 0.028105699
000350 16 46 38 bd 29 2f 32 3d 81 42 de 3b 68 18 21 bd
       -0.044988714 0.043502007 0.00678283 -0.039329916
000360 ba ff 22 3d 09 a2 ac 3d a1 23 4e 3d 75 b7 55 3d
       0.03979466 0.08429343 0.050326947 0.05217691
000370 1b 54 81 3d 55 12 a0 3d 9b ce 55 3d 5d 07 7c 3d
       0.0631487 0.078159966 0.052198987 0.06153046
000380 1b 96 3c 3d b6 f5 d9 bc c6 dd b8 3c 3c fa 65 bd
       0.04604159 -0.026606422 0.022566687 -0.056146845
000390 ae 9b 4b 3d 30 17 85 3c 81 71 94 bc ca a5 ef bc
       0.049709015 0.016246408 -0.01812053 -0.02925386
0003a0 7c e3 9b bb b6 44 c0 ba ef de ca 3c 37 3c c2 3b
       -0.004757343 -0.0014668915 0.024764506 0.0059275883
0003b0 9a 57 84 3a 5a 66 26 bd 07 c1 8a 3b 1d c0 cc 3b
       0.0010096908 -0.040624954 0.0042344364 0.0062484876
0003c0 6a 15 5e bd 6f 33 40 3d 19 9f 40 3d 26 8d 1d 3d
       -0.05421964 0.04692405 0.047026727 0.038464688
0003d0 4a 6a f1 3c 61 09 07 3e 72 23 ee 3d 6d d6 33 3c
       0.029469628 0.13187172 0.116278544 0.010976416
0003e0 68 99 4e 3d 80 8f ed bc a6 76 69 3d 33 7f 23 3c
       0.05043927 -0.02899909 0.056997918 0.009979057
0003f0 d7 a8 1c bd 7e f6 3d bd a6 92 18 3d cb 92 50 3d
       -0.038246956 -0.04637765 0.03724923 0.050921243
