models/cql_model_2022_2023.pth (torch, 94405 bytes, 9 tensors)

backbone.0.weight f4 [64, 208]
0	0x3e984343	0.29738817
1	0x3dfc3d99	0.12316436
2	0xbd82b6f8	-0.06382555
3	0xbdaf52d4	-0.0856072
4	0xbe4e74c3	-0.20161729
5	0x3e4b2c17	0.19841038
6	0x3e9f51bc	0.31117046
7	0x3d915261	0.07095791
8	0x3d745534	0.05965157
9	0xbdcc1bd9	-0.09966249
10	0x3b9eb8f0	0.0048438236
11	0xbe1fae75	-0.15593894
12	0xbb624b9c	-0.003452993
13	0x3c38f747	0.011289424
14	0x3d8b7e88	0.06811243
15	0x3c4a8f7b	0.01236331
16	0xbdb90b07	-0.090353064
17	0x3d4548bf	0.04816508
18	0xbc902d71	-0.017599793
19	0x3d910d67	0.070826344
20	0x3c730394	0.014832396
21	0x3ca09ce8	0.019606069
22	0x3da6096a	0.08107264
23	0x3d2c964d	0.042135525
24	0x3cba5d61	0.022749605
25	0x3d9489af	0.072528236
26	0x3da844ea	0.08216269
27	0x39340fb7	0.00017171992
28	0xbd9e6080	-0.0773325
29	0x3d7c08d1	0.061531845
30	0xbd5bceae	-0.053663902
31	0x3bed9419	0.0072503206
32	0xbcae4daf	-0.021277277
33	0x3dca241b	0.09870168
34	0x3d1ca1f6	0.038240395
35	0xbcb11dbe	-0.021620627
36	0x3ba7a004	0.005115511
37	0x3cf04503	0.029329782
38	0x3d72d674	0.05928655
39	0x3d4a8fa6	0.0494534
40	0x3b522452	0.0032065106
41	0x3e08de22	0.13365987
42	0x3d6c7ae1	0.057734374
43	0x3dd617e5	0.10453776
44	0x3d4f6eb5	0.050642688
45	0x3d680427	0.056644585
46	0x3d9a4f19	0.07534618
47	0x3de3c6df	0.11121916
48	0xbcd921da	-0.0265054
49	0xbd39b2f8	-0.045336694
50	0xbdcecea8	-0.1009801
51	0x3da3001b	0.079590045
52	0xbc29b1d2	-0.010357337
53	0x3d919092	0.07107653
54	0xbce13cec	-0.02749487
55	0x3d7ce8b4	0.06174536
56	0xbc95962d	-0.018260086
57	0x3db6d689	0.08927638
58	0xbca629d8	-0.020283625
59	0x3d0c5e33	0.034269523
60	0xbc4e95e7	-0.012608982
61	0x3dac64ba	0.084176496
62	0x3c7e7256	0.0155301895
63	0x3d085be7	0.03329077
64	0x3d9d26bf	0.07673406
65	0x3c5e1ca9	0.013556638
66	0xbb233720	-0.0024904683
67	0x3d80b173	0.06283846
68	0xbd4891f1	-0.048967306
69	0x3d6c427f	0.057680603
70	0x3e3c06fa	0.18362036
71	0x3cb6c8af	0.02231249
72	0x3d7b01ea	0.061281122
73	0x3deff13e	0.11715935
74	0xbb66769a	-0.0035165907
75	0x3d95e226	0.07318525
76	0x3ce24b34	0.02762375
77	0x3d3ed131	0.04658622
78	0x3be7a99a	0.0070697786
79	0x3d35669f	0.04428732
80	0x3d8b8fc7	0.06814533
81	0x3dea666c	0.11445317
82	0xbe0b57fc	-0.13607782
83	0x3ddabef9	0.106809564
84	0x3c65d538	0.014027886
85	0x3d047460	0.032337546
86	0xbbabfc1a	-0.0052485587
87	0xbd31fc8b	-0.043453734
88	0x3d99f508	0.07517439
89	0xbd80984d	-0.06279049
90	0x3d280c5c	0.04102741
91	0x3d0598e8	0.032616526
92	0x3d631461	0.055439357
93	0x3d9e0bbd	0.07717083
94	0x3cfedfd4	0.031112589
95	0x3ca73df5	0.020415286
96	0xbba92422	-0.005161778
97	0x3d970575	0.07374088
98	0x3db1bb40	0.08678293
99	0x3d75dea8	0.060026795
100	0xbd9b1c8e	-0.07573806
101	0xbb5ccf68	-0.003369296
102	0xbd2c8c87	-0.042126205
103	0x3d85efcc	0.06539878
104	0xbd55dab3	-0.05221052
105	0x3bf13e70	0.0073621795
106	0xbb5244a0	-0.003208436
107	0xbd463af9	-0.048396084
108	0x3d45ef40	0.04832387
109	0xbc08d388	-0.008351214
110	0xbca27312	-0.01983026
111	0xbd30b188	-0.043138057
112	0xbd856fa2	-0.06515433
113	0xbd56de84	-0.0524583
114	0x3b560a60	0.0032659993
115	0xbb2d09d2	-0.0026403558
116	0x3d2674e0	0.040638804
117	0x3cd5f304	0.026116855
118	0x3d8494f3	0.06473722
119	0xbc83393c	-0.016018502
120	0x3d2b37c0	0.041801214
121	0xbd462eb4	-0.048384383
122	0xbca8cd04	-0.020605572
123	0x3d6fe8ca	0.058571614
124	0x3d89a75d	0.06721375
125	0xbd7d44cf	-0.0618332
126	0x3cd78e34	0.026312925
127	0x3c97b525	0.018518994
128	0x3cb8e731	0.022571178
129	0x3cf54cfc	0.029943936
130	0xbac0a5de	-0.001469787
131	0x3d1b2ff4	0.03788753
132	0xbc7eacd0	-0.015544131
133	0x3dc73b86	0.0972815
134	0xbdeae4bd	-0.114694096
135	0xbd04da4b	-0.032434743
136	0x3da403a9	0.080085106
137	0x3d0b3bd8	0.03399262
138	0x3d800143	0.06250241
139	0xbbe0f959	-0.006865662
140	0x3d3ed6f2	0.046591707
141	0xbd7e780b	-0.0621262
142	0xbca52098	-0.020157143
143	0x3df7d8ab	0.12101873
144	0x3d5f02b0	0.054445922
145	0x3c6ce9de	0.014460055
146	0x3d92424a	0.0714155
147	0xbcd7ead9	-0.026357101
148	0x3d935289	0.07193477
149	0x3c80f4f2	0.015741799
150	0xbd6ce1c5	-0.057832498
151	0xbda483a5	-0.08032922
152	0x3cab92af	0.020943968
153	0xbd3d1831	-0.04616565
154	0xbd4b3e70	-0.049620092
155	0xbcf3fc72	-0.029783461
156	0x3d616fb8	0.055038184
157	0x3dda23ec	0.10651383
158	0xbddf4a44	-0.10902837
159	0x3cfe9079	0.03107475
160	0x3d23f9b5	0.04003306
161	0x3db7629f	0.08954357
162	0x3d943051	0.07235778
163	0xbcfc2657	-0.03078
164	0x3ca31b6e	0.01991054
165	0x3d6b1424	0.057392254
166	0xbdb9f597	-0.09080046
167	0x3d85adf2	0.06527318
168	0x39718b24	0.00023035385
169	0x3d9c4c98	0.076317966
170	0xbbed8636	-0.007248665
171	0xbb84f879	-0.0040579406
172	0x3c88afcc	0.016685389
173	0x3decc691	0.11561311
174	0xbde3e137	-0.11126941
175	0x3d8fc5fd	0.07020185
176	0xbc82f473	-0.015985703
177	0x3cfa4fc8	0.03055562
178	0xbdb1ec15	-0.08687607
179	0x3d3fedd3	0.046857666
180	0x3cdb90de	0.026802476
181	0x3d86f7d9	0.06590242
182	0x3d517d40	0.05114484
183	0xbda1cdd7	-0.07900589
184	0x3b484f27	0.0030564757
185	0x3dc90ca8	0.09816867
186	0x3c815a01	0.015789988
187	0x3e0f5c13	0.13999967
188	0x3d32034b	0.04346017
189	0x3df5359f	0.11973118
190	0x3da38472	0.07984246
191	0xbd5e2054	-0.05423005
192	0x3d44e2c4	0.048067823
193	0x3b3f4eac	0.002919118
194	0x3db3e4e0	0.08783889
195	0x3e5a5ecd	0.21325226
196	0x3c06cce3	0.00822756
197	0x3c65967c	0.014012929
198	0xbe7aca77	-0.24491297
199	0xbd958915	-0.07301537
200	0xbd9a4402	-0.07532503
201	0x3bbcbfa5	0.0057601505
202	0xbbd64dc5	-0.0065400326
203	0x3d9455c8	0.07242924
204	0xbd06588a	-0.03279928
205	0xbcb4ee7b	-0.022086373
206	0xbdb53593	-0.08848109
207	0xbce81608	-0.028330818
208	0xc026dc65	-2.6072018
209	0xbe5269fd	-0.20548244
210	0xbf216f8c	-0.6306083
211	0xbee2e2f1	-0.44313768
212	0xbed3e915	-0.41388765
213	0x3df507b8	0.11964363
214	0xbaeb5348	-0.0017953897
215	0x3e20a1b9	0.15686692
216	0xbd1e619e	-0.038667314
217	0x3e060d0b	0.13090913
218	0x3d3cf6b6	0.04613372
219	0x3ed09c08	0.40744042
220	0xbde1fd73	-0.1103467
221	0x3d284132	0.0410778
222	0xbb2acbff	-0.0026061533
223	0x3e20dc73	0.15709095
224	0x3e4e5cc8	0.2015258
225	0x3d352e6e	0.044233732
226	0x3ececd3f	0.40390965
227	0x3e40cec4	0.18828875
228	0x3e3a2485	0.18177994
229	0x3d5cde2e	0.053922825
230	0xbc241c68	-0.010016538
231	0x3ccb08f7	0.024784548
232	0x3e46b03b	0.19403164
233	0x3e23a24b	0.15979879
234	0xbd87c673	-0.06629648
235	0x3e8a8b7b	0.2705954
236	0xbb94540e	-0.0045266217
237	0x3e4a49a1	0.1975465
238	0x3d467a1a	0.04845629
239	0x3d77c824	0.060493603
240	0xbc83f839	-0.016109573
241	0x3e396619	0.18105353
242	0x3e9874a4	0.2977649
243	0x3e0d6bb2	0.13810614
244	0x3e87f884	0.2655679
245	0x3e00f637	0.12593924
246	0x3de4cc76	0.1117181
247	0x3de0c7ca	0.10975607
248	0x3d9b82d1	0.075933106
249	0x3b32ea71	0.0027300382
250	0x3e49ea9d	0.19718404
251	0x3d2a0186	0.04150536
252	0xbdb6cf9e	-0.089263186
253	0x3e915e74	0.28392375
254	0x3d83acc7	0.06429439
255	0x3e118041	0.14209081

backbone.0.bias f4 [64]
0	0xbb863774	-0.004095966
1	0x3d535f4f	0.051604565
2	0xbc8ce2fa	-0.017198075
3	0x3d8458ce	0.06462251
4	0x3d8f07ce	0.069839105
5	0xbd86c793	-0.065810345
6	0xbdae70d4	-0.08517614
7	0xbd790136	-0.06079217
8	0x3d81ca39	0.06337399
9	0xbc6b50b5	-0.014362504
10	0x3d0b86f6	0.034064256
11	0x3de29233	0.110630415
12	0x3c98fcbe	0.018675204
13	0x3c4292b5	0.011875798
14	0xbd15394b	-0.036431592
15	0x3d653d4c	0.05596666
16	0x3d60e171	0.054902498
17	0x3c85fec8	0.01635684
18	0xbca4becb	-0.020110508
19	0x3cbe6e56	0.023245972
20	0x3b9278c5	0.0044699633
21	0xbd8dc832	-0.0692295
22	0xbd87a599	-0.06623382
23	0xbd25bf94	-0.040465906
24	0xbd9c6586	-0.076365516
25	0xbd6ac4ba	-0.05731652
26	0xbbb249a8	-0.0054409094
27	0x3d9c0ff0	0.07620227
28	0xbca7835e	-0.020448383
29	0x3d645542	0.05574537
30	0x3d89d387	0.06729799
31	0xbcc53134	-0.024071313
32	0xbe406a50	-0.18790555
33	0xbe5c0e2c	-0.21489781
34	0xbc5aee00	-0.013362408
35	0x3d9a86df	0.07545256
36	0x3c3dae20	0.011577159
37	0x3dcca886	0.09993081
38	0xbdb15559	-0.08658857
39	0x3d666a20	0.056253552
40	0xbd9f1744	-0.077681094
41	0xbe22a10b	-0.15881746
42	0x3e126394	0.14295799
43	0x3d102347	0.035189893
44	0xbb1da7f3	-0.0024056404
45	0xbe0485fb	-0.12941734
46	0x3d7bb29d	0.061449636
47	0x3c019c6d	0.00791083
48	0xbc141640	-0.009038508
49	0xbd9f05ba	-0.07764764
50	0x3d104a50	0.03522712
51	0xbe0a0da4	-0.13481766
52	0x3deb9d4a	0.1150461
53	0x3d999155	0.07498423
54	0x3d306466	0.043064497
55	0x3ce5f340	0.028070092
56	0x3d801214	0.06253448
57	0x3ce2547d	0.027628178
58	0xbc09ef89	-0.008418926
59	0xbbadc25e	-0.0053027114
60	0xbe0d668d	-0.13808651
61	0xbdcb25a0	-0.09919286
62	0xbc6b0646	-0.014344757
63	0xbdb77cc7	-0.08959346

backbone.3.weight f4 [64, 64]
0	0xbd389c5a	-0.045070983
1	0x3e066876	0.13125786
2	0x3e4d1ee2	0.20031312
3	0xbcbaac2c	-0.022787176
4	0xbcd485fa	-0.025942791
5	0xbd9c66d0	-0.076367974
6	0xbd1a54be	-0.037678473
7	0x3cf83567	0.030298902
8	0x3bfc7754	0.0077046547
9	0x3ba0ae3e	0.004903584
10	0xbc9f553a	-0.019449819
11	0x3e0e4a8e	0.13895628
12	0x3db31297	0.0874378
13	0x3d2fe952	0.04294712
14	0xbc9d150f	-0.01917508
15	0xbdc3ff5d	-0.09570191
16	0xbd8041d2	-0.06262554
17	0xbd620cff	-0.055188175
18	0x3d83381b	0.06407186
19	0x3dbd6dee	0.09249483
20	0x3cd8049e	0.02636939
21	0x3d9bc8a6	0.0760663
22	0xbdc4ffbf	-0.09619092
23	0x3dd44d8a	0.10366352
24	0x3c4b7f8b	0.012420545
25	0xbd5010b5	-0.050797183
26	0xbc912bdc	-0.01772111
27	0x3dbf31ec	0.09335694
28	0x3dbb05d2	0.091319695
29	0xbe1c0ec8	-0.15240014
30	0x3d76a2e5	0.060213942
31	0xbd0fad00	-0.035077095
32	0x3ba8f053	0.005155602
33	0xbda75b87	-0.08171754
34	0x3e509829	0.20370544
35	0x3ddc3c19	0.1075365
36	0xbcab046b	-0.02087613
37	0x3d4d2b18	0.050089926
38	0xbce931cb	-0.028466126
39	0x3ce0cee4	0.027442403
40	0x3d7e9d48	0.062161714
41	0xbf01bee6	-0.5068191
42	0x3d6d71ac	0.057969734
43	0x3d475b6b	0.048671167
44	0x3e16f23d	0.14740844
45	0xbd07f134	-0.033189014
46	0x3d94bba0	0.07262349
47	0xbc9d205e	-0.019180473
48	0x3dde58ee	0.10856806
49	0x3e2d0522	0.1689649
50	0x3daa873d	0.08326576
51	0xbd9d1933	-0.07670822
52	0x3cf4c507	0.029879106
53	0x3d913920	0.07090974
54	0xbd57e28a	-0.05270628
55	0x3b44444d	0.0029947937
56	0x3e127b66	0.14304885
57	0xbaa002ed	-0.0012207903
58	0x3d83c202	0.064334884
59	0xbd5b276d	-0.053504396
60	0x3c4bcee9	0.012439468
61	0xbca683ad	-0.02032646
62	0xbd118d53	-0.035535168
63	0x3cdaf332	0.026727293
64	0x3d4f93c8	0.050678045
65	0xbd80f841	-0.06297351
66	0x3dbf4b80	0.09340572
67	0xbdd5bc90	-0.10436356
68	0xbc60c1f0	-0.013718113
69	0xbc02d818	-0.007986091
70	0x3d80609c	0.06268427
71	0xbd7ceca7	-0.061749127
72	0xbe84ebc3	-0.25961122
73	0x3cf99d38	0.030470476
74	0xbe5cc768	-0.21560442
75	0xbc5e98cf	-0.013586237
76	0xbe1fd7f7	-0.15609728
77	0x3cd6d143	0.02622283
78	0xbd1ce371	-0.038302843
79	0xbd7edbf4	-0.062221482
80	0x3b63f212	0.0034781736
81	0xbbdae71b	-0.006680382
82	0xbc9c8ab4	-0.019109108
83	0x3be1f58c	0.0068957265
84	0xbd8aaaf0	-0.06770885
85	0xbd3717fb	-0.044700604
86	0xbca93b32	-0.02065811
87	0xbcb0ef4b	-0.021598479
88	0xbe02be7a	-0.12767974
89	0x3e12bda0	0.14330149
90	0xbc87dd1c	-0.016584925
91	0xbde82914	-0.1133596
92	0x3d2b4627	0.04181495
93	0xbd5fff34	-0.05468674
94	0xbd58f3a9	-0.052966747
95	0xbe1578b4	-0.14596826
96	0x3d620945	0.05518462
97	0xbe1b1dbb	-0.1514806
98	0xbcde7e95	-0.027159968
99	0xbd1978d5	-0.03746875
100	0xbd8af269	-0.06784517
101	0xbdb8ccc7	-0.09023433
102	0x3d899e4a	0.06719644
103	0x3b70f61f	0.0036767793
104	0xbda15897	-0.07878225
105	0xbc827302	-0.01592398
106	0xbd53bd2a	-0.051694073
107	0xbc09ce21	-0.008410961
108	0x3c3bd4e3	0.01146433
109	0x3b6f961e	0.0036557983
110	0xbd0ba4cd	-0.034092713
111	0x3d499ba9	0.049220715
112	0x3d1640b6	0.036682807
113	0xbd8cfca4	-0.06884125
114	0xbe2abc8c	-0.16673487
115	0xbdd9cb17	-0.106344394
116	0xbd86773e	-0.065657124
117	0xbc8cc325	-0.017182896
118	0xbd291ee6	-0.041289233
119	0x3e067708	0.13131344
120	0xbd8ba08a	-0.0681773
121	0xbe852f36	-0.26012582
122	0x3d20e0c5	0.039276857
123	0x3c88c48f	0.016695289
124	0xbdbb5ea2	-0.09148909
125	0x3cec09cc	0.028813265
126	0xbd47745f	-0.048694964
127	0x3d74eb13	0.059794497
128	0xbcd38b7a	-0.025823344
129	0x3dbc7caf	0.09203469
130	0x3d1ea498	0.038731188
131	0x3e027c38	0.12742698
132	0x3c2d3b1e	0.010573177
133	0x3dcf1a7a	0.10112472
134	0xbdca1b6d	-0.09868512
135	0xbb961c5e	-0.0045810184
136	0xbcb90796	-0.022586625
137	0x3d88911f	0.06668305
138	0xbd9bb8bd	-0.076035954
139	0x3dc5f085	0.09665016
140	0x3dc6c0e0	0.09704757
141	0x3d06a2d8	0.032870144
142	0xbd9a214b	-0.075258814
143	0xbd1a585f	-0.037681933
144	0x3d6c1599	0.057637785
145	0x3d024a76	0.031809293
146	0x3c2f92fe	0.010716198
147	0x3d7e9956	0.06215795
148	0x3d290ebc	0.041273817
149	0x3daca85d	0.0843055
150	0xbd3f26a1	-0.0466677
151	0x3c959ad1	0.018262299
152	0x3d974275	0.073857225
153	0x3bb03647	0.005377564
154	0xbd9410f3	-0.07229795
155	0x3d1e2948	0.038613588
156	0x3c9e60b1	0.019333215
157	0xbe135393	-0.1438735
158	0x3db44103	0.088014625
159	0xbccc8ef1	-0.024970504
160	0x3baf0ddc	0.0053422283
161	0xb997a486	-0.00028923544
162	0x3db44411	0.08802045
163	0x3cfd12c8	0.030892745
164	0xbd3f1e0f	-0.046659525
165	0x3d96d42a	0.07364686
166	0xbd9463ff	-0.07245635
167	0x3d7853f8	0.060626954
168	0xbd83c997	-0.064349346
169	0xbe04198c	-0.1290037
170	0xbd494688	-0.04913953
171	0xbaa60284	-0.0012665545
172	0x3c465948	0.012106247
173	0xbb3bf4bc	-0.0028679809
174	0x3dc96e06	0.098354384
175	0x3cf6e9ce	0.030140784
176	0x3d3fb0c5	0.04679944
177	0x3c1f98cf	0.009741022
178	0xbd517cf8	-0.05114457
179	0xbd6ff96a	-0.05858747
180	0x3dbde36a	0.092718914
181	0x3d53b5cb	0.051687043
182	0xbdb90ddd	-0.09035847
183	0x3d25e45e	0.04050099
184	0x3d1f3f09	0.038878474
185	0x3d65cd7b	0.056104165
186	0x3da57e8b	0.08080777
187	0x3d409ffa	0.047027566
188	0xbc6fc1b0	-0.014633581
189	0x3d40cede	0.047072284
190	0x3b6c771a	0.0036081732
191	0xbc70bb0c	-0.014693033
192	0xbd6be132	-0.05758781
193	0xbe41d132	-0.18927458
194	0x3dce30b9	0.10067887
195	0xbd8e802d	-0.06958041
196	0xbd1e08c5	-0.038582582
197	0x3e1e9059	0.15484752
198	0xbdde0061	-0.10839916
199	0xbd3d8b49	-0.04627541
200	0x3caaacf7	0.02083443
201	0xbdcbccc4	-0.09951165
202	0xbc238af3	-0.009981859
203	0x3b383777	0.0028109231
204	0xbd66d030	-0.056350887
205	0x3e14475d	0.14480348
206	0x3df077b1	0.11741579
207	0xbca11b7d	-0.019666428
208	0xbba93864	-0.005164193
209	0xbc90cd18	-0.017675921
210	0xbdaef567	-0.085429005
211	0x3d055ae9	0.0325574
212	0x3dd7b2bb	0.10532137
213	0xbd197fc6	-0.03747537
214	0xbd2e47e1	-0.042549018
215	0xbd9629a3	-0.0733216
216	0xbe28f91b	-0.16501276
217	0x3c9d519f	0.019203959
218	0xbd7fbd61	-0.062436465
219	0xbdbe99f8	-0.09306711
220	0xbc7afc0c	-0.015318882
221	0x3d98e2dd	0.07465146
222	0x3e435d82	0.19078639
223	0x3b56f45c	0.0032799458
224	0xbcc06d01	-0.023489477
225	0xbd59bf79	-0.05316112
226	0xbdea300a	-0.11434944
227	0x3dde6f19	0.10861034
228	0x3da20abc	0.07912204
229	0x3d4f1943	0.0505612
230	0xbd30413b	-0.04303096
231	0xbcd2a669	-0.025714116
232	0x3db78aef	0.08962046
233	0xbe1da039	-0.15393151
234	0xbdc8cdcc	-0.09804878
235	0x3d941b15	0.07231728
236	0xbdb14c4c	-0.086571306
237	0xbdd4fffa	-0.10400386
238	0xbcadc6e6	-0.021213006
239	0xbcb2dff5	-0.021835307
240	0xbde99c46	-0.1140676
241	0xbda2cc06	-0.07949071
242	0xbb913970	-0.004431896
243	0xbd2afb61	-0.04174364
244	0xbd55b5d2	-0.05217535
245	0xbdfbd646	-0.12296729
246	0xbd39cf7b	-0.045363884
247	0x3d4977f0	0.049186647
248	0xbd4d9694	-0.05019243
249	0xbd902023	-0.070373796
250	0x3d9ccdde	0.076564535
251	0xbdc0ac4e	-0.094078645
252	0x3c1f7a35	0.009733726
253	0x3d546b9a	0.05186043
254	0x3d35b6f7	0.044363942
255	0xbdb8e0d1	-0.09027255

backbone.3.bias f4 [64]
0	0xbdf4ec0e	-0.11959086
1	0xbe0aa254	-0.13538486
2	0x3b69b255	0.0035659273
3	0xbe8ca20d	-0.27467385
4	0xbdb730d3	-0.08944859
5	0x3dc4ad10	0.096033216
6	0x3df246bf	0.118299
7	0x3e0902be	0.13379952
8	0x3e046668	0.1292969
9	0xbd9ab188	-0.07553393
10	0xbe225a97	-0.1585487
11	0x3d410ef7	0.047133412
12	0x3de5cb2f	0.11220395
13	0xbe22dba8	-0.15904105
14	0x3ce46718	0.02788119
15	0xbd2f52e9	-0.04280368
16	0xbe84ae27	-0.25914118
17	0xbd1b770c	-0.03795533
18	0xbd936b88	-0.07198244
19	0xbd003af1	-0.03130621
20	0xbd0c27c5	-0.034217615
21	0x3dd6ae66	0.104824826
22	0xbe3400b0	-0.17578387
23	0xbb884b1c	-0.0041593444
24	0xbd067213	-0.032823633
25	0x3dcd11d4	0.10013166
26	0xbdb58104	-0.088624984
27	0x3e12a8ee	0.14322254
28	0xbda3bda7	-0.07995158
29	0xbe01c210	-0.12671685
30	0xbcd4a1e8	-0.02595611
31	0xbe298280	-0.16553688
32	0xbda299a6	-0.07939462
33	0xbd8e380b	-0.06944283
34	0x3d16193c	0.03664516
35	0xbde1b6df	-0.11021208
36	0xbd0e045d	-0.03467213
37	0x3d18d804	0.037315384
38	0xbe169b16	-0.14707598
39	0xbe0f03f5	-0.13966353
40	0x3d08aba7	0.033366825
41	0xbd9faad7	-0.07796257
42	0xbe24f2f3	-0.16108303
43	0xbd5dac4a	-0.054119386
44	0xbe181a5e	-0.14853808
45	0xbdce436c	-0.100714535
46	0xbdb882b0	-0.09009302
47	0xbddd7cd0	-0.10814822
48	0x3e17e89c	0.14834827
49	0xbd6ece15	-0.058302004
50	0x3d66f421	0.056385163
51	0xbd0380a4	-0.032105103
52	0xbd942a24	-0.072346
53	0xbd94abc9	-0.07259328
54	0xbdc5954e	-0.09647618
55	0x3c38b045	0.011272495
56	0x3db11fe8	0.08648664
57	0xbe00b045	-0.12567241
58	0x3e544414	0.20729095
59	0xbd930c4b	-0.07180079
60	0x3df67287	0.12033563
61	0xbe0adbc5	-0.13560398
62	0xbe31362e	-0.17305824
63	0xbe10ad02	-0.14128497

backbone.6.weight f4 [64, 64]
0	0xbd063e68	-0.03277436
1	0xbdaba5b9	-0.083812185
2	0xbd6254ed	-0.055256773
3	0x3e0f6010	0.14001489
4	0x3dc8488f	0.097794645
5	0xbcc4463b	-0.02395927
6	0x3c270c5c	0.010195818
7	0x3da87d31	0.08227003
8	0x3d7073f9	0.05870435
9	0x3cbce8af	0.023060171
10	0x3cdcdfbc	0.026962154
11	0xbdfaeae8	-0.12251836
12	0xbd07086d	-0.03296702
13	0x3d49d3c5	0.049274225
14	0x3dc0a5b7	0.094066076
15	0x3c545b7e	0.012961267
16	0x3c89def0	0.016829938
17	0xbd8846da	-0.06654139
18	0xbbb92df4	-0.00565123
19	0xbd1556fd	-0.03645991
20	0x3ddb2c43	0.10701802
21	0xbcf039aa	-0.029324371
22	0x3dc20c73	0.09475031
23	0x3d2ec85e	0.042671554
24	0xbc870c12	-0.016485248
25	0x3c67142e	0.014103932
26	0xbd1c6f89	-0.038192306
27	0x3db7d646	0.08976416
28	0x3e00f5e9	0.12593807
29	0x3d9aba03	0.0755501
30	0x3c2d7bcc	0.0105885975
31	0x3df2b673	0.11851206
32	0x3dcb474b	0.099257074
33	0x3b56a005	0.0032749188
34	0xbdae371b	-0.08506604
35	0x3d295027	0.041336205
36	0xbde1fd13	-0.11034598
37	0xbdd37c50	-0.10326445
38	0x3d9302d1	0.071782716
39	0x3df49900	0.11943245
40	0x3d2c90e9	0.042130385
41	0x3da0c7cc	0.07850608
42	0xbc034539	-0.008012109
43	0x3d492b33	0.049113464
44	0xbcdf7a3b	-0.027279964
45	0xbd5fe78a	-0.054664172
46	0xbce5f2d2	-0.028069887
47	0x3d8f7b88	0.070059836
48	0x3d4a1dc4	0.049344793
49	0xbdc72e16	-0.09725587
50	0xbd93b559	-0.07212324
51	0x3da579e2	0.08079888
52	0xbce8a0d9	-0.02839701
53	0x3d925dbf	0.07146787
54	0xbc1ebcc5	-0.009688561
55	0xbc469dc9	-0.01212258
56	0x3bb75cad	0.0055957646
57	0xbc60dc00	-0.013724327
58	0x3dc44216	0.095829174
59	0x3dd6b863	0.10484388
60	0xbd5fd2c9	-0.05464438
61	0xbd1cd58a	-0.038289584
62	0x3d1b4ee8	0.037917048
63	0x3d76768c	0.06017165
64	0xbe14c2b1	-0.14527394
65	0xbe0a8653	-0.13527803
66	0xbda61c26	-0.08110838
67	0x3d6f81f8	0.058473557
68	0x3cf1535a	0.02945869
69	0x3bdb56eb	0.006693711
70	0xbe3b27e8	-0.18276942
71	0xbd4cc0a0	-0.04998839
72	0x3c62a5f5	0.013833513
73	0xbd32d5c0	-0.04366088
74	0xbe08b67b	-0.13350861
75	0xbc52f1e0	-0.01287505
76	0xbd35cc3d	-0.04438423
77	0xbdc682b5	-0.09692899
78	0xbc8c2c0d	-0.017110849
79	0xbd9cbf84	-0.07653716
80	0xbd9349a8	-0.07191783
81	0x3db85286	0.09000115
82	0xbd4e1216	-0.050310217
83	0xbdc83f53	-0.09777703
84	0x3da5f829	0.081039734
85	0xbdd40880	-0.10353184
86	0xbd96b1bb	-0.07358118
87	0x3db3dea8	0.08782703
88	0x3dade2dc	0.084905356
89	0xbdfe4fea	-0.12417586
90	0xbd8a44c6	-0.06751399
91	0xbccb40a8	-0.024811104
92	0x3d8e330e	0.06943332
93	0xbd78d402	-0.06074906
94	0xbd7d25e2	-0.061803706
95	0xbc566908	-0.013086565
96	0xbd009db0	-0.031400383
97	0x3dc69b59	0.09697599
98	0xbd756318	-0.059908956
99	0x3c13abd3	0.009013134
100	0xbded36e4	-0.11582735
101	0xbb8e62dd	-0.0043452815
102	0xbd880194	-0.06640926
103	0x3d106b2c	0.035258457
104	0xbdb34cf6	-0.087549135
105	0xbd30f630	-0.043203533
106	0xbd658350	-0.056033432
107	0x3ddc40b9	0.10754532
108	0xbde627b4	-0.112380415
109	0xbda082ce	-0.07837449
110	0x3dedde02	0.1161461
111	0x3df5c123	0.119997285
112	0x3cc3782c	0.023861013
113	0xbd735c1d	-0.059414018
114	0x3ca1bad8	0.019742414
115	0xbe049f50	-0.12951398
116	0x3cc8b62a	0.024500925
117	0xbe08b9cf	-0.1335213
118	0xbdc4c89f	-0.09608578
119	0x3df8080a	0.12110908
120	0x3ace5c02	0.0015743973
121	0x3c185f92	0.0093001295
122	0xbd67a1d4	-0.056550816
123	0x3b9c4cd0	0.004769899
124	0xbe195c9c	-0.14976734
125	0xbdd34570	-0.103159785
126	0xbe07a834	-0.13247758
127	0x3beb0ed2	0.0071733976
128	0xbde32fc1	-0.11093093
129	0x371c44b0	9.314317e-06
130	0x3d5f9ace	0.054590993
131	0x3d95c671	0.0731324
132	0x3c0d1fe6	0.008613562
133	0x3c9c5bfb	0.019086828
134	0x3db43f7a	0.0880117
135	0x3da76b1d	0.08174727
136	0xbd362c60	-0.044475913
137	0x3d4ae442	0.04953409
138	0x3de0b5e0	0.1097219
139	0xbd35300a	-0.044235267
140	0x3d7f5adc	0.06234251
141	0x3e101181	0.14069177
142	0x3cadef1b	0.021232178
143	0xbcbb3b51	-0.022855433
144	0x3d8cbea4	0.06872299
145	0x3decac42	0.11556293
146	0x3ca3a7cb	0.01997747
147	0xbc32fcfc	-0.010924574
148	0x3c93cf88	0.018043295
149	0xbd43ee65	-0.047834773
150	0xbc604a7e	-0.013689635
151	0x3d407a00	0.04699135
152	0xbbb0aaa6	-0.0053914366
153	0x3c6f4ea3	0.014606151
154	0xbd199f26	-0.03750529
155	0xbd2d2dad	-0.042279888
156	0xbcfd61fb	-0.03093051
157	0xbd9119cb	-0.07084998
158	0x3ce952fe	0.028481957
159	0xbd40a722	-0.04703439
160	0xbd6b5a6b	-0.057459276
161	0x3e156b35	0.14591677
162	0x3db5e8b1	0.08882273
163	0x3d328d09	0.043591533
164	0x3db2ac19	0.08724231
165	0x3cd09b72	0.025464747
166	0x3d7cb163	0.061692607
167	0x3db27748	0.08714157
168	0xbbf7b7c4	-0.0075597484
169	0x3d47723d	0.04869293
170	0xbd8443fa	-0.06458278
171	0xbd3f3e9a	-0.04669056
172	0x3ddc6110	0.10760701
173	0x3dea4dee	0.11440645
174	0x3c34d4fa	0.011037106
175	0xbd08c84c	-0.033394143
176	0xbd67e0b1	-0.056610767
177	0x3d8b3eb0	0.06799066
178	0x3d3972ae	0.045275383
179	0xbc18b581	-0.009320618
180	0xbc091496	-0.0083667245
181	0x3bd4147e	0.0064721694
182	0xbb34b86a	-0.002757574
183	0x3dc6de30	0.09710348
184	0x3d3f17c1	0.046653513
185	0xbc84629e	-0.016160306
186	0xbc8bb7cc	-0.017055415
187	0x3d74e22f	0.059786018
188	0xbcc11a3c	-0.02357208
189	0xbcdb6aea	-0.026784379
190	0xbd579bf7	-0.052638974
191	0x3cebff11	0.028808149
192	0x3defb7ca	0.11704977
193	0xbd93a82b	-0.0720981
194	0xbd9b413b	-0.07580801
195	0xbd0856f9	-0.03328607
196	0x3dc7b4d5	0.09751288
197	0x3d5741b5	0.052552897
198	0x3d5fda16	0.054651342
199	0xbc380cc1	-0.0112335095
200	0x3d037da4	0.032102242
201	0x3dcd369d	0.10020182
202	0xbd5f2d94	-0.054486826
203	0xbc90a5f5	-0.01765726
204	0xbd8ef989	-0.06981189
205	0xbc843040	-0.016136289
206	0x3c63a237	0.0138936555
207	0x3d12d35d	0.035846103
208	0x3d8bfbae	0.068351135
209	0x3d899d02	0.067194
210	0x3d47565a	0.048666336
211	0x3d4088bb	0.047005396
212	0xbdb0dacf	-0.086354844
213	0x3c7c2aee	0.015391095
214	0xbc1a7d8f	-0.00942935
215	0x3d06fa9e	0.03295385
216	0x3d7cdb46	0.061732553
217	0x3dc7963e	0.09745453
218	0x3cae21e1	0.02125639
219	0x3dad5be8	0.08464795
220	0xbcc29b4d	-0.023755694
221	0x3d8addde	0.06780599
222	0xbd84f624	-0.0649226
223	0x3d6bec95	0.05759867
224	0x3c174981	0.009233833
225	0xbd6e501f	-0.05818188
226	0x3bc45ae6	0.0059922813
227	0x3da239e5	0.07921199
228	0x3d98dd08	0.07464033
229	0xbd5326d9	-0.05155072
230	0xbd93b9f4	-0.07213202
231	0xb8949434	-7.084795e-05
232	0x3d8d73b9	0.06906838
233	0xbca550f2	-0.0201802
234	0x3d133121	0.035935525
235	0xbd90d77a	-0.07072349
236	0x3da30ad3	0.07961049
237	0xbc862f05	-0.016379843
238	0xbc89529f	-0.01676303
239	0x3c7d61c4	0.015465204
240	0x3df2d72e	0.118574485
241	0xbcddfe6d	-0.027098859
242	0x3d84911b	0.06472989
243	0x3d265931	0.040612403
244	0x3d57b11e	0.052659146
245	0x3b21224a	0.0024587088
246	0x3d0064eb	0.031346243
247	0xbe03f2e4	-0.12885624
248	0xbccf2861	-0.025287809
249	0x3d2aa25c	0.041658744
250	0x3dcf5cd6	0.10125129
251	0xbdb991eb	-0.09061035
252	0xbe117da2	-0.14208081
253	0xbda50af2	-0.08058728
254	0xbd20cae6	-0.039256
255	0x3dbc59e7	0.09196835

backbone.6.bias f4 [64]
0	0x3e476ee5	0.19475897
1	0x3d93affc	0.07211301
2	0xbd0c0c5a	-0.034191467
3	0x3a3ab1b5	0.00071218173
4	0xbe24fa0b	-0.16111009
5	0x3ecb30fb	0.39685807
6	0x3e0ab504	0.13545614
7	0xbe9ce46d	-0.30643025
8	0x3e130600	0.14357758
9	0x3d0d333f	0.0344727
10	0x3da49fcf	0.080382936
11	0x3e3aebe1	0.18254043
12	0x3dec43cb	0.11536368
13	0xbea4f090	-0.32214785
14	0xbd30824e	-0.04309302
15	0xbdc1b6a7	-0.09458666
16	0xbe0f7d0d	-0.14012547
17	0x3e38ee87	0.18059741
18	0xbcaf5553	-0.02140299
19	0xbdaeb08f	-0.0852977
20	0xbd9cbd25	-0.07653264
21	0x3c8d2fce	0.01723471
22	0x3cd46ada	0.025929857
23	0xbd580624	-0.05274023
24	0xbe1ad64c	-0.1512081
25	0x3ec6c679	0.38823298
26	0x3dd211b5	0.102572836
27	0x3ea3ad0e	0.31967968
28	0x3dac7132	0.08420028
29	0x3d1e65e1	0.038671378
30	0x3d0a2919	0.0337306
31	0x3dd3f7ce	0.10349999
32	0x3cb1147d	0.021616215
33	0x3e037c06	0.1284028
34	0xbe8c0dd4	-0.273543
35	0xbe1b34c2	-0.15156844
36	0x3e98a235	0.29811254
37	0x3e8cd0bd	0.27503005
38	0xbdbd40eb	-0.09240898
39	0x3e26b6ed	0.16280718
40	0xbdab0f12	-0.08352484
41	0xbeaef926	-0.3417446
42	0xbe2e675a	-0.17031613
43	0x3dc3a2c0	0.095525265
44	0x3e435a2c	0.19077367
45	0x3e225fa9	0.15856804
46	0x3f10d4a4	0.56574464
47	0x3eb61659	0.35563925
48	0xbda298f1	-0.079393275
49	0xbe0e819f	-0.13916634
50	0xbd3dcbf6	-0.04633709
51	0xbcb6cdd9	-0.022314953
52	0x3e56cb1e	0.2097592
53	0xbd994b0a	-0.07485016
54	0xbdc03940	-0.093859196
55	0x3baefaf1	0.005339973
56	0x3d0e0b5a	0.034678794
57	0x3d0f2c7c	0.034954533
58	0xbe2188a4	-0.1577478
59	0x3e66007e	0.22461125
60	0x3f135979	0.575584
61	0x3d50f575	0.051015336
62	0x3ed0fd70	0.40818357
63	0xbd2b078c	-0.041755244

value_head.weight f4 [1, 64]
0	0x3dbc0c5f	0.09182047
1	0xbd1c2203	-0.038118374
2	0xbb923501	-0.004461885
3	0x3c3592d8	0.011082374
4	0x3caaecce	0.02086487
5	0x3de078a7	0.109605126
6	0x3c3ae02d	0.011405987
7	0x3c71bd50	0.014754608
8	0x3d02c983	0.031930458
9	0xbdd70c86	-0.105004355
10	0xbb34c5b3	-0.0027583658
11	0x3d41aa45	0.047281522
12	0x3d72c6b0	0.059271514
13	0xbd4f5bfc	-0.050624833
14	0xbcd0a85b	-0.025470903
15	0x3d2ae3f2	0.04172129
16	0x3a5a688f	0.00083316205
17	0x3bdb619b	0.006694985
18	0x3d67be20	0.0565778
19	0xbd446e88	-0.047956973
20	0xbcd7d65d	-0.026347334
21	0xbd461258	-0.048357338
22	0xbd30dfc7	-0.04318216
23	0x3dede85b	0.11616584
24	0x3d9f3256	0.07773273
25	0x3db1b391	0.08676828
26	0xbd103949	-0.03521088
27	0x3df787ac	0.12086424
28	0x3d96b290	0.07358277
29	0x3d69a83d	0.05704521
30	0xbc40a8ea	-0.011759022
31	0xbd5c7433	-0.053821754
32	0x3dcd9828	0.10038787
33	0x3e043826	0.12912044
34	0xbdf2b386	-0.11850648
35	0xbd8ee773	-0.06977739
36	0x3df3120f	0.11868679
37	0x3e00f79d	0.12594457
38	0xbcc95b45	-0.024579654
39	0x3dccfff8	0.1000976
40	0xbda31856	-0.07963626
41	0xbca2d5f0	-0.019877404
42	0xbb32a7cb	-0.0027260657
43	0x3daadd96	0.083430454
44	0x3d963acd	0.07335434
45	0x3d2ed1ee	0.042680673
46	0x3db1e8e5	0.08686999
47	0x3da93d06	0.082635924
48	0xbb42a51b	-0.0029700461
49	0xbd8f441e	-0.06995414
50	0x3d93ec74	0.07222834
51	0xbd2f6551	-0.042821232
52	0x3d4ccd0c	0.050000235
53	0xbd11e0f1	-0.03561491
54	0x3d6ae3cd	0.057346154
55	0xbd9dcca9	-0.077050515
56	0x3c48bf25	0.012252604
57	0x3da1ea17	0.07905977
58	0xbc791069	-0.015201666
59	0x3d14e206	0.036348365
60	0x3dd86aca	0.105672434
61	0xbd678612	-0.056524344
62	0x3d7ec9b0	0.062204063
63	0x3daefdf8	0.085445344

adv_head.weight f4 [11, 64]
0	0x3abb36a8	0.0014283257
1	0xbdda08f5	-0.1064624
2	0x3d845fcf	0.064635865
3	0x3d92797d	0.07152078
4	0xba2cf979	-0.00065984536
5	0xbd414c7d	-0.047192086
6	0xbd55ada6	-0.052167557
7	0x3d8d2e18	0.06893557
8	0x3d3408e2	0.043953784
9	0xbd668364	-0.056277648
10	0xbd9867a4	-0.07441643
11	0xbc34a22c	-0.011024993
12	0xbaa31911	-0.0012443383
13	0x3dda9828	0.10673553
14	0x3c28fd15	0.010314246
15	0x3ccfa71b	0.025348237
16	0x3d89af90	0.06722939
17	0xbdc21d1a	-0.09478207
18	0x3b24d4e6	0.0025151311
19	0xbdba1241	-0.09085513
20	0xbd7f03d0	-0.062259495
21	0x3b1afc87	0.0023649053
22	0xbd21442b	-0.03937165
23	0x3d11fdc4	0.0356424
24	0x3d157ffa	0.036499
25	0xbda32b89	-0.07967288
26	0xbda63bc2	-0.08116867
27	0xbdbce26a	-0.092228726
28	0xbbf1685e	-0.007367178
29	0xbd05a771	-0.032630388
30	0xbc71bb40	-0.014754117
31	0xbcba10b3	-0.022713041
32	0xbd20d852	-0.0392688
33	0xbd479f0e	-0.04873567
34	0x3dc9fe90	0.09863007
35	0xbdde7b1b	-0.10863324
36	0xbdec0b9f	-0.11525654
37	0xbd83182e	-0.06401096
38	0x3d2c1bc7	0.042018678
39	0xbc465c36	-0.012106946
40	0x3c9dd922	0.019268576
41	0x3db19e01	0.08672715
42	0x3d384f97	0.044997778
43	0xbd7ca3a6	-0.061679505
44	0xbcfafa83	-0.030637031
45	0x3d0a0fa7	0.033706333
46	0xbda53c02	-0.08068086
47	0xbdcdf2f9	-0.10056109
48	0x3dbd8c39	0.09255261
49	0xbb9ada0b	-0.0047257
50	0x3c6c3dbe	0.014419017
51	0x3d1a7b36	0.03771516
52	0xbca8d362	-0.020608608
53	0xbda48be6	-0.08034496
54	0x3d8be271	0.068303
55	0xbc629831	-0.013830231
56	0x3d898ccd	0.06716309
57	0x3d54b226	0.051927708
58	0x3d3d05a2	0.04614795
59	0x3d1be278	0.038057774
60	0xbcea6834	-0.028614141
61	0xbd9963cb	-0.07489737
62	0xbd4872bf	-0.048937555
63	0x3c9230e3	0.017845577
64	0x3b8f2a9d	0.0043690936
65	0xbc8e373e	-0.017360326
66	0x3bbd25c2	0.0057723233
67	0x3d108d7d	0.035291184
68	0xbd8e4a68	-0.069477856
69	0x3ce83020	0.02834326
70	0xbd12a7db	-0.03580461
71	0xbb907179	-0.0044080582
72	0x3d33d0b7	0.043900218
73	0x3cb1337d	0.021630997
74	0x3cb01c86	0.021497976
75	0xbbb1edaf	-0.0054299454
76	0xbcad8826	-0.021183085
77	0xbdf79be9	-0.120902844
78	0xbda0c3f2	-0.078498736
79	0x3afe1941	0.0019386188
80	0x3d11cca2	0.035595544
81	0xbd087189	-0.0333114
82	0xbb761514	-0.0037549185
83	0xbe015342	-0.12629417
84	0xbd44d708	-0.048056632
85	0xbc57c662	-0.013169857
86	0x3deaa211	0.11456693
87	0x3d0da9f3	0.034585904
88	0x3cd3c149	0.025849001
89	0xbd664487	-0.056217697
90	0x3ca68d5b	0.020331075
91	0xbad373a1	-0.0016132483
92	0xbc93a798	-0.01802425
93	0xbce9fa84	-0.028561838
94	0x3d9bc84b	0.07606562
95	0x3def210a	0.116762236
96	0xbd0ff280	-0.035143375
97	0xbcb23f79	-0.021758782
98	0xbdcd6f67	-0.10031014
99	0xbdf6041f	-0.12012505
100	0xbd1d3473	-0.038380098
101	0xbce56c64	-0.028005786
102	0xbd9d167d	-0.07670305
103	0x3d44060e	0.047857337
104	0x3c45a251	0.012062625
105	0xbd122122	-0.03567613
106	0xbcf5f6ce	-0.030024912
107	0xbc07a1b0	-0.008278295
108	0x3caa305b	0.02077501
109	0x3d131fcf	0.035919007
110	0xbd28dd47	-0.04122665
111	0xbdaafe65	-0.08349303
112	0x3da0083c	0.078140706
113	0x3df851d2	0.12124981
114	0x3cffab97	0.03120975
115	0x3e0fd415	0.14045747
116	0x3c421b82	0.011847379
117	0xba3cc8f0	-0.0007201573
118	0x3cedcbf4	0.029027916
119	0x3a6438cb	0.00087059726
120	0x3cd80bd1	0.026372822
121	0x3a6843fd	0.00088602287
122	0xbc73899c	-0.014864352
123	0x3d4ff258	0.050768226
124	0x3d0694ca	0.03285674
125	0x3d3f5097	0.046707716
126	0xbc4cebfd	-0.012507436
127	0x3d420750	0.047370255
128	0xbbe5e3de	-0.0070156893
129	0xbc1f197b	-0.009710665
130	0x3cab56d3	0.020915424
131	0x3ce9e12a	0.02854975
132	0xbd34c278	-0.044130772
133	0x3c705c09	0.01467038
134	0x3d95345b	0.07285377
135	0x3c35bccd	0.011092377
136	0x3d2e53ac	0.042560264
137	0xbdb78b2c	-0.08962092
138	0x3daca320	0.08429551
139	0xbd017319	-0.031603906
140	0x3d5aafa4	0.05339016
141	0xbd6f703a	-0.058456637
142	0x3ce9f33b	0.028558364
143	0xbbfce98c	-0.0077182706
144	0x3cbbef41	0.022941234
145	0x3dd00f74	0.101591974
146	0x3c96c4f6	0.018404465
147	0x3deae5d1	0.11469615
148	0x3d77b679	0.060476754
149	0x3d60f295	0.054918844
150	0x3c815b64	0.015790649
151	0x3d53e701	0.051733974
152	0x3d478b60	0.048716903
153	0x3b350a52	0.002762456
154	0xbdc430e2	-0.09579636
155	0xbace8c1c	-0.0015758309
156	0x3aa1f970	0.0012357663
157	0xbd713cea	-0.058895983
158	0xbcaf14e2	-0.021372262
159	0x3dd18286	0.102299735
160	0x3bd283e2	0.006424413
161	0xbc5f8395	-0.013642211
162	0xbd47fdeb	-0.04882614
163	0x3d918cc1	0.07106925
164	0xbd7d9892	-0.06191308
165	0x3c4624ed	0.012093765
166	0x3dbbe5de	0.09174703
167	0x3c5a53f6	0.013325682
168	0x3bef53e9	0.007303704
169	0xbddc313a	-0.10751577
170	0x3c53f83e	0.0129376035
171	0xbd4883a1	-0.048953656
172	0xbc730d65	-0.0148347365
173	0x3c4e667b	0.012597675
174	0xbcb1d00a	-0.021705646
175	0xbdc11a47	-0.0942884
176	0x3da36736	0.0797867
177	0x3d9ff571	0.07810486
178	0x3c9eb682	0.019374136
179	0x3b8f9d75	0.004382784
180	0xbd5f880b	-0.0545731
181	0xbe08680b	-0.13320939
182	0x3d54b728	0.051932484
183	0x3deae46b	0.114693485
184	0x3d80671d	0.06269667
185	0x3d1cb7e9	0.038261328
186	0xbd168d44	-0.036755815
187	0x3d545684	0.05184032
188	0x3d366f43	0.0445397
189	0x3ddfb060	0.10922313
190	0xbd51fdd7	-0.05126747
191	0x3d00a71a	0.03140936
192	0x3b608906	0.003426136
193	0x3cd1ba8f	0.025601653
194	0x3cee9e13	0.02912811
195	0x3d22eb9c	0.039775476
196	0xbcbf9ec9	-0.023391144
197	0xbcce25e0	-0.025164545
198	0xbd13b597	-0.03606185
199	0xbaca18d0	-0.0015418772
200	0x3d439e7e	0.04775857
201	0xbd90c461	-0.07068706
202	0x3caa2f3d	0.020774478
203	0x3bedcddd	0.007257207
204	0x3d0192b9	0.031634066
205	0xbdaa0b7c	-0.08302972
206	0xbd176867	-0.0369648
207	0xbc93c4a9	-0.01803811
208	0x3c11252d	0.008858961
209	0x3d98505f	0.074372046
210	0x3c11e397	0.008904359
211	0xbdecda5b	-0.115650855
212	0xbd82f3cc	-0.06394157
213	0x3db78692	0.08961214
214	0x3d232d42	0.039838083
215	0x3d96a343	0.073553585
216	0x3d68b0df	0.056809302
217	0xbcb47549	-0.022028582
218	0xbdf79331	-0.120886214
219	0xbcd4a2d8	-0.025956556
220	0xbcf234bd	-0.029566163
221	0xbd13212e	-0.035920314
222	0x3d96cabb	0.073628865
223	0x3c3c441e	0.01149085
224	0xbc72496e	-0.014788015
225	0xbc858932	-0.016300771
226	0x3d6ebc48	0.058285028
227	0xbdd05176	-0.101717874
228	0xbd737505	-0.05943777
229	0x3b9ae594	0.004727075
230	0xbd9c6135	-0.07635728
231	0x3b5fad6d	0.003413047
232	0x3d4dea07	0.050272014
233	0xbd70d6d4	-0.058798626
234	0xbb83db36	-0.0040239347
235	0xbc35386d	-0.011060816
236	0xbc826934	-0.015919305
237	0x3d3b94cb	0.045796197
238	0xbcd8253b	-0.02638494
239	0xbd883669	-0.06651003
240	0x3d9fd085	0.07803444
241	0x3e013025	0.12616022
242	0x3cab878c	0.020938657
243	0x3da5492f	0.08070599
244	0x3bf373e1	0.0074295853
245	0xbba61b95	-0.005069206
246	0x3d42f444	0.04759623
247	0xbca906fe	-0.020633217
248	0x3c6a2a86	0.014292365
249	0xbd090240	-0.03344941
250	0x3abe3bd2	0.0014513677
251	0x3cbbe798	0.022937581
252	0x3d80bd77	0.062861376
253	0xbc81ffd5	-0.01586906
254	0xbca7d343	-0.02048648
255	0x3c3925e9	0.011300542

adv_head.bias f4 [11]
0	0x3e572a39	0.210122
1	0xbe59fea2	-0.21288541
2	0xbe65710d	-0.22406407
3	0xbe94c09d	-0.29053202
4	0xbeb32adc	-0.34993637
5	0xbe78548e	-0.24251005
6	0xbe7d7135	-0.24750216
7	0xbeadb80d	-0.33929482
8	0xbec645bb	-0.38725075
9	0xbee2a23a	-0.44264394
10	0xbee6e8f4	-0.45099604
