models/cql_model_2022_2023.pth (torch, 94405 bytes, 9 tensors)

backbone.0.weight f4 [64, 208]
000000 1d b0 c7 be b5 42 38 be 81 7a 40 3d 31 c9 f6 3d
       -0.3900155 -0.17994197 0.04699183 0.12050093
000010 61 e4 66 3d 90 b1 5b 3c 6b da db 3b b9 74 a6 bd
       0.056370143 0.013409033 0.006709387 -0.08127732
000020 67 fd 29 bb 77 93 02 be 00 d8 86 bc 2f 0f 20 3e
       -0.0025938393 -0.12751566 -0.016460419 0.15630792
000030 e8 ee 6f be d7 f0 2f bd 91 07 81 3d 7c a3 b8 bd
       -0.23430979 -0.042954292 0.06300271 -0.09015557
000040 18 80 50 be 53 78 17 be 16 d2 05 be ef 88 dc bd
       -0.20361364 -0.14791994 -0.13068423 -0.107683055
000050 7e c8 f1 bd fa 18 ca bd 3f 64 2d be d1 5e f0 bd
       -0.11805819 -0.09868045 -0.16932772 -0.11736835
000060 c2 89 2e be 41 2a fc bd 47 50 2d bd 57 8c cc bd
       -0.17044738 -0.12312747 -0.042312887 -0.09987705
000070 93 e7 c4 38 26 49 31 be 10 22 46 3c e1 92 9f bd
       9.389142e-05 -0.1731306 0.012093082 -0.07791687
000080 0c a1 9b bd 92 67 f8 bd 21 bb dc bd 01 89 fe bc
       -0.07599077 -0.121291295 -0.107778795 -0.031071188
000090 67 70 14 be 42 45 6b bc 5e 10 01 be c9 f2 4c bc
       -0.14496003 -0.014359774 -0.126039 -0.012509056
0000a0 49 63 65 bd 7f dd a3 bd ee 74 6f bc 1b b9 ea bd
       -0.05600289 -0.080012314 -0.014615281 -0.11461087
0000b0 d1 45 f9 bd 4f 1a 63 bd 91 41 88 bd cb 36 9a bd
       -0.121715195 -0.05544501 -0.06653131 -0.07529982
0000c0 32 8f 67 3d 4c e7 b9 bc 9c c3 94 bd 4e 71 1a bd
       0.056533046 -0.022693299 -0.07263872 -0.037705712
0000d0 9f 70 c6 bc 9d 65 74 bd 8c 8b d8 bd b9 f0 8f 3c
       -0.024223624 -0.05966722 -0.105734915 0.01757084
0000e0 f6 96 4b bd c6 5d b8 bd c9 37 c9 bd 79 ad 56 bd
       -0.049704514 -0.09002261 -0.09825093 -0.05241153
0000f0 94 89 b1 bd c4 d7 92 bd ef ea 44 bd d1 d5 cf bc
       -0.08668819 -0.0717006 -0.048075613 -0.02537051
000100 5f 03 3e bd 89 58 6d 3d e6 24 d3 bc 8d 38 27 bd
       -0.046389934 0.05794576 -0.02577443 -0.040825415
000110 82 8c 0a 3d c4 30 ce bd dc fc ec bd 8b 5c 7b bb
       0.033825405 -0.10067895 -0.115716666 -0.003835472
000120 9c 57 83 bd d3 89 cc bd eb 33 bf bd 03 21 a3 bd
       -0.064131945 -0.099872254 -0.093360744 -0.07965281
000130 ab 00 3b bc a5 2f be bd d0 d5 86 bc 0a c2 19 bd
       -0.0114137335 -0.09286431 -0.016459376 -0.037538566
000140 19 cb de bd 5c 55 7c bd ec 8f a5 3d 5b 95 83 bd
       -0.108785816 -0.061604843 0.080840915 -0.06424972
000150 38 5a c2 3c bd 80 04 3c 93 06 5a bd b2 7f 55 bc
       0.02372466 0.008087334 -0.053228926 -0.013030933
000160 51 55 41 bd cf 1c 1f bd c5 ea 1c bd 7a f0 f6 bd
       -0.047200505 -0.038845833 -0.03830983 -0.12057586
000170 12 c9 6d bd cc 4e 74 bd d2 62 54 bc 5b b1 3d bc
       -0.058053084 -0.05964546 -0.012963014 -0.011577929
000180 e9 2d 90 bd 1c de 79 bd b1 ce 33 be b0 ad 74 39
       -0.07040007 -0.061002836 -0.17559315 0.00023334357
000190 70 ff 15 bd c6 c1 38 bd e0 6f 01 3d 85 41 b5 bd
       -0.036620557 -0.04510667 0.031600833 -0.088503875
0001a0 84 6a 19 bd a2 f3 04 3d 40 8c bb 3c 8b c4 81 bd
       -0.037455097 0.03245891 0.022894025 -0.06336316
0001b0 50 d2 12 3c 10 2e 54 bd 66 26 12 3d b8 14 12 3d
       0.008961275 -0.05180174 0.03568115 0.03566429
0001c0 f0 17 fa 3b 07 01 22 bd 50 6e ca 3c b7 52 a0 bd
       0.007632248 -0.03955176 0.024710804 -0.078282766
0001d0 9a 74 41 bd de 15 39 3d 58 c9 1d 3c 52 9b 10 bd
       -0.04723034 0.04518687 0.009630524 -0.035304375
0001e0 ee ba a0 bc 1a 28 0a be 36 55 73 3d c0 59 eb bc
       -0.019620385 -0.1349186 0.059407435 -0.02872932
0001f0 dc f3 2d bd ba ef 14 bd 72 56 79 3d 8f 82 8a bd
       -0.04246889 -0.036361434 0.060873456 -0.06763183
000200 e6 e0 ad bd da 2d d9 bd e4 52 8e 3c ad d1 61 bd
       -0.084901616 -0.106044486 0.01737351 -0.055131603
000210 a9 60 ce 3d fb 26 37 be f7 70 ad bd 4e 5b a2 3d
       0.1007703 -0.17885964 -0.08468812 0.07927571
000220 27 60 46 bc e8 4e bc bc 06 7d 77 bb 8c e3 24 3c
       -0.012107885 -0.022986844 -0.0037763729 0.010064017
000230 0b d1 e8 bb 11 05 bd 3c b8 ac 5a bd 91 00 66 bd
       -0.007104998 0.023073705 -0.053387374 -0.056152884
000240 ee e6 c9 bd ee bd 05 bc b2 46 80 39 2f 82 87 be
       -0.098584995 -0.008162959 0.00024466735 -0.2646651
000250 04 f1 28 3e 53 0d 9e 3d 6f 05 de bd 8a 1d 5e bd
       0.1649819 0.07717385 -0.1084088 -0.05422739
000260 ed a8 07 bd 90 85 45 3b f8 72 60 bd 01 34 c8 bd
       -0.033120085 0.0030139424 -0.054797143 -0.09775544
000270 66 88 9f 3c b6 8d 96 bd dd d7 2f 3c f8 84 c1 bd
       0.01947422 -0.07351248 0.010732618 -0.0944919
000280 c0 a9 53 bd da c1 84 bd ef 1f 1f 3b f5 58 81 3d
       -0.051675558 -0.06482287 0.0024280509 0.06315795
000290 0e b7 f8 3c 8a eb 54 bd 62 23 9e bd 44 bc f4 bb
       0.030360725 -0.05198244 -0.077215925 -0.007468732
0002a0 fd f7 f4 bd cc 6e 15 be 59 df 16 be 90 82 9b bd
       -0.119613625 -0.14593047 -0.14733638 -0.07593262
0002b0 e8 37 ad 3d b2 06 46 be 5c 91 0b be 71 d7 a9 3b
       0.08457929 -0.19338492 -0.13629669 0.0051831533
0002c0 fe 30 22 bd c4 10 c8 bd 84 76 f2 bc a2 bc 1f 3e
       -0.039597504 -0.09768823 -0.029597528 0.15599301
0002d0 a3 fd 04 bd f5 55 78 bd 86 d6 0d bd 6d c4 da 3c
       -0.03246845 -0.06062885 -0.034628414 0.026704991
0002e0 a1 03 ba 3c f1 ef 8a bd bf 59 0a 3d a7 6c 18 3e
       0.022706809 -0.067840464 0.033776995 0.14885198
0002f0 1b 2d 32 3b 38 5c 42 bc 9a f3 0f be 3c fc 48 3e
       0.002718753 -0.011862807 -0.1405777 0.1962747
000300 a9 fd 2b bd 38 ac bb bd a2 52 8e bd 39 82 74 bc
       -0.041989956 -0.091637075 -0.06949355 -0.014923626
000310 95 45 7b 3c 55 97 91 bd fc d1 d3 bd 2c 85 be 3c
       0.015336414 -0.071089424 -0.10342786 0.02325686
000320 3a c3 97 bd ea e0 f7 bd ff df 9e bd 25 76 05 be
       -0.074102834 -0.12103446 -0.077575676 -0.1303335
000330 7b 28 08 3d 33 de 2b 3c 2f 71 f1 bd 1f 6f a7 bd
       0.03324173 0.010489988 -0.11789166 -0.081754915
000340 33 1f 69 3e 6b e2 81 bd 0c 44 19 3c fd 29 fa 3d
       0.22765808 -0.06342014 0.009354603 0.1221504
000350 8c 83 56 3d 90 0e 8d be 0e e2 04 be 39 af 72 3d
       0.052371547 -0.27550173 -0.12976858 0.059249137
000360 26 8b 47 3d d0 c2 db bd 69 d9 5f bd d1 5b 03 be
       0.048716687 -0.10730517 -0.054650698 -0.12827994
000370 1c a3 a3 bc 0a f6 18 bd 35 c3 2a bd 89 1a ba bd
       -0.019975238 -0.037344016 -0.04169007 -0.090870924
000380 47 cf 9c bd a0 ac b8 bd b4 bf 76 bd 0b ab b6 bc
       -0.076567225 -0.090173006 -0.060241416 -0.022298357
000390 6b c5 12 bc 28 e4 90 bd 55 10 53 bd 6f f9 49 bd
       -0.008958201 -0.07074767 -0.051529247 -0.049310144
0003a0 eb 18 58 bd 40 fb a6 bc 03 12 22 be b5 05 e1 bd
       -0.05275814 -0.020383477 -0.15827183 -0.10987417
0003b0 4d 67 0a 3b 07 49 f8 bd b3 9f 6a bd 6d 7b 88 3d
       0.00211187 -0.12123304 -0.057281207 0.066641666
0003c0 45 4e 07 bd 99 fa 2b bd 04 29 fa bd 0d e8 14 be
       -0.033033628 -0.041987035 -0.12214854 -0.14541645
0003d0 e3 67 e2 bd d1 47 1d be f6 f9 22 be 6f 38 87 bd
       -0.11054971 -0.15359427 -0.15915665 -0.06602561
0003e0 6f ae db bd 49 f0 8f bc bd b2 cc bd 64 ec 24 be
       -0.1072663 -0.017570632 -0.09995029 -0.16105801
0003f0 99 83 5b be f5 63 5b be d5 e5 7a 3d 0c e1 50 be
       -0.2143692 -0.2142485 0.06125434 -0.20398349

backbone.0.bias f4 [64]
000000 e5 c3 3f be 16 68 a5 3c f3 4b 0d 3e 34 0c 5c 3d
       -0.18727072 0.020191234 0.13798504 0.053722575
000010 a1 a7 b5 3d 33 72 97 bc 11 91 3d be 33 24 0a 3d
       0.08869863 -0.018487072 -0.1851237 0.03372593
000020 b0 56 3a bc 7c 07 ae be 32 f0 f7 bc c5 f8 80 3d
       -0.011373207 -0.33990085 -0.030265901 0.06297449
000030 d8 87 ec 3d 60 d5 cf 3d 4a 73 84 3c 70 38 1e bd
       0.11549348 0.1014812 0.016168255 -0.03862804
000040 5d 62 aa bd 76 c7 59 bc a2 ff 32 bb ad 8f 95 3c
       -0.083195426 -0.013292184 -0.0027313014 0.018256987
000050 39 f0 50 3c aa 77 86 3c ce 8c 2c bd 5e f9 c3 3d
       0.012752586 0.016414482 -0.04212647 0.095690474
000060 27 4a 08 be 6a f8 37 3e e0 b4 df 3c 23 01 6f 3d
       -0.13309537 0.17965856 0.027307928 0.058350693
000070 1d d7 a4 bc 5a 4d d1 bd 94 02 fa 3c 2f 6c 2c 3e
       -0.020122105 -0.10219832 0.030518807 0.16838144
000080 49 4f 73 bc 6d 88 20 bd ad 60 15 bd 5c 4f d1 bd
       -0.014850446 -0.039192606 -0.03646915 -0.10220215
000090 ac 98 c3 bd 02 05 95 3d d8 3b c3 3d 5a 7a b3 3d
       -0.09550604 0.07276346 0.09532899 0.08763571
0000a0 5b ee f8 3d ad 2e 92 3c b6 ad 71 3d c4 d1 f7 3d
       0.12154838 0.017844522 0.059003554 0.121005565
0000b0 fa d5 63 bd 8a 9d 9b 3d 7f a3 32 3d c2 6a 24 3d
       -0.055623986 0.075984076 0.043612953 0.040140875
0000c0 7a ed 04 bd 08 74 e4 3a 00 a4 b6 bc 2c bb 28 3d
       -0.032453038 0.00174296 -0.022294998 0.041194126
0000d0 f5 2b d8 3b 5d e3 f7 bb 4d 73 fb 3d e7 43 53 be
       0.006597037 -0.0075649456 0.12277851 -0.20631371
0000e0 68 40 2e bc 08 e5 aa 3d f0 68 e1 bd 81 6d 8e bc
       -0.010635473 0.083444655 -0.11006343 -0.0173862
0000f0 0a c0 2f 3e 52 c8 b6 3d dd 37 3d 3d ef b1 6e bd
       0.17163101 0.08924927 0.046195854 -0.05827516

backbone.3.weight f4 [64, 64]
000000 7a c5 0c be a3 f8 35 be e5 fe 07 be 2e 8e 07 bd
       -0.13747206 -0.17770629 -0.13280828 -0.033094577
000010 fc 2b 1b 3d 7d 76 8f bd f5 53 56 be 23 1e 40 3d
       0.037883744 -0.07005022 -0.20930465 0.04690374
000020 30 b2 04 be 32 2e 2f be b0 98 33 3d e7 9e 25 3c
       -0.12958598 -0.17107466 0.043846786 0.010108686
000030 7e ea 35 be 7b 71 83 bd 52 5d a1 bd 00 c5 71 3d
       -0.17765233 -0.06418129 -0.078791276 0.059025764
000040 9a 24 27 bd 95 12 8a bc 55 2f d6 3c 93 ff e0 bd
       -0.04080639 -0.016854564 0.026145617 -0.10986247
000050 28 1d ce bd 50 a4 64 bd 0f e0 91 3c 0d b8 85 3c
       -0.10064155 -0.055820763 0.017807035 0.016323114
000060 d9 78 46 3c e1 39 1a be 35 e4 a1 3c d8 eb e8 bb
       0.012113773 -0.15061142 0.019762138 -0.007108193
000070 07 19 13 3d 78 e3 73 3d 8b 14 e3 bd 1f 28 1a bc
       0.03591254 0.059543103 -0.11087903 -0.00940898
000080 ab 94 b9 bc f3 04 16 bb 9e ea ac bd 49 74 f4 3d
       -0.022653898 -0.0022891134 -0.08443187 0.11936242
000090 28 23 0d be 4c ab 83 bd cf 3d 96 bd 0f b9 66 be
       -0.13782942 -0.06429157 -0.07336008 -0.22531532
0000a0 81 02 ad bd 66 c1 25 3d df 96 29 3e 5c f3 4a bc
       -0.08447743 0.040467642 0.16561459 -0.012387123
0000b0 dc 5b 40 be 3e 76 d0 bb 88 1b 18 be 20 47 2c be
       -0.18785042 -0.006361752 -0.14854252 -0.16824007
0000c0 af 64 6f bd a5 ea 79 bd d2 9a 9f bd 8b 7b 9a bd
       -0.05844563 -0.06101479 -0.077932015 -0.07543095
0000d0 f9 c9 41 3d e2 d5 0c 3e fd 7e ba 3c 98 5c 14 be
       0.047311757 0.13753465 0.02276563 -0.14488447
0000e0 93 b3 25 3e 79 b2 5e bd c3 5e 9b 3c 93 ed 46 ba
       0.16181783 -0.054369424 0.018966084 -0.0007588502
0000f0 14 82 90 bd 91 59 64 bd fa 4b 9c bd 53 d2 ad 3c
       -0.070560604 -0.05574948 -0.07631679 0.021218454
000100 71 8e 44 3e 78 45 a0 3d f2 91 b7 bb 69 b1 65 be
       0.19194962 0.0782575 -0.005602115 -0.22430958
000110 44 58 4e bd 6f 8f 67 3d 53 2a 98 bc a7 24 2d bd
       -0.050377145 0.056533273 -0.01857487 -0.042271283
000120 80 1f e2 bd c2 74 ac be 5d 8d 55 3d 07 af 7e bd
       -0.110411644 -0.3368283 0.052136768 -0.062178638
000130 31 b0 9d 3d cf 19 c9 bc f9 36 70 3d 66 7d 0a be
       0.076996215 -0.02454844 0.058646176 -0.13524398
000140 7e e8 31 be 1b 3a 27 39 76 68 7f bc 89 37 29 3d
       -0.17373845 0.00015948007 -0.01558887 0.041312728
000150 d2 b8 c9 bd a8 51 17 bd 75 9b 4c bd 10 01 a2 bd
       -0.09849705 -0.036943108 -0.049952943 -0.07910359
000160 52 0e 15 bb e8 72 85 be b4 fa b1 bd cb c0 7a bb
       -0.0022744131 -0.2606423 -0.08690396 -0.0038261886
000170 70 96 87 bd 2e 99 81 bd a2 d3 d3 bc 42 3e e0 bd
       -0.066204906 -0.06328045 -0.02585775 -0.10949375
000180 1c 69 06 bd f0 5c ff 3d 45 84 37 3c 64 d6 ef 3d
       -0.032815084 0.12468898 0.011200969 0.11710814
000190 d8 b9 49 3d 40 dc a5 bd 0b 11 48 bd 1c 14 10 bd
       0.0492495 -0.0809865 -0.04884438 -0.035175428
0001a0 4c 19 34 3d 0f 18 93 3d db bd d9 3c d8 b7 22 3d
       0.043969437 0.07182323 0.026579788 0.03972611
0001b0 93 c7 c4 bd 1e 7c e8 bb 34 37 d2 bb 56 a0 85 bc
       -0.09608378 -0.007094874 -0.006415272 -0.016311806
0001c0 22 51 49 bd 8f cb 17 bd 48 ee 46 3c 04 21 aa bd
       -0.04914964 -0.037059363 0.012141772 -0.083070785
0001d0 ef 18 bd bd b6 81 4b bc f9 6c d3 3d 6f 0a ca bd
       -0.09233271 -0.012421062 0.10323519 -0.09865271
0001e0 23 47 be bb 06 8e 75 bd 41 86 2d bc aa f7 fa 3b
       -0.00580682 -0.059949897 -0.010591091 0.0076589184
0001f0 50 3f a0 bd fc 54 e4 3b 80 46 16 3d b3 79 6f bd
       -0.07824576 0.0069681387 0.036688328 -0.05846567
000200 49 6f 99 3d 8f a1 12 be aa 69 0a bd 10 5e 1d bc
       0.07491929 -0.14319442 -0.033792175 -0.009604946
000210 f0 94 cf 3d d7 38 98 3d ff 12 4f 3d 0f 18 d6 bd
       0.101358294 0.07432716 0.050555225 -0.104538076
000220 58 c5 0a bd 4b 0a b1 3b 75 09 20 bd 49 25 bf 3c
       -0.033879608 0.0054028383 -0.03907152 0.023333209
000230 91 8a 19 bc fb f0 ce 3d 52 9f 02 be 94 0a ae bc
       -0.009371416 0.10104557 -0.12756088 -0.021245278
000240 32 04 02 3d 0d 1c cd bd dd 32 0b bd 38 eb fa bd
       0.031742282 -0.10015116 -0.033984054 -0.12251896
000250 bc 93 2d bd 15 4d af bc 56 c1 db bd b5 12 a0 bd
       -0.04237722 -0.02139906 -0.10730235 -0.07816068
000260 7e 0f 99 bc c7 dd f3 bc 57 d0 49 bd 92 ac 30 3c
       -0.018684145 -0.029768838 -0.049270954 0.0107833315
000270 18 f1 70 3d f5 fc f9 bd 7f d6 1d be d2 1e 4b bc
       0.058823675 -0.12206451 -0.15413855 -0.012397485
000280 ce 68 cc 3c cb 5e b6 3d f5 a2 b7 bd ac 3d 02 bd
       0.024952319 0.08904799 -0.089666285 -0.031797096
000290 1c 9b 39 39 40 00 fb 3c 03 54 b3 bd 6c 50 38 3b
       0.00017700758 0.030639768 -0.08756258 0.0028124107
0002a0 27 8b 38 3d d9 e7 51 bd d3 e8 86 bd 72 5d cc bd
       0.04505458 -0.051246498 -0.065873764 -0.09978761
0002b0 8c 61 9b 3d 6c 8f a6 3c 18 ff 7c 3d f4 76 e1 3c
       0.07586965 0.02033206 0.061766714 0.027522542
0002c0 b6 74 d6 bc 70 f5 37 bd 02 18 05 bd 32 72 e5 bd
       -0.026178699 -0.0449118 -0.0324936 -0.11203422
0002d0 73 af fc 3c 71 ff 95 bd 80 46 82 3d c0 c0 13 bc
       0.03084538 -0.07324112 0.06361103 -0.009018123
0002e0 f7 01 b9 bd 7a f0 0b 3d 3f 1d 4a bd 8f 3d 1f bd
       -0.09033578 0.034164883 -0.049344297 -0.038877066
0002f0 78 96 75 3d 48 77 78 bd c3 63 0a bc 40 02 20 be
       0.05995795 -0.06066063 -0.008446637 -0.15625858
000300 57 db 00 3d 61 16 db bd 74 91 f3 bd 66 08 c9 3d
       0.03145918 -0.10697628 -0.11892977 0.09816055
000310 33 ae 99 bd 4d 3b e8 bd a1 f3 85 3d bf b9 c1 bd
       -0.07503929 -0.11339436 0.06540609 -0.094592564
000320 21 35 1b bd b2 83 bc 3d 64 48 29 3b 54 2f 6a bd
       -0.037892465 0.092048064 0.0025830502 -0.057174042
000330 98 f5 2e 3d 5a 88 6f bd 40 90 46 3b e7 20 8e 3d
       0.042714685 -0.058479644 0.0030298382 0.069398694
000340 25 5e 24 bd ef 8f a6 bc 8b d0 24 be 82 a3 1c 3d
       -0.040128846 -0.020332305 -0.16095178 0.03824187
000350 af 1d ad 3d fc cb 1d bd dc 64 9b bc eb c2 9c bd
       0.08452927 -0.038524613 -0.018968992 -0.07654365
000360 33 de 1e be b3 1d 95 3d a6 e1 63 bd d5 08 02 bc
       -0.1551445 0.07281055 -0.055635117 -0.007936676
000370 8b 1d c8 bc 55 5c 6a 3c a9 43 32 bd cf e7 23 bd
       -0.02442815 0.01430424 -0.043521557 -0.04001599
000380 50 79 b3 bd e0 8d bd 3b 8a d9 84 bb 1c 4b 3a 3b
       -0.08763373 0.005784735 -0.004054253 0.0028426116
000390 61 db 35 bd 0c b8 03 bd 77 81 01 bd 28 fd 3e bc
       -0.04439867 -0.032157943 -0.031617608 -0.011657037
0003a0 17 d8 e4 bd 39 c0 85 bd d1 01 21 be a4 19 dc bd
       -0.11174028 -0.06530804 -0.15723349 -0.10747078
0003b0 45 7a 7c bd 67 c2 3d bd 22 dc 15 be 6f 16 ac 3c
       -0.061640043 -0.046327975 -0.14634755 0.02100679
0003c0 59 b2 83 3d 7c bd f6 3b 29 f3 dd bd e3 b6 00 3d
       0.064305015 0.0075299125 -0.10837395 0.031424414
0003d0 ef 98 5b bd 72 67 04 be 5b b0 03 be 12 11 37 be
       -0.053612646 -0.12930086 -0.12860243 -0.17877606
0003e0 e5 f9 06 3c 31 80 6e 3d 71 4d 02 3e 7e 69 eb bd
       0.00823829 0.05822772 0.12724854 -0.114947304
0003f0 f7 a9 31 be bd 64 d7 3d 8f f0 4e 3b 86 2e af 3d
       -0.17349993 0.10517261 0.003157649 0.085537955

backbone.3.bias f4 [64]
000000 c0 ca 89 bd 06 68 d6 bd dc 00 16 be 66 fb 7f 3d
       -0.067281246 -0.1046906 -0.14648765 0.06249561
000010 af 68 5e 3d 99 35 16 be 63 2b 35 3e 66 c3 bd be
       0.054299053 -0.14668883 0.17692332 -0.3706314
000020 f7 52 25 bd 0a 41 93 3c be 71 84 bd db d9 e4 bb
       -0.040362325 0.017975349 -0.06467007 -0.006983978
000030 af c6 13 bd 4a f2 cd 3d c7 2b 52 be a1 88 90 bd
       -0.03607815 0.100559786 -0.20524512 -0.0705731
000040 e9 7d 38 be e7 eb d4 3c ad 3e 98 3b ad ab b2 3b
       -0.18016781 0.025991393 0.0046461434 0.0054525943
000050 4d 96 3c 3e 0a b9 0c be 5e 7e 73 bd b7 b1 de 3c
       0.1841671 -0.13742462 -0.059446685 0.02718435
000060 32 af a5 bd 97 e2 19 be 8b 30 70 bc 0f 6f 87 bd
       -0.080900565 -0.15027843 -0.014660011 -0.066129796
000070 0e e8 47 3d 30 97 24 be d9 e2 28 3e fa 44 92 be
       0.04880529 -0.16073298 0.16492786 -0.2856825
000080 99 77 1e be 6a b5 d7 bd 7c 6f 79 bd ba 50 5c 3c
       -0.1547531 -0.10532649 -0.060897335 0.013446981
000090 75 21 18 bd 6d 68 0e be 65 d8 d0 3c 88 4e 8e bd
       -0.037141282 -0.13907023 0.02549381 -0.069485724
0000a0 59 1a 2c bc a1 48 07 be da 4f df bd 20 a6 ed 3c
       -0.010504329 -0.132113 -0.10903902 0.029009879
0000b0 8b 6b d1 bd 20 1c 1a bd 1e c2 bc 3d e9 bd ec 3d
       -0.1022559 -0.03762448 0.092167124 0.1155966
0000c0 fd 7c fd 3d 67 58 5d 3d 39 51 dc bc ef e4 2b bd
       0.12377355 0.054039385 -0.026894199 -0.041966375
0000d0 45 a5 05 3e 38 23 dc bc 71 fe 80 3d c8 59 31 be
       0.13051327 -0.026872262 0.06298531 -0.17319405
0000e0 a5 83 2d 3e 55 89 4b be 56 e2 2a bd 76 15 7b 3d
       0.1694475 -0.19876607 -0.041719757 0.061299764
0000f0 59 34 76 bd c4 d5 64 3c 53 e2 97 bd 8c 50 da bd
       -0.060108516 0.013966981 -0.07416215 -0.10659894

backbone.6.weight f4 [64, 64]
000000 88 1e 6f 3d 3f fa d3 bc be 60 bd bc 4c 77 e6 3c
       0.058378726 -0.025876163 -0.02311742 0.028133057
000010 22 23 89 3c 03 c0 ac bb a1 04 97 3d 2d 2b ba 3d
       0.016740385 -0.005271913 0.0737393 0.090902664
000020 09 1a 06 be d2 67 a4 bd c3 3c fb 3c e4 fe 68 3d
       -0.13095869 -0.08027615 0.030668622 0.056883708
000030 bb 0d 12 bd 95 92 d2 bd 1f 37 10 bd e7 20 83 3c
       -0.035657626 -0.102818646 -0.035208818 0.0160069
000040 dd 5e c2 3c 44 c1 3a bd af 91 8b bd 22 cc b1 bd
       0.023726875 -0.04559447 -0.06814896 -0.08681513
000050 96 19 3f 3c 0b 6d 8d 3d bb 65 3f 3d 9b 66 af 3c
       0.011663815 0.06905564 0.046727877 0.02141123
000060 78 db d7 bb 80 05 2b 3d 29 f2 01 be 91 67 13 be
       -0.006587442 0.041753292 -0.12690033 -0.14394976
000070 27 c8 b8 bd 39 5d 31 bd 12 2b a1 3d 17 58 b7 3d
       -0.09022551 -0.043301795 0.07869543 0.08952349
000080 fb 11 8d 3d 81 d8 7c 3c 9d c9 9c bd 72 5e fb bd
       0.06888195 0.015432478 -0.07655642 -0.122738734
000090 b0 62 77 3d 0a 73 85 3d 51 b5 de ba 15 db 90 3d
       0.06039685 0.065160826 -0.0016991292 0.070730366
0000a0 68 aa 9e 3d 9b 30 b0 bc 16 2d 93 3d 03 fa 10 3d
       0.07747346 -0.021507552 0.07186334 0.03539468
0000b0 bb ef 63 bd 3e 83 64 bc 91 a2 c2 3d 3a a0 8d bd
       -0.055648547 -0.013947306 0.09503663 -0.069153264
0000c0 05 09 f7 3d 57 56 22 bd f9 44 aa 3c 45 93 85 3c
       0.12062267 -0.03963312 0.020784842 0.016305575
0000d0 cb 41 62 3d 37 ed 72 bd 63 4a 60 bd 25 82 1a 3d
       0.055238526 -0.059308257 -0.05475844 0.03772177
0000e0 ef 72 df bd ad e0 01 3d d9 6f 9f 3d 02 16 ca 3d
       -0.10910594 0.03170841 0.07785005 0.09867479
0000f0 57 0a a9 3c 46 d9 97 3c 0e a1 d9 bd 70 36 9b 3d
       0.020634813 0.018536221 -0.10626422 0.075787425
000100 05 16 99 bc 0c c9 41 bd 9d 81 bc 3d f6 21 72 3d
       -0.018687258 -0.047310874 0.09204409 0.05911442
000110 bf 99 cb bd 13 a6 0e bd f5 9d 40 3d f3 72 3a 3d
       -0.09941434 -0.03482635 0.04702564 0.04551978
000120 37 b4 b8 bb 33 53 b8 3d 5b a5 a9 3d e4 fb 9c 3d
       -0.0056367177 0.09000244 0.08283492 0.07665232
000130 21 1c 66 3d a0 8b b0 ba 51 46 64 bc 38 65 90 3d
       0.05617917 -0.0013469346 -0.01393278 0.07050556
000140 7f 98 88 3d f7 0e 98 3c 30 7b db 3c 2a 5a 55 3d
       0.06669711 0.018561823 0.026792139 0.05208794
000150 80 89 e8 bc 84 5c a0 bc 5c 0b 9d 3d dc 78 7b 3d
       -0.028385878 -0.019575365 0.07668182 0.061394557
000160 91 38 f7 3b b6 04 48 3d 3a c2 99 3d ad f0 44 be
       0.007544585 0.048832618 0.07507749 -0.19232436
000170 ef fe d9 3d 08 d5 8c bd 59 b7 4f 3d 01 50 c8 3d
       0.10644328 -0.0687657 0.050711963 0.097808845
000180 08 b6 54 3d a3 6f b5 3c 92 17 bf 3d b2 3a 44 bd
       0.05193141 0.02214796 0.093306676 -0.04790754
000190 ea 23 54 3d d1 f5 bf bb e4 93 bd bd 67 53 14 bd
       0.051792063 -0.005858161 -0.092567235 -0.03621235
0001a0 d0 a0 ee 3b 97 ed bc ba 6c 37 2b bd 7e 41 11 3d
       0.007282354 -0.0014414069 -0.0418009 0.03546285
0001b0 b1 7d 4e bc d6 d6 98 bc af c7 c0 bc 6d 3d e2 bc
       -0.012603209 -0.01865713 -0.023532717 -0.02761718
0001c0 8e 9d 0c 3d 2d f3 5b bc 54 3b 99 3d 82 8f 32 3c
       0.034329943 -0.013424677 0.07482019 0.010898473
0001d0 33 5b cb 3c 75 85 0a be 7d 15 9e bd 2b d2 80 3c
       0.02482376 -0.13527472 -0.07718942 0.015725216
0001e0 bf 53 c3 3c dc b7 e0 3c 70 24 e0 3d f1 74 8d 3d
       0.023843644 0.027431421 0.1094445 0.069070704
0001f0 e4 be 3c bb f0 cb 65 3c 62 d9 12 be 87 70 f0 bc
       -0.0028800303 0.014025673 -0.14340737 -0.029350532
000200 7d c3 a4 bd 39 22 87 3d 57 4d 91 3d d7 5f 45 bd
       -0.08045099 0.06598324 0.070948295 -0.048187103
000210 46 ef 91 3d 25 15 2a be 83 f1 08 bd 3a ff 69 bb
       0.07125716 -0.16609628 -0.03343345 -0.0035705105
000220 a5 5b 64 3d 20 0d 8a bd 28 ee 85 bd 83 81 93 3c
       0.05575146 -0.06740785 -0.06539565 0.018006092
000230 2c 47 b1 bd ee 87 21 3d bc 86 23 bc 19 8c 6a 3d
       -0.08656153 0.039436273 -0.009980854 0.057262514
000240 06 f8 a9 3d f8 62 4c 3d 88 03 5c 3d 10 78 ed 3d
       0.0829926 0.04989907 0.053714305 0.11595166
000250 58 39 9f 3c f4 c4 5e bd 97 9c 13 bd ed c7 b1 3d
       0.019436523 -0.054387048 -0.036038008 0.08680711
000260 65 f1 9e bd 68 3c 77 bd f9 78 ac bd 6d 61 9c bd
       -0.07760886 -0.060360342 -0.08421511 -0.0763577
000270 a7 e5 b9 3d 56 fc 72 bd 6d d0 b8 3d db 9b be bc
       0.09077006 -0.059322678 0.09024129 -0.023267677
000280 18 d1 b5 bc 33 07 2f 3d 39 8d 5b 3d da 7a ee 3d
       -0.02219443 0.042731475 0.053601477 0.11644526
000290 76 e5 25 bc ea 4a 40 bd a1 51 c1 bd c7 67 ba 3c
       -0.0101255085 -0.046946444 -0.094393976 0.022754563
0002a0 ce 72 5d bb 90 93 af 3d 1b 79 c9 3c 83 34 2b 3d
       -0.0033790353 0.08573067 0.02459388 0.041798126
0002b0 e7 c3 8d bb 77 45 62 3d bb 18 06 3c 8e be 5f 3d
       -0.004326332 0.055242028 0.008184607 0.054625086
0002c0 c2 fc 06 3d 1a 4a 4d 3d e2 f6 4a 3d 68 48 a7 bd
       0.032955892 0.050119497 0.049551852 -0.08168107
0002d0 36 dc 10 be 28 f8 56 3d 36 f2 61 3c ae ba 89 3d
       -0.14146504 0.052482754 0.013790658 0.067250594
0002e0 e5 8c 85 bd 2a f7 f8 3c 0d 75 0b 3d 33 ff 3f 3c
       -0.06521014 0.030391295 0.034047175 0.011718559
0002f0 c0 c8 c5 3c b0 e2 b0 bd 9e ba dc 3b 01 78 e1 3d
       0.024143577 -0.08636987 0.0067361137 0.11009217
000300 ed d1 63 3d 26 97 7a be 9c a8 6d bc fb 7c 1a 3b
       0.055620123 -0.24471721 -0.014505532 0.002357303
000310 a3 5e d7 3d 0f a6 09 3e c3 eb 1f be c1 46 a9 bd
       0.105160974 0.13442253 -0.1561728 -0.08265448
000320 4a 44 07 be 17 d7 85 3d 37 e5 85 bd ea 7e b2 bc
       -0.13209644 0.06535166 -0.0653786 -0.021789033
000330 cc 13 d4 bd 79 ac cf 3d 6d 85 fc bd 04 2e 44 bc
       -0.103553385 0.101403184 -0.123301364 -0.011973862
000340 c3 25 88 3d 03 78 84 3d 1e 97 83 bd 6a c7 0a be
       0.066478275 0.06468203 -0.06425308 -0.13552633
000350 3b f9 fb 3c d9 94 a9 3d dd d5 4f be 96 2b 18 be
       0.03075849 0.082803436 -0.20296426 -0.14860377
000360 2d 1d d2 bd 03 77 20 be 0f 32 e3 bc 58 64 d6 bc
       -0.10259471 -0.156704 -0.02773383 -0.026170895
000370 d0 1e ab 3b f3 60 9c 3c 22 ef 4a bd 79 8d 91 bd
       0.005222179 0.019089198 -0.04954446 -0.07107062
000380 c0 28 d9 bb 0b b6 ff 3d a8 b2 f0 3b 54 c3 38 3d
       -0.006627172 0.12485894 0.0073455162 0.045108154
000390 82 01 92 bd 2a 54 7a bd 9f 01 7f 3c f7 78 02 bd
       -0.07129194 -0.06111542 0.015564351 -0.031853642
0003a0 ca 17 f1 3c 99 6f d2 bd db 7a 6b 39 8e da 3f 3d
       0.029430289 -0.10275192 0.00022457114 0.04683929
0003b0 d3 4d b7 bd ec b5 79 bd 4c 49 bc bd 73 be c2 3d
       -0.08950391 -0.06096451 -0.09193668 0.095089816
0003c0 4d 38 1b bd 96 79 20 3c 5b 5a 7f bd c7 25 8a bd
       -0.03789549 0.009794613 -0.06234203 -0.06745487
0003d0 23 64 24 3d fc e8 3b be e7 41 16 3a e2 af ad 3d
       0.04013456 -0.18350595 0.0005731866 0.084808126
0003e0 31 4a 76 bd a3 7e be bd c0 e8 c0 bc e4 8c f7 bd
       -0.06012935 -0.09301498 -0.023548484 -0.1208742
0003f0 90 d9 a1 bd 9e 39 8f 3d 68 2c 45 3e da a2 2a be
       -0.07902825 0.069934115 0.19255221 -0.16663685

backbone.6.bias f4 [64]
000000 ef 5c 63 3e 0e 54 6b be 5f 2b 40 3d bc c3 6b bd
       0.2220342 -0.22981283 0.046916362 -0.057559714
000010 83 0c 04 be 3c 2d 7a 3e e0 a1 3a bd 27 4e 56 3e
       -0.12895398 0.24431318 -0.045564532 0.2092825
000020 9b 94 a5 bd c2 6c f5 b9 1c f3 0b 3c 0c 2b df 3d
       -0.08084985 -0.00046811072 0.0085418485 0.108968824
000030 8a 51 a9 bd 17 c2 ec bd a4 c3 bc b7 e0 46 c0 bd
       -0.082675055 -0.11560457 -2.2502449e-05 -0.09388518
000040 47 d9 20 3e dc f0 2f 3e 60 45 54 be 84 ee 12 be
       0.15707885 0.17181724 -0.2072959 -0.14348799
000050 14 54 50 be cc a4 3b 3e dd dd 20 3d af fe 84 3e
       -0.20344573 0.18324584 0.039274085 0.25975558
000060 21 7a ed 3e 47 d0 87 3e b7 d3 b8 3d b8 e0 ca bd
       0.4638224 0.2652609 0.090247564 -0.09906143
000070 5b 24 32 3d f1 21 3a bb 18 87 b7 bd b5 81 06 3d
       0.043491703 -0.0028401578 -0.08961314 0.032838542
000080 5e a0 69 3d 32 c8 7c 3e 5a 4d 85 bd ea b0 09 3e
       0.057037704 0.24685743 -0.06508894 0.13446394
000090 8a df 4b 3e 19 54 80 bc 3d 62 a6 3c 9d 83 9a 3e
       0.19909492 -0.0156651 0.020310516 0.30178538
0000a0 2b 2e 26 3e 8f 49 e6 bd 79 ba 8d 3e 79 59 f5 3e
       0.16228549 -0.11244499 0.2768133 0.47919825
0000b0 ef 68 b8 bd 44 d2 51 3e 87 73 32 3e ad 91 89 bd
       -0.090043895 0.20490366 0.17426883 -0.067172386
0000c0 01 d5 95 3e f7 7f 8f 3d 38 e8 12 3d 04 a0 a8 bd
       0.29264072 0.07006829 0.035865992 -0.082336456
0000d0 35 ee de 3d d9 59 24 3e 13 94 0a 3e da af e6 3e
       0.10885278 0.16049899 0.13533048 0.4505604
0000e0 fd be 9a 3d e2 bf ab bc c4 c5 1d 3c c8 28 9d 3e
       0.075559594 -0.02096552 0.0096296705 0.30695176
0000f0 04 60 10 be 39 20 3d 3e 89 48 88 be dc 7a 97 3e
       -0.14099127 0.18469323 -0.2661784 0.29585922

value_head.weight f4 [1, 64]
000000 3a 32 a0 3d a9 c1 5a bd 2e 04 3a 3d bf 45 85 bd
       0.0782208 -0.053407345 0.045414142 -0.06507444
000010 a6 9b 88 3c de 79 c3 3d c6 87 06 be 7f 9e 95 3d
       0.016675781 0.09544729 -0.13137731 0.07305621
000020 54 92 41 3c 3a c9 b2 3c 6e 36 83 3d f1 9d 83 3d
       0.0118146725 0.021824468 0.06406866 0.06426609
000030 96 a2 cd 3b 46 f9 a4 3c 82 fa 82 3d 4a ad 25 bd
       0.0062754853 0.020138394 0.06395437 -0.040448464
000040 c9 83 d0 3d d4 1b 9a 3d 7f 9c 24 bd ac a4 d0 3c
       0.10181386 0.07524839 -0.04018831 0.025469147
000050 bf 66 c1 bd 1e 1f c2 3d ba 87 c6 3d d7 c9 d1 3d
       -0.094434254 0.094785914 0.096938565 0.10243576
000060 df 4e d9 3d dd 22 a0 3d 9c 39 7b 3c 07 56 ab bd
       0.106107466 0.0781915 0.015333559 -0.08366018
000070 65 be 8a 3d 19 bc 2e 3d ac 17 91 bc a1 82 29 3d
       0.06774596 0.042659853 -0.017711483 0.041384343
000080 3b bf 9f 3d cd 82 83 3d 13 89 3d bd 49 ed b7 3d
       0.07800146 0.06421433 -0.046273302 0.089808054
000090 61 06 4f 3d f1 95 d1 3a 39 98 7e 3d f9 87 ae 3d
       0.050543193 0.0015990121 0.06215689 0.085220285
0000a0 d0 12 b5 3d 38 3b ca bd be 5d bf 3d d7 84 04 3e
       0.08841479 -0.09874576 0.09344052 0.129413
0000b0 7e 7d 4c 3c d3 51 d2 3d 0c e4 d0 bd 38 ba 99 3d
       0.012481092 0.10269513 -0.101997465 0.075062215
0000c0 6d ab 00 3e 3e 0c 09 3e 83 70 c7 3c 1f e9 6f bd
       0.12565394 0.13383576 0.024345642 -0.05857193
0000d0 65 ab cf bb bf 61 de 3d c0 6d b0 3d fc 43 f2 3d
       -0.0063375705 0.10858487 0.08614683 0.11829373
0000e0 5f d0 ae 3d 4f 3b 5f 3d 2d e1 8d 3c 90 cc 0c 3e
       0.085358374 0.05449992 0.017319286 0.1374991
0000f0 b0 bf 9e bd a2 aa af 3d 13 a1 ee 3c f6 28 dd 3d
       -0.07751405 0.085774675 0.02912954 0.10798828

adv_head.weight f4 [11, 64]
000000 05 cc 90 3c 3f c8 b5 3d 25 f8 73 3d fa 7a d5 bd
       0.01767541 0.088760845 0.05956282 -0.104238465
000010 94 3c f7 3c bb 01 69 3c e3 03 66 3d ea 53 9e 3c
       0.030180253 0.014221604 0.05615605 0.019327123
000020 68 1d e0 bb 23 8d 79 3d 9c d0 58 bd 2e c9 0f bd
       -0.006839443 0.060925614 -0.05293332 -0.03510397
000030 fd da db 3c d9 b1 18 be 6e 6e 11 3d b9 2e 6b 3c
       0.02683782 -0.14911593 0.035505705 0.014354401
000040 3c 08 57 bd 8a a8 bf bc ac 35 15 bd d5 56 39 3d
       -0.052498087 -0.023395795 -0.03642814 0.045248825
000050 4b d4 c2 bd 4f 43 66 bd 07 46 28 bc 5f bf 9c bd
       -0.09513148 -0.056216534 -0.010270602 -0.07653689
000060 fa b9 46 bd 02 b2 25 bd 2b 8f 14 3d 4c 9b 74 bd
       -0.048517205 -0.040452965 0.036269348 -0.059718415
000070 ce ab 76 3d 1f 24 66 3d d6 df 3a 3d a9 f6 85 bd
       0.06022244 0.05618679 0.045623623 -0.06541187
000080 50 21 b6 3b 03 ff b8 bc 00 76 a4 bb 4f be 6a bc
       0.0055581704 -0.022582537 -0.0050189495 -0.0143276
000090 16 3f 5a bd 0f 0b da bd 36 db 32 3d 09 8d 09 3c
       -0.05328282 -0.106466405 0.043666087 0.008395442
0000a0 b3 3b 3c bd 65 2f ae 3d 29 4a 8b bc 28 a6 e6 bd
       -0.04595537 0.085051335 -0.017003136 -0.112621605
0000b0 5e 72 20 3d 98 e3 53 bd 1e 2c 3c bd 47 d9 3a bc
       0.03917157 -0.051730722 -0.04594051 -0.011404342
0000c0 33 7e 0d bd cb 5d c0 bc cd 84 ee 3c d7 dd 14 3d
       -0.03454418 -0.023482224 0.029116059 0.036344375
0000d0 b6 2a 97 3d a3 f3 cd 3c 90 3a 9c 3c 57 b9 d8 bd
       0.07381193 0.02514059 0.019070894 -0.10582226
0000e0 1b a0 99 bc ff 50 49 bd bc a1 81 3c 89 69 08 3d
       -0.018753102 -0.04914951 0.015824191 0.03330377
0000f0 1f 6e 93 bd de 71 bd bc ec 54 03 3d b9 7b b4 bd
       -0.07198738 -0.023125585 0.03206341 -0.08812661
000100 89 b6 cd 3d 01 0e 25 bd af e5 af bc ad 3c 8e bd
       0.100445814 -0.04029656 -0.021471826 -0.06945167
000110 85 25 66 bb ad 62 d0 3d 65 7b 4b bd 5d 10 90 3d
       -0.0035117578 0.10175071 -0.049678225 0.07034371
000120 2e c2 0f 3d 93 22 58 bc 00 ff 15 bd c1 c9 80 bd
       0.035097294 -0.013191837 -0.03662014 -0.062884815
000130 5b 69 40 3c 09 97 81 bc e4 55 43 3c 74 52 26 bc
       0.011743869 -0.01581909 0.011922333 -0.010151494
000140 b8 8f a8 bc a5 ce 2f bc 28 97 e2 3d 97 bd bb 3c
       -0.020576343 -0.01073042 0.11063987 0.022917552
000150 19 fe 15 3d 4f f3 28 bd d7 0b 13 bd ac 8b 3d bd
       0.03661928 -0.041247662 -0.035899963 -0.04627578
000160 0d e4 d0 3c 83 18 87 bb bf 5e 8d 3d 59 c5 1d 3c
       0.025499368 -0.004122795 0.06902837 0.009629571
000170 36 dc 9a 3d 2b fb da 3b e4 57 03 3d 0e 0f a9 bd
       0.07561533 0.0066827736 0.03206624 -0.082548246
000180 25 4e f0 3b 5d cc 03 bc 54 3c f4 bd 74 a4 2e 3d
       0.0073335343 -0.0080443295 -0.11925569 0.042637303
000190 74 ec 5c bd 88 03 e8 3d af 37 cc 3d 82 d8 7b 3d
       -0.053936437 0.113287985 0.09971558 0.061485775
0001a0 29 c0 4c bd a1 27 1c 3d 8b 4a da 3c 8e 48 95 bd
       -0.049987946 0.03812373 0.026646873 -0.07289229
0001b0 27 ea 90 bc 5d e1 10 3c 3c 00 c9 bc 7c 5b ae 3b
       -0.017689778 0.008842793 -0.024536245 0.0053209644
0001c0 d4 c7 d2 bc c9 6f 6e 3c 11 4f b2 3c f0 ca e6 bb
       -0.025730051 0.014553019 0.021766217 -0.007043235
0001d0 bd c5 40 3d 37 71 16 3d 2e d3 d4 3c 45 bf 6b bc
       0.047063578 0.036729064 0.025979605 -0.014388864
0001e0 63 6f f3 3b 06 bf 9e bd cc 70 4f bd 65 21 be 3d
       0.00742905 -0.077512786 -0.05064468 0.09283713
0001f0 d5 d3 6c bd 60 bd 3c bc 82 2b 1d 3d 6e 39 12 bd
       -0.057819206 -0.01151976 0.03837157 -0.0356993
000200 96 5a dd ba e8 a8 69 bb c1 95 c9 bc 7e 4c 17 3d
       -0.0016887959 -0.0035653654 -0.024607541 0.036938183
000210 1c f1 00 bc 61 3f ea 3c 68 f0 47 3c aa 46 48 3d
       -0.007869985 0.028594675 0.012203313 0.048895516
000220 d1 5d a9 3d 59 f9 f7 3c 76 e0 ea bc 1c cb d3 bc
       0.08269847 0.030270265 -0.028671484 -0.025853686
000230 79 fa c4 bc 3b f8 67 bd 43 e5 fe 3b d2 9a 66 3d
       -0.024045216 -0.056633215 0.007778795 0.056299992
000240 bd 56 9d bc e2 16 16 3d 05 ca c9 3d 2a d2 58 3d
       -0.0192064 0.036642917 0.09852985 0.052934803
000250 2f 4a c7 3d cd c8 58 bd 66 4a 7f bc 32 28 ef ba
       0.09730946 -0.052925874 -0.015581703 -0.0018246232
000260 55 a5 08 3d c2 b2 86 bc 8e 29 2a 3d 59 da e8 3c
       0.033360798 -0.01644266 0.041543536 0.028424429
000270 33 57 b8 3d e4 c0 eb bc b1 a1 13 3b bd 43 49 bd
       0.09001007 -0.0287785 0.0022526796 -0.049136866
000280 72 be 21 3d 74 64 12 bd 90 2b 09 bd bd 65 1e 3d
       0.039488263 -0.03574033 -0.03348881 0.038671244
000290 f0 b4 67 bd 05 47 1a 3d f2 ff 96 3d 2b 3c 2f 3d
       -0.05656904 0.037665386 0.073730364 0.04278199
0002a0 2f 06 09 3d 8b 4e d4 bd 68 a7 8b 3b af 7f 38 bb
       0.033453163 -0.103665434 0.0042618997 -0.0028152277
0002b0 cc 54 51 bd 1f 78 0f 3c 9b 5f 60 bd 12 8e 0f 3c
       -0.05110626 0.008756666 -0.054778676 0.0087619
0002c0 a2 d3 46 3d 4c 9d 44 3d 93 dc a5 3c c9 47 ab 3d
       0.048541673 0.048001572 0.02024678 0.08363301
0002d0 db 41 28 3d 89 17 34 3d be d4 9f 3c dc 9f 49 bd
       0.04107843 0.043967757 0.019510623 -0.04922472
0002e0 51 ff 0d 3b 25 06 ec bd b1 ac e6 bc 4f fd 84 3d
       0.0021667073 -0.115246095 -0.028158518 0.06493627
0002f0 a3 c2 bb bc 7c ea 6b bc 63 5b f2 bc 6f 57 45 bd
       -0.022919958 -0.014399167 -0.029584592 -0.048179086
000300 60 13 9c 3d 69 81 9b bc 4e 19 d5 3c f5 79 af bb
       0.07620883 -0.018982606 0.026013043 -0.0053551146
000310 84 ba 2f bc 44 29 46 3d 1f 4c 98 3d bd f5 fd 3c
       -0.010725621 0.048379198 0.07436394 0.031000966
000320 01 e3 eb 3c 5b 0e 91 3c a0 b9 67 bd ca fb bb bc
       0.028794767 0.01770704 -0.05657351 -0.02294721
000330 c6 53 bb bc b4 e4 8d bd 3d 03 b5 3c 5f b2 54 3d
       -0.022867095 -0.06928387 0.02209627 0.05192792
000340 37 2e 7a ba 6a 87 90 bd fb 23 92 3d 6d e1 5c bd
       -0.000954363 -0.07057078 0.07135769 -0.05392592
000350 4e 0d e7 3d 8d 24 54 bd cf 59 69 3c 65 9d 28 bd
       0.112818345 -0.05179267 0.014242603 -0.041165728
000360 29 f6 28 3d cf ac fa ba 72 fe 8b 3b a9 29 11 3d
       0.04125038 -0.0019124987 0.0042722756 0.03544012
000370 ef 97 f3 3c 96 39 f7 bc c6 92 16 bc d0 62 d2 bc
       0.029735534 -0.030178826 -0.009190267 -0.025681883
000380 82 7f 4c 3c c6 33 1b 3d 47 ce 0c 3d 65 a3 e9 3c
       0.012481572 0.037891172 0.03437641 0.028520295
000390 d6 86 48 bc d1 11 10 3e 9c 09 b8 3c c8 5a 8e 3d
       -0.012239179 0.14069296 0.02246552 0.06950909
0003a0 03 47 5e bd 0d d8 83 bd f0 4d 20 3d cd d4 55 bd
       -0.05426694 -0.06437693 0.039136827 -0.052204896
0003b0 8a 2e e6 3b 79 d7 07 3d b3 2f 81 3d bc 2a f8 bb
       0.007024591 0.033164475 0.06307926 -0.0075734537
0003c0 14 45 8e 3c eb 3d d8 bb f1 26 3d bc ed 7e bf bc
       0.017366923 -0.006599178 -0.011544929 -0.023375953
0003d0 6e e8 4b 3c 8a 83 d8 3d 4a a1 08 3c fa 18 a3 bd
       0.012445552 0.10571964 0.008339236 -0.07963748
0003e0 bc e1 c6 bc f2 7b 5e bd 11 07 a2 3c 87 0b a8 3d
       -0.02427756 -0.054317422 0.01977876 0.08205324
0003f0 ad 59 c5 3c 66 e9 5f 3d 6e 19 d7 bd d5 c7 4f 3c
       0.024090612 0.054665945 -0.10502897 0.012681921

adv_head.bias f4 [11]
000000 5f fa c7 3e c8 c1 08 be f7 80 0d be b1 76 1e be
       0.39058205 -0.13355172 -0.13818727 -0.15474965
000010 06 87 8b be 1a 31 31 be 27 44 aa be 35 12 63 be
       -0.27251452 -0.17303887 -0.3325512 -0.22174914
000020 79 f9 61 be 67 ca db be 75 fe bf be
       -0.22067823 -0.42927858 -0.37498823
