models/cql_model_2022_2023.pth (torch, 94405 bytes, 9 tensors)

backbone.0.weight f4 [64, 208]
000000 a5 29 32 3b 22 d9 88 3c fb 82 63 3b e7 ac 1b bd
       0.0027185467 0.0167051 0.0034715522 -0.03800669
000010 e8 27 9d 3d 4c 62 03 bc 0a db 64 bd 0d 72 95 3d
       0.07673627 -0.008019041 -0.055872954 0.07297144
000020 07 e5 2c 3d c4 92 60 3a 60 1b 98 3c 13 61 e1 ba
       0.042210605 0.00085667917 0.01856774 -0.0017195068
000030 c5 01 b6 bc 22 ff 41 3c 71 75 ac bc 6e 02 0c 3b
       -0.02221764 0.011840614 -0.021052094 0.0021363753
000040 43 ac 94 bd 5f 95 fb ba 7a 7a c4 bc a0 87 6f bd
       -0.07259419 -0.0019194296 -0.023984183 -0.05847895
000050 0f 6b 41 3d ad 6e 3d 3c 7d 7e 5f 3d f8 01 0a bd
       0.04722124 0.011562032 0.054563988 -0.033693284
000060 4b 80 9a bd 00 54 b0 bc 02 0e 64 bd be 21 5b 3d
       -0.07544001 -0.02152443 -0.05567742 0.053498976
000070 8c 99 21 3d 70 ad ed 3c 38 b4 69 3c 81 27 94 bc
       0.039453074 0.029013366 0.014264159 -0.018085243
000080 88 1d 1b bd 29 e1 be 3c 72 28 d6 3d 57 cb 95 3d
       -0.03786996 0.023300724 0.10456933 0.073141746
000090 49 10 ae 3c 58 24 ca 3d f6 8c 9a b9 00 be 66 3c
       0.021248 0.09870213 -0.00029478193 0.0140833855
0000a0 f0 36 e3 3c 8f 53 da bc 8c 39 a1 3d 9e c9 b3 3d
       0.027736157 -0.026651172 0.07872304 0.0877869
0000b0 11 f2 4b 3c b0 f1 51 3d e8 a5 ad 3d d0 e9 3a 3d
       0.01244785 0.05125588 0.0847891 0.045633137
0000c0 c2 1f 1b 3d 0d 0f 39 bd bd 37 e6 3b b7 e3 ac bb
       0.037872083 -0.04518037 0.0070256875 -0.005276169
0000d0 0b 3a cd 3b d4 39 4d bc 76 9e 9f 3a bb 92 0e 3d
       0.006263023 -0.012525994 0.0012177962 0.0348079
0000e0 1a 7b 95 bc 7d 2a 2a 3d 6f bf 59 3c 16 a6 eb bc
       -0.018247176 0.041544426 0.01329027 -0.02876572
0000f0 7f eb 72 bd a1 73 43 3d 3e 95 ea bc 33 83 23 bc
       -0.059306618 0.047717694 -0.028635617 -0.009980011
000100 b1 22 2d bd cc fd bf bc 49 ad 68 bd a7 96 85 bd
       -0.042269412 -0.02343645 -0.056805883 -0.06522875
000110 5d 9a 48 3d a6 9e 07 bd 19 ae 9b bc c1 cb ea 3c
       0.048975337 -0.033110283 -0.019003915 0.02866161
000120 0c 32 6a 3d e4 cf 4b 3d b0 84 15 bd 69 5d 7b bc
       0.057176635 0.049758807 -0.036503494 -0.015342095
000130 0f 6b c9 bc e4 29 80 bd d2 e5 29 3d bc 45 6d 3d
       -0.024587182 -0.0625799 0.04147894 0.057927832
000140 27 d0 5f 3d 22 03 5a bd ce d3 10 bd e8 ff 84 3c
       0.05464187 -0.053225644 -0.035358243 0.016235307
000150 a0 8b 58 3c 5c c5 a1 bd 3f 45 46 bd 3a 4f 2d 3d
       0.013216883 -0.078989714 -0.048405882 0.042311884
000160 12 54 39 3d 27 b4 67 bb ad 59 96 bd be b4 18 3d
       0.04524619 -0.0035355182 -0.07341323 0.037281744
000170 4c 6b f0 bc 6b fd ba 3c cb 5d 2b 3d 9d 60 59 bc
       -0.029348038 0.022825917 0.041837495 -0.013267663
000180 d0 26 78 3b ad 94 f5 bb 75 f0 bb bd 71 24 3f 3b
       0.003786493 -0.00749453 -0.09176723 0.0029166008
000190 68 b7 87 bd 4a 58 54 3d 83 e0 16 bd 3a c5 5b 3b
       -0.06626779 0.05184201 -0.036835205 0.0033534304
0001a0 14 87 e4 3c 84 7d 9b 3c 7c 9b 28 3d 8c 0c f7 3c
       0.027896442 0.018980749 0.041163906 0.03015735
0001b0 3c af 74 bd 34 73 2d bd e6 0f 44 bd f8 92 38 3c
       -0.05973743 -0.042346194 -0.047866724 0.011265509
0001c0 40 ef aa bb c5 9c 17 bd e4 97 5b bc 8e 16 89 bd
       -0.005216509 -0.03701474 -0.013402913 -0.06693755
0001d0 1e 58 7a 3d 06 fd 6e 3d 30 b0 8a 3b 04 87 23 bc
       0.06111919 0.05834677 0.004232429 -0.009980921
0001e0 10 b6 32 bd 8f ca 96 3b 37 a8 84 3d c0 19 fd 3b
       -0.04363066 0.0046017836 0.06477397 0.007724017
0001f0 43 c9 83 bd 22 bb 62 3d ec ef 06 bc 80 8a 3a bd
       -0.06434872 0.055354245 -0.008235913 -0.04554224
000200 2f a9 40 bb 27 a3 87 3d 4f de 3b bd bc 23 ad 3c
       -0.0029397716 0.06622916 -0.045866307 0.021135204
000210 bd 6a 7d bc 68 1f 57 3d c4 75 a1 bd d3 33 d2 3c
       -0.015467343 0.052520186 -0.0788379 0.025659477
000220 c5 07 15 bb bb 68 44 bd 77 91 73 bc 7e df 10 3d
       -0.0022740227 -0.04795144 -0.0148662245 0.03536939
000230 2b dd b0 ba 77 ee 07 bc 03 aa a1 bd a1 c7 89 3d
       -0.0013493648 -0.008296601 -0.07893755 0.06727529
000240 78 d4 aa bd 25 50 85 3c 6d 38 60 bd 89 29 87 bd
       -0.083413064 0.016273567 -0.05474131 -0.06599719
000250 7e e0 56 bc 21 9c ec bc 9e 03 d7 3b 30 7d dd bc
       -0.013115047 -0.028883042 0.0065617105 -0.027037233
000260 93 8a c1 3b 25 9c 64 bd d4 1a 85 bc 53 a6 42 3c
       0.005906412 -0.055812974 -0.016248144 0.011880475
000270 25 a0 9e bc 1d 07 22 3d 27 04 a1 bc 9d 49 19 bd
       -0.019363472 0.039557565 -0.0196553 -0.03742372
000280 3e ce 68 3c e3 e7 16 bc fa 91 7a bd 9e a6 8c 3d
       0.014209328 -0.00921056 -0.06117437 0.06867717
000290 68 8a 1d bd 77 79 86 bd e4 1c 33 bc 3f dc f2 3b
       -0.038462073 -0.06566136 -0.010932181 0.0074115093
0002a0 ec f7 45 bd 33 0b 21 bd 57 58 92 3c 38 c3 2a bb
       -0.04833214 -0.03931732 0.01786439 -0.00260563
0002b0 e5 4e be bb 16 52 bf 3c 22 cd 1c 3a ee c6 02 3c
       -0.005807745 0.023354571 0.0005981495 0.007981999
0002c0 78 93 24 3c c0 99 48 bd 75 ea 19 3d 03 78 f8 bb
       0.010044925 -0.048974752 0.03757711 -0.007582666
0002d0 f1 98 a8 bd df ab 1d bc f5 d4 1c 3d 0f d1 3d 3d
       -0.08232296 -0.009623497 0.03828903 0.046341952
0002e0 dd ae ba 3b 8c c1 31 bd 9f e0 4b 3d bc 6e a0 bd
       0.005697115 -0.04339747 0.049774762 -0.07833621
0002f0 13 dd 10 bd 9c 84 74 bc ad 02 67 bd bc 97 a6 3c
       -0.035367083 -0.014924195 -0.056399036 0.020336024
000300 55 42 77 3d 55 26 7b 3d 13 91 84 3c 9d 1d 79 3d
       0.060365994 0.061315853 0.016182458 0.060819257
000310 e9 5a b4 3c 5c 64 e0 3c 10 75 af bb eb cc 67 3d
       0.022016006 0.027391605 -0.005354531 0.05659191
000320 ae 64 98 3d 56 7a 36 bd 74 06 81 3d 85 14 5e 3c
       0.07441078 -0.044550262 0.06300059 0.013554697
000330 9f ba 17 bd 9a a6 11 3c 03 b4 a3 bc f9 27 9c 3c
       -0.03704321 0.008889819 -0.019983297 0.01906203
000340 ab 26 84 bf 26 fa 68 3c 04 ba e8 be 25 e3 f1 be
       -1.03243 0.014219796 -0.4545442 -0.4724361
000350 b8 2c 29 3d f0 3e eb 3e 11 a1 bf 3e 7b b1 62 3b
       0.041302413 0.45946455 0.3742757 0.003459065
000360 3d d6 b3 bd c8 e9 3d 3e dd a3 1b bd 8e a9 bc 3e
       -0.08781097 0.18546212 -0.03799807 0.3684811
000370 9f 43 78 bd 23 5e f2 3c 8d c3 27 bd f4 98 11 3e
       -0.060611364 0.029585904 -0.040957976 0.14218503
000380 21 df 66 3e f4 b8 29 3e 9a e2 47 3e a8 31 48 3e
       0.22546054 0.1657446 0.19520035 0.19550192
000390 40 2e 1d 3e d8 02 06 3e 81 ab 14 3e 0d de 80 3d
       0.15349674 0.13087022 0.14518549 0.06292353
0003a0 e1 12 f0 3d 7c 7c a6 3d 6a a8 1b 3d dc 50 fd 3d
       0.11722351 0.08129212 0.03800241 0.12368938
0003b0 6d c2 b1 bd 1d 4d 9d 3e 80 ed 80 ba 21 24 62 bc
       -0.08679662 0.30722895 -0.0009836406 -0.013802559
0003c0 34 82 56 3c 2b 4c f0 3d 3a df bc 3d 48 54 63 3d
       0.013092566 0.11733278 0.092222646 0.0555003
0003d0 c2 28 5c 3e f0 f1 f9 3d 4a d8 2a 3d f3 b8 b6 3d
       0.21499923 0.12204349 0.041710176 0.08921995
0003e0 48 be 11 3d dd 4f 68 3d 29 d6 08 3b 52 0a 23 3d
       0.035581857 0.05671679 0.0020879603 0.039804764
0003f0 0c bc eb bd 99 c2 16 3e 79 ad b0 bb 71 8d d0 3d
       -0.115104765 0.1472267 -0.0053917733 0.10183228

backbone.0.bias f4 [64]
000000 8e 5d 20 bd 9a 04 2c 3d 6d 7d 7d 3d aa e5 97 3c
       -0.03915172 0.041996576 0.061887193 0.01854213
000010 2f 74 e4 bc 07 b2 bd 3d e5 2c a4 bc 1a cc d2 bd
       -0.027887432 0.09262472 -0.020040939 -0.102928355
000020 6d fe b3 bc 50 73 ce 3d e3 14 87 3d 43 85 12 3d
       -0.021971906 0.10080588 0.06595781 0.03577162
000030 64 98 6c bc 3d c1 2d 3c 40 e7 c3 bd 1e e7 59 bc
       -0.01444063 0.010605154 -0.09565592 -0.013299732
000040 69 a0 1f bd 2f b2 da 3d 82 dd a2 3d 5c b5 c7 3d
       -0.03897134 0.10678517 0.079524055 0.097513884
000050 08 2b 6a 3d 56 86 73 bd 9a bf 38 3d dd ad 83 39
       0.057169944 -0.059454285 0.0451046 0.00025115805
000060 66 a1 d0 3c 74 ec f7 3d b7 9b a7 3d ab 35 2a bd
       0.025467586 0.12105647 0.08183997 -0.041555088
000070 41 d7 ed bc f5 28 2f 3d d0 d3 b3 39 44 cb 2d 3d
       -0.029033305 0.04276367 0.00034299353 0.042430177
000080 41 83 82 bc 5a ea 88 bd 25 18 14 bd dc bc b2 3d
       -0.015931727 -0.06685324 -0.03615584 0.08727428
000090 a8 07 24 bc 76 ed ae 3d b2 bc 67 3c da 10 66 bd
       -0.010011591 0.08541386 0.01414411 -0.056168415
0000a0 10 d8 09 3d 5e 41 8c 3d ac ce ea 3d 18 2d 7e 3d
       0.03365332 0.06848405 0.11465201 0.062054724
0000b0 f1 61 98 3d 3c 74 83 3c 88 3c 57 3d 50 56 10 bd
       0.07440556 0.016046636 0.05254796 -0.035238564
0000c0 05 fa 8b 3d b0 db ff 3c 5b 0c 62 3c be df 28 3d
       0.06834797 0.031232685 0.013796891 0.041229002
0000d0 b8 fb 08 3c a5 74 80 bc 28 03 0a 3d 48 14 99 bc
       0.008360796 -0.01568062 0.033694416 -0.018686429
0000e0 ef 0a ad bc d8 46 03 3e d7 e1 03 3c 18 17 37 3d
       -0.021123378 0.12819993 0.00804945 0.04469976
0000f0 29 2c e7 3d 86 ca 31 bd 3a 62 32 bd 8a 61 3d 3c
       0.1128772 -0.043406032 -0.043550707 0.0115589

backbone.3.weight f4 [64, 64]
000000 90 46 02 be 29 43 d7 3d 5c f5 bd 3d 26 dc c4 bc
       -0.1272223 0.10510857 0.09275314 -0.024030756
000010 c7 48 d2 bc 8c 68 c8 ba a0 b9 be bc ba 73 9f 3d
       -0.025669469 -0.0015289946 -0.023281872 0.07785745
000020 b9 5f b7 bd fa 83 05 3c 14 45 93 3c 06 79 19 bd
       -0.089538045 0.008149141 0.017977275 -0.037468933
000030 db 95 07 3d e5 62 cf 3d 60 61 50 be 37 f6 06 3e
       0.033101898 0.101262845 -0.20349646 0.13179861
000040 48 e5 5d 3d c3 54 f0 3b 78 bd fb 3d 3b 79 a1 3d
       0.054173738 0.007334323 0.12291998 0.07884451
000050 9c 63 9b 3d b7 50 2c bd 63 c7 1d bc 49 26 4d 3e
       0.07587358 -0.042069163 -0.009630057 0.20034136
000060 7c b1 12 3d 10 b8 82 3d 6c 43 cd bd b0 d5 4c be
       0.035813794 0.063827634 -0.10022625 -0.2000339
000070 85 2a 10 bd ad 5f ae 3b fa 7e df 3d a2 67 ab 3b
       -0.0351968 0.005321464 0.10912891 0.00523086
000080 82 9a ed 3d 50 55 9e bc b6 4b 3e be ae 8f 00 3a
       0.11601736 -0.01932779 -0.18583569 0.00049042224
000090 df 4e 37 bd 44 dc 48 3d ba 3d cb bc cd dd 60 bd
       -0.04475295 0.049038187 -0.024809707 -0.054899026
0000a0 a6 3f 5d bd 02 1d c4 3d b8 51 55 3c 1d 13 9c 3d
       -0.054015778 0.09575845 0.013019972 0.07620833
0000b0 a0 de ca bd 1f 43 e0 3c 03 f1 d2 3c 75 ed 13 3d
       -0.099057436 0.027375756 0.025749689 0.03611513
0000c0 c3 be bc bc 1d 0a 14 3b 74 29 b6 ba d3 ab f2 3d
       -0.023040181 0.0022589036 -0.0013897852 0.11849179
0000d0 bc 4d 8b 3d 8e e4 1a 3e 0f 3d 20 bd dc 31 52 bb
       0.06801936 0.15126249 -0.03912073 -0.0032073176
0000e0 3f 8a 35 3d ee 57 f9 bb 20 da d7 bc ac db a6 3d
       0.044321295 -0.007609359 -0.026349127 0.08147368
0000f0 1b 1e d5 3d f1 6d 9f 3c 77 9e 37 3d 7b f2 11 3c
       0.10406133 0.019461604 0.04482886 0.0089079095
000100 bd f5 66 3d 0c 42 e5 3c ae f5 3c 3d 3e ae 2c be
       0.056386698 0.027985595 0.046132736 -0.16863343
000110 ce bc f5 3d 37 63 2d 3e 2e c7 60 bd 25 a5 d8 3d
       0.11998902 0.16932379 -0.054877453 0.10578374
000120 35 b0 cc bd 53 a2 d9 bd 64 12 e6 3d 30 ab 63 bc
       -0.09994546 -0.10626664 0.112339765 -0.013895795
000130 a1 fa 90 3d 7e 20 93 bd 08 42 ba bd 4f 86 03 3b
       0.07079054 -0.07183932 -0.09094626 0.0020069068
000140 47 5f 45 bc eb 74 b2 bd 02 24 db bd 3d c9 4c 3d
       -0.012046642 -0.087137066 -0.10700227 0.049996603
000150 2e e7 93 3c 70 70 e4 3c 69 32 90 3d b7 4c 43 bd
       0.018054571 0.027885646 0.07040865 -0.047680583
000160 74 55 35 3d 5f bb b4 bb 39 66 b1 3d 26 c3 59 be
       0.044270948 -0.0055155004 0.086620755 -0.2126585
000170 76 38 02 be 60 97 5a 3d 70 cc 49 bd 91 48 45 3c
       -0.1271685 0.05336702 -0.049267232 0.012041227
000180 ac 61 f8 3b a4 d9 51 bd ed 38 ca 39 b8 69 2b bd
       0.007580003 -0.05123295 0.00038570855 -0.041848868
000190 19 f6 5e bd ce 04 b7 3c 2a 14 8e bc d3 49 9a 3b
       -0.054433916 0.022341158 -0.0173436 0.0047085076
0001a0 d2 e2 82 3c 98 43 2d bd a5 fa 06 be d6 84 55 bd
       0.015977297 -0.04230079 -0.13181551 -0.052128635
0001b0 7b dd 9d bd 95 c2 c2 bc 2a 3c cf 3d 74 99 b3 bb
       -0.0770826 -0.023774425 0.10118897 -0.0054809395
0001c0 fc 93 fc 3c f6 09 5a bd 6b da 16 be 13 71 02 be
       0.030832283 -0.053232156 -0.14731757 -0.12738447
0001d0 de 82 45 3d ca 68 cf 3d c6 f5 1b bd 6c 8c f4 bc
       0.048220508 0.10127409 -0.038076185 -0.029852115
0001e0 2e 32 c7 bd f9 83 b1 3d c8 f3 f1 bb 2c 22 b3 3d
       -0.09726368 0.0866775 -0.0073837973 0.08746752
0001f0 08 ca b6 bd 6a f6 c1 bc f2 a6 21 be 8b 1d 95 3c
       -0.08925253 -0.02367707 -0.15786341 0.018202564
000200 87 9f 6a 3d 98 f0 ab 3d 56 b8 dd 3c ed 25 dc ba
       0.057281043 0.08395499 0.027065437 -0.0016795971
000210 9c d6 86 bd a2 4f 99 bd 95 cc 01 3d b3 ad 86 3d
       -0.06583902 -0.07485892 0.031689245 0.06576099
000220 16 b6 81 bd 36 c9 4a be 6c cf 97 3c 81 11 c4 bd
       -0.06333558 -0.19803318 0.018531524 -0.09573651
000230 97 1f 84 3c 72 95 de bc d4 04 04 be 65 31 52 3d
       0.016128344 -0.02717087 -0.12892467 0.051316638
000240 40 8b 21 3d f7 61 5a bd 96 57 3e bd 6b 4c 0b 3e
       0.03943944 -0.053316083 -0.046470247 0.1360337
000250 79 c1 c6 bb 07 60 d4 3c a4 13 48 3b 26 c9 0f 3e
       -0.006065544 0.025924696 0.0030529285 0.14041576
000260 92 ae c8 3d 02 1d 6b 3d 2e ab d9 3d 03 01 30 be
       0.09798922 0.05740071 0.10628353 -0.17187886
000270 f5 a0 ef 3d 08 89 3a ba 49 81 8e 3c 05 fa c8 3d
       0.11700622 -0.0007115756 0.017395632 0.098133124
000280 ab 3c ca 3d 72 f7 ad 3c 34 ba e3 bd bc 59 51 bd
       0.09874853 0.021236155 -0.111195 -0.051110968
000290 7b 5a 54 3c f5 5d 12 3d c4 a4 81 bd 5d f8 15 be
       0.012961025 0.035734136 -0.06330255 -0.14645524
0002a0 d4 b8 69 3d 6d fc ee bc e1 03 bb bc a1 71 8a 3d
       0.05706103 -0.0291731 -0.022828998 0.06759954
0002b0 f4 3c 60 bd 73 9b a7 3c 73 63 0b 3e a5 a9 5b bd
       -0.05474563 0.020459866 0.13612156 -0.053628583
0002c0 89 3c 90 3c 08 49 46 3d 1b 53 9e 3c df 43 b3 bc
       0.01760699 0.04840949 0.019326737 -0.02188295
0002d0 02 c1 47 3d f5 eb 87 3d ba be c3 bd cd c0 38 3d
       0.04876805 0.06636802 -0.095578626 0.045105744
0002e0 c1 a0 12 bd ce 81 88 3d 99 f4 b8 bd 96 43 49 3d
       -0.035797838 0.06665383 -0.09031028 0.04913672
0002f0 3e 70 2f 3d c5 0e e8 bc 51 74 9b 3d 3f bd 8d bd
       0.042831652 -0.028327355 0.07590545 -0.069208615
000300 c7 60 c5 3d 9b 24 2a be 74 57 eb bd b7 4d 0a be
       0.096375994 -0.16615526 -0.1149129 -0.13506208
000310 cf 4b 8f bd 4e 02 8b bc 2e 60 ff 3c bc 93 d5 3d
       -0.06996881 -0.016968872 0.031173792 0.10428569
000320 ee 72 5d bc 6c ea b0 bd 15 2b 78 3c 3e c5 cb bd
       -0.013516171 -0.086384624 0.01514699 -0.0994973
000330 1d 61 e8 bd 6d e7 9e bd 66 fc 28 bd f0 5c db bd
       -0.11346648 -0.07758985 -0.04125633 -0.10711086
000340 8f 3b 77 3d 28 3a 6d bc 2c c5 c7 3d 98 3a f2 bc
       0.060359534 -0.014479198 0.097544044 -0.029568955
000350 6f 70 54 3d 87 dc d1 bd 67 87 04 be 39 60 33 bd
       0.051865038 -0.102471404 -0.12942277 -0.043792937
000360 0c 8f a7 bd ea 26 f9 bc 7a f5 da bc 08 43 0f be
       -0.08181581 -0.030414063 -0.02672838 -0.13990414
000370 2e a8 c5 bd fd f8 4a 3d 94 84 8f 3d af cf b5 3d
       -0.09651218 0.04955386 0.07007709 0.08877503
000380 84 08 af bd 2d 2c 1b be a0 ac 23 bd 28 a2 09 3c
       -0.08546546 -0.1515357 -0.03995955 0.0084004775
000390 cd ad f7 bc 25 b9 4e bd 17 ef 2e 3c 5c 6e 08 be
       -0.030234242 -0.050469536 0.010677121 -0.13323349
0003a0 19 58 ca 3d e0 80 a1 bd b0 3e e2 bd d9 d3 29 3c
       0.098800845 -0.07885909 -0.11047113 0.01036545
0003b0 d4 09 14 bb f3 1e 07 bd f6 40 b5 3d 0d 4a 3a bd
       -0.0022588866 -0.0329885 0.08850281 -0.045480777
0003c0 13 f2 fe 3d 81 cf c2 3c 33 5b 29 bd 92 4a 05 3e
       0.12448516 0.023780586 -0.04134674 0.13016728
0003d0 f6 29 90 3d 6a dd af 3d bd 02 9c bc ec c6 17 3d
       0.070392534 0.08587153 -0.019044274 0.03705494
0003e0 b8 b8 70 bb c6 31 d0 bd 7e 7a f3 bd 83 73 84 bc
       -0.0036731195 -0.101657435 -0.11888598 -0.016168362
0003f0 54 ab f6 bd e0 65 6f bd 13 77 2c bd cf 70 b9 3c
       -0.12044397 -0.058446765 -0.042105746 0.0226368

backbone.3.bias f4 [64]
000000 a7 6e 7a bc 79 12 12 3e 5f 0f 53 bd ca 94 b4 bd
       -0.015285171 0.1426486 -0.05152833 -0.08817442
000010 40 c9 27 3e b4 de c2 3d 4c d4 6c 3d 92 50 c5 3c
       0.16385365 0.095151335 0.05781965 0.02408627
000020 23 a5 95 bd 6f d4 f7 3d 5c 5f be bb ac 86 64 3d
       -0.07306888 0.12101065 -0.0058097076 0.055792496
000030 0b 1a 66 bc b8 c4 2f 3d 71 ef e2 3c 48 c4 01 3e
       -0.014044295 0.042912215 0.027702065 0.12672532
000040 28 b2 b6 3d 2e 20 03 3d d7 e7 7b 3d b6 2f eb 3d
       0.08920699 0.03201311 0.061500397 0.114837095
000050 11 09 a6 bb 0e 6b 98 3c 1e 18 3e 3e 1e 02 7b 3c
       -0.005066999 0.018605735 0.18563887 0.015320329
000060 fb 1f 99 3d 1a 64 1c 3e 54 f9 8d bd 92 e3 61 3d
       0.07476803 0.1527256 -0.06932321 0.05514867
000070 54 f1 19 3d 1d e0 85 bd 31 8f 0a be 91 64 7c bd
       0.037583664 -0.06536887 -0.13531186 -0.061619345
000080 27 c5 df 3b 5c dd 35 bd cc d7 d2 bd 9b f1 3b 3d
       0.0068289223 -0.044400558 -0.10295066 0.04588471
000090 90 62 29 3e a4 06 4b 3e aa 81 74 3d 0a 5d b7 3d
       0.16541505 0.19826752 0.05969397 0.08953293
0000a0 31 ad 81 bc f6 2c 1c be 8a 0a be 3a 26 58 bf 3d
       -0.015829654 -0.15251526 0.001449899 0.09342985
0000b0 2e aa bf bc 13 9f 16 3e 35 9c 36 3e ba 41 b8 bd
       -0.023396578 0.1470912 0.17833026 -0.08996911
0000c0 f4 95 f3 3c 1b c8 54 3e af a1 c0 3d 79 b5 1e bc
       0.02973459 0.20779459 0.09405839 -0.009686821
0000d0 6c a2 cb 3d ef 16 b8 bd e0 1f 18 be 22 1f 4c 3e
       0.09943089 -0.08988749 -0.1485591 0.19933751
0000e0 2a aa e4 3d 32 f8 d7 3c 47 fd 71 3c 59 81 5e bb
       0.11165269 0.026363466 0.014769859 -0.003395161
0000f0 8f 74 b8 3d 5a 19 8c bd 4a e1 0d bd b2 10 02 bd
       0.09006607 -0.06840773 -0.03463868 -0.031754203

backbone.6.weight f4 [64, 64]
000000 1d bb 47 bd 67 4f 21 3d 14 fb b8 3d ba b0 8a 3d
       -0.04876243 0.039382365 0.09032264 0.06771989
000010 65 3a f2 3d f9 55 8f 3d 45 5d 29 bd 15 2e bf 3d
       0.11827544 0.0699882 -0.041348714 0.09334961
000020 c1 60 31 3e 77 2a b6 bd 04 94 0c be e8 68 05 be
       0.17322065 -0.08894818 -0.13728338 -0.130283
000030 c5 50 88 3d 35 37 52 3d c3 10 a5 bc 28 c0 22 3d
       0.066560306 0.05132218 -0.020149594 0.039734036
000040 c9 ce 79 bb f7 c9 81 3d ec b5 d8 bd 8c 51 ca 3d
       -0.0038117638 0.0633735 -0.10581574 0.09878835
000050 a4 a9 f2 3d 7f 8c 5d bd 8a dc e8 3d 6d f1 08 bc
       0.11848763 -0.054089066 0.113701895 -0.008358342
000060 3d fa 89 bd 12 56 e5 3d dd e6 2b bd 68 b2 0f 3e
       -0.06737182 0.11198057 -0.041968215 0.140329
000070 6f 85 59 3d 6c de 92 bd 0b ee 3c 3d 58 6b 5b 3b
       0.053105768 -0.0717133 0.046125453 0.003348073
000080 f3 c7 de bc 74 9f eb 3d 14 5b 57 3d 32 a1 71 3d
       -0.027194953 0.11505023 0.052577093 0.05899162
000090 3b bf 89 bd 15 a0 36 3c 7b 5d da 3c 53 a2 ab bd
       -0.067259274 0.011146565 0.026655903 -0.0838057
0000a0 c1 10 66 b9 75 f7 8b 3d d5 c6 c6 bd 5a f1 0b 3d
       -0.0002194075 0.06834308 -0.09705893 0.034165718
0000b0 eb 07 b4 3d a3 f0 1d bd d5 9a ef bd 77 7a 74 3d
       0.08790573 -0.038559567 -0.11699454 0.059687104
0000c0 53 f7 c3 bd 19 56 12 3e bd e2 29 bd b7 61 44 3d
       -0.09568658 0.14290656 -0.041476 0.04794475
0000d0 79 15 3a bd b9 4e 9e bb c5 eb ec 3d 11 72 0c bd
       -0.045430634 -0.004831162 0.11568407 -0.03428847
0000e0 68 67 f1 3d 57 d7 64 bd f4 8c 4b bd b9 b6 9a 3d
       0.11787301 -0.055869427 -0.04969497 0.07554383
0000f0 d5 3e a8 bc c8 83 64 bd d9 ec a1 bd 9c f6 e7 bb
       -0.020537773 -0.05578974 -0.07906503 -0.0070789587
000100 95 09 fa 3c ea 9a 95 bd 3b 97 83 bd 6f a2 11 3e
       0.030522147 -0.07304938 -0.06425329 0.1422212
000110 70 e4 64 bd 77 c4 9e bc 0a 04 84 3c 55 e3 f6 3d
       -0.055881917 -0.019380791 0.016115207 0.12055079
000120 73 8e 9d bd 42 ce a4 3c ce 50 03 3d 06 16 47 bd
       -0.07693186 0.020117883 0.032059483 -0.048604988
000130 2b f5 27 bd a0 d2 65 bd 4e db 8b 3d a1 24 15 bd
       -0.041005295 -0.05610907 0.068289384 -0.036411885
000140 52 ba 2d 3d be 57 b6 3d 25 72 b0 3d 70 8c c7 3d
       0.042414017 0.08903454 0.08615521 0.09743583
000150 25 31 93 bd a3 0b 8b 3d 9b da 6d 3d 97 19 d3 3b
       -0.07187108 0.06789329 0.058069807 0.0064422595
000160 d2 ed 6d bb 40 c5 5e 3d 42 f2 f1 bc ac 4e 15 bd
       -0.0036305082 0.05438733 -0.029534463 -0.03645198
000170 04 bc 1f bd fd 04 f9 bb c3 d3 fb 3d 5a 48 8a 3d
       -0.038997665 -0.0075994716 0.1229625 0.06752081
000180 eb bb dd 3d aa 90 2d 3d 72 88 62 3d bf fa 1b bd
       0.10826858 0.04237429 0.055305906 -0.038080927
000190 5d 23 87 bb 38 50 c1 3d 2b 64 92 bc 2e d0 05 3d
       -0.0041240887 0.09439129 -0.01787003 0.03266924
0001a0 08 9f ef 3d 7e 55 bb bc 14 a8 7e 3c 3d c8 f7 3d
       0.11700255 -0.022867914 0.015543003 0.12098739
0001b0 c0 cd ca 3d 26 f4 48 3d cf d5 c1 bc 5f ea 24 bd
       0.09902525 0.049060963 -0.023661522 -0.040262576
0001c0 b1 30 ab bd 44 c6 3b bd 89 e6 89 3d 07 50 c0 bb
       -0.083588965 -0.045843378 0.06733424 -0.005868915
0001d0 03 bb a2 bd fc 57 2d 3e f8 42 bf 3d 19 27 59 3d
       -0.07945826 0.16928095 0.09338945 0.053015802
0001e0 aa fd 18 3e 86 ec a3 3d 2b 31 ae 3c 64 13 a5 3d
       0.14940515 0.08004098 0.02126368 0.08060339
0001f0 6d c0 15 3e cf 53 cf 3d 63 8f 55 ba d6 97 66 3c
       0.14624186 0.10123407 -0.00081466715 0.014074286
000200 64 cb 6b b7 1e 90 e9 3d bf 98 b4 3d 70 89 d1 3d
       -1.4054447e-05 0.11404441 0.088181965 0.10231292
000210 b3 f1 80 bd 35 8e 97 3d ab ea 02 3e ad ce 3d 3d
       -0.062961005 0.07400171 0.12784831 0.04633968
000220 3d ae c3 bd d6 c8 36 bd 6d dd 8c 3d 00 6e 87 3d
       -0.09554718 -0.044625126 0.06878171 0.06612778
000230 b7 45 5a bd 7c 2c 49 3c ef 4f 86 3d e2 83 95 3c
       -0.05328914 0.012278672 0.06558215 0.018251363
000240 cb 9d a3 bd 27 e1 a9 3d f0 0a b3 3d 67 88 01 3e
       -0.07989081 0.082948975 0.087423205 0.1264969
000250 9c 5f fd 3d c2 a7 a3 3d 16 2c d0 bd fa c7 aa 3d
       0.12371752 0.07990982 -0.10164659 0.08338924
000260 11 10 22 bd 52 8b e5 3d 5c 3e 5f bd 77 22 29 bc
       -0.039566103 0.11208214 -0.05450283 -0.010323158
000270 fd ab 5f bc 03 66 e5 3d b2 11 62 3d 8b 59 fd bb
       -0.013651845 0.11201098 0.055192657 -0.0077316216
000280 fd af b0 3d 22 d6 f5 3d 00 39 18 3e 2f 6d b8 3d
       0.08627317 0.12003733 0.14865494 0.090052
000290 5f e6 a6 bd d8 29 ab bd c2 57 5b bd 6b b4 8f bd
       -0.081494085 -0.083575904 -0.05355049 -0.07016834
0002a0 c9 e8 17 3e 8d 32 a8 3d 02 f4 46 3c 88 d4 fb 3d
       0.14834894 0.08212767 0.012143137 0.122963965
0002b0 df 8a d0 bc 90 5f cb 3d cd 02 63 bd 8c dc a2 bc
       -0.025456844 0.099303365 -0.055422593 -0.019880556
0002c0 1b bb 2b bd bd a8 b1 3d 09 f3 cb bd f7 5c 15 bd
       -0.041926485 0.086747624 -0.09958465 -0.03646561
0002d0 e6 e5 37 3d e2 94 e5 3c d3 5b 5a bd e1 39 74 bd
       0.044896983 0.028025094 -0.053310227 -0.05962551
0002e0 11 29 e2 bb 4b c4 8c 3d 0e 40 52 3d 7b 59 5a 3d
       -0.006901868 0.068733774 0.05133062 0.05330799
0002f0 35 a5 23 3b b5 7d 3f 3c 11 19 85 3d 95 19 dc 3d
       0.0024970297 0.011687686 0.06498922 0.10747067
000300 84 0d fb bd c4 14 75 3d 75 e3 48 bd d0 bb 88 3d
       -0.12258437 0.059834257 -0.049045045 0.066764474
000310 b3 9b 33 bd 4b a4 a3 bd 47 55 9a bd 38 93 04 be
       -0.04384966 -0.07990321 -0.075357966 -0.12946784
000320 e3 85 23 bc 43 92 00 be 32 6f 11 bb ea 99 fd bd
       -0.009980652 -0.12555794 -0.0022191522 -0.123828724
000330 e5 e9 0b be 10 22 56 3d a3 35 f5 bd f6 92 d7 bd
       -0.13663442 0.05227858 -0.11973121 -0.105260774
000340 a8 54 8d 3b 2d f3 7d bd cc 7a 3c bd fc 21 2e 3c
       0.0043130703 -0.06199949 -0.046015546 0.01062822
000350 30 f9 11 be df 5a 81 bc 70 15 1e 3b 79 0e e2 bd
       -0.14255214 -0.015790401 0.0024121664 -0.11037917
000360 29 49 95 3d 29 70 19 be 14 e9 91 bd 5c b0 3a bd
       0.07289345 -0.14984192 -0.07124534 -0.045578346
000370 7d 42 0d be d5 09 af bd 83 00 ef bc f6 69 b1 3d
       -0.13794895 -0.08546797 -0.029175049 0.086627886
000380 57 ee 46 bd c0 9a 12 3d d3 56 dc 3d 39 13 d5 3d
       -0.048567142 0.035792112 0.10758748 0.10404057
000390 37 8a 89 bd 16 4d ec bd b4 e8 8e 3d c3 ab d1 bd
       -0.067158155 -0.115381405 0.06977978 -0.10237839
0003a0 0f 9a e5 3d 1f 91 c2 3d b0 72 eb bc 8c d7 a5 3d
       0.11211025 0.09500336 -0.02874121 0.08097753
0003b0 14 83 79 3d 68 75 a2 3d 65 d5 6d 3c 3b 7b cc bc
       0.06091602 0.0793255 0.014516209 -0.024961105
0003c0 9d d4 2c 3d 4c ef e5 bd 01 79 2a bd 19 6c d0 bd
       0.04219495 -0.11227283 -0.041619305 -0.10176868
0003d0 e3 85 71 3d 81 fe 90 bd e8 3a b4 3d 54 6f 8c 3c
       0.058965575 -0.07079793 0.08800298 0.01714293
0003e0 93 0d 9c bd ec 70 91 bd ad ea bd 3c 8d 84 9c bd
       -0.076197766 -0.07101616 0.023183191 -0.076424696
0003f0 83 80 40 3d c1 fa e8 bd a2 f4 2c 3d f4 bf 0b 3d
       0.04699756 -0.113759525 0.042225488 0.034118608

backbone.6.bias f4 [64]
000000 cc c3 67 3d 22 ed 47 3e b0 3f 31 3e 75 24 84 3c
       0.05658321 0.19524053 0.17309451 0.016130665
000010 5f 4c a1 3d 03 dc 9b 3e 8a 88 33 be d9 52 0f 3e
       0.07875895 0.30441293 -0.17532554 0.13996448
000020 a2 7b 40 3d 2d 13 85 3e a3 89 5c bd f6 09 41 3e
       0.046992905 0.25991192 -0.053842198 0.18851456
000030 7b 36 23 be 5f da 34 3e 44 3f 8a bd ac fb d0 3d
       -0.15938751 0.17661427 -0.06750348 0.102042526
000040 7a 07 2f 3e a2 b7 e3 bc b8 d7 41 3e cc 45 5c 3e
       0.17092696 -0.027797524 0.18929946 0.21511
000050 98 49 31 bd e2 70 06 bd 93 f5 3d 3e f2 56 93 bc
       -0.043283075 -0.032822497 0.1855071 -0.017985795
000060 2b 9f 37 3e 91 ea 5a 3e 2c 1a 29 3e 83 dc 61 bb
       0.17931812 0.21378542 0.1651389 -0.003446371
000070 b2 10 50 3e 12 81 8a 3e df 54 05 3e 62 8a de 3d
       0.20318869 0.27051598 0.13020657 0.10866238
000080 43 6c 49 3e 77 05 30 3d 60 9b 03 bd 4b 4b 37 3e
       0.19670205 0.04297396 -0.0321306 0.17899816
000090 37 1e 14 3e c5 cc 38 3b 95 a3 3b 3e 7e e2 74 3e
       0.14464651 0.0028198224 0.1832412 0.23914525
0000a0 ed a8 60 3e 0e f9 a9 3d 9a aa 5c 3e 73 5e 11 3e
       0.2193944 0.082994565 0.21549454 0.14196186
0000b0 cf 32 a3 bb eb 10 83 3c 64 52 0f 3d dd ae 90 bd
       -0.004980422 0.015999278 0.034990683 -0.070646025
0000c0 cd 54 31 3e 9a 14 f9 bd 0c a3 90 bc 7d 4b 9d 3d
       0.17317505 -0.121621326 -0.017655872 0.07680414
0000d0 1e 0f 1c 3d c4 f2 8e 3e 60 f3 49 3d 0b d9 26 3e
       0.038100354 0.2791959 0.049304366 0.16293733
0000e0 00 13 39 3e fb 74 85 bc 06 d5 5d bd 48 a3 bb 3d
       0.18073654 -0.016291132 -0.054158233 0.09162003
0000f0 56 26 14 3e 55 1a e2 3d 6a f9 30 3e c9 2d 65 3e
       0.14467749 0.11040179 0.17282644 0.22380747

value_head.weight f4 [1, 64]
000000 1c 57 9b 3c 5d 78 b3 3d 4f e4 d7 3d 01 4a b3 bd
       0.018962435 0.08763192 0.10541593 -0.087543495
000010 eb 2d c1 3d 36 50 01 3e 0f 40 ad bd f1 5e 68 bc
       0.09432586 0.12628254 -0.08459484 -0.014182792
000020 31 4d a2 3d 1c b0 3b 3d 42 48 ca bd 68 f5 88 3d
       0.07924879 0.045822248 -0.09877063 0.066874325
000030 1e 81 4c bd 2d a3 c7 3d 5f c2 e1 bd 47 64 d8 3c
       -0.049927823 0.0974792 -0.110234015 0.026415003
000040 82 90 ee 3d d5 62 ad bd 00 96 ac 3c 6c 01 b4 3d
       0.116486564 -0.08466116 0.02106762 0.08789334
000050 6b 3d c2 bd 1a cd e0 bc 1d 31 8f 3d 11 71 ce 3d
       -0.09484371 -0.02744155 0.069917895 0.100801595
000060 d6 5f 8d 3d e7 20 c2 3c 10 79 c2 3d 08 ad 02 3e
       0.06903045 0.02369733 0.09495747 0.12761319
000070 43 5a ff 3d 3f 87 14 3e bc 95 c6 3d b1 80 d8 3c
       0.12468388 0.14504717 0.09696528 0.026428552
000080 0c 94 74 3d ff cc c1 bd fe c2 ce bd 8f 61 81 3d
       0.0597115 -0.09462928 -0.100957856 0.06317436
000090 c7 bf 7d 3d f5 3c aa bd 6a 28 db 3d 71 8c ac 3d
       0.06195047 -0.08312408 0.10701068 0.084252246
0000a0 38 5d a2 3d 27 ae 48 bd 79 39 87 3d a1 d9 a6 3d
       0.07927936 -0.04899421 0.06602759 0.08146978
0000b0 1b 4b 1b 3d 7f 53 b0 bd 13 05 c8 bd c7 d8 59 3d
       0.037913423 -0.086096756 -0.09766593 0.05318525
0000c0 8e a0 8f 3c 24 1e c7 bd fe 89 a0 3c 6a 5e c8 3d
       0.017532613 -0.09722546 0.01959705 0.09783633
0000d0 d7 1e 1b 3d 2f 5e a3 3d a2 fa 06 bd 3a 4e a3 3c
       0.037871208 0.079769485 -0.032953866 0.019934762
0000e0 ca dc f0 3d a3 b7 30 3d fd fe 27 bd 6c 59 a1 bd
       0.11760862 0.04314388 -0.04101466 -0.07878384
0000f0 3f 21 5d 3d 3a 61 67 3c 9c c4 72 3d 95 e4 a6 3d
       0.053986784 0.014122302 0.059269533 0.08149067

adv_head.weight f4 [11, 64]
000000 79 58 0d 3d 53 32 8d bd 89 21 89 bd 93 34 39 bd
       0.034508202 -0.06894364 -0.066958494 -0.045216154
000010 1a 5d 3e 3d 47 30 c4 bd 98 94 06 3d 9b 0f da 3d
       0.046475507 -0.09579521 0.032856554 0.10647508
000020 f1 4d 9d 3c 82 60 22 3d 2f 6a 6e bd d3 2a ac 3d
       0.019202204 0.03964282 -0.058206733 0.084066056
000030 cb b7 67 bd f7 c7 15 3d f6 11 36 3c 58 36 83 3d
       -0.056571763 0.036567654 0.011112681 0.064068496
000040 e7 f5 b2 bd 64 b1 9f 3b c1 36 2f 3d 60 d3 eb ba
       -0.087383084 0.0048734415 0.042776827 -0.0017992072
000050 19 61 c6 bd 1e ea f1 bc 32 0b 97 3b cd ba 75 bd
       -0.09686489 -0.029530581 0.004609489 -0.0599926
000060 0b 81 44 bc 16 a3 02 3d 6c f7 24 bd cd 3f 9e 3d
       -0.011993657 0.031893812 -0.040275022 0.07727013
000070 93 a9 a0 3c 49 9d 6e bd 95 b3 42 bd 38 74 0b 3d
       0.01961211 -0.058255468 -0.047534544 0.03404638
000080 9b 5c 69 bd 50 2d c8 bd 41 99 81 3d 95 d4 cf 3c
       -0.05697308 -0.09774268 0.06328059 0.025369922
000090 90 43 80 bc 86 8b 9b 3d ed da b3 3c 13 b5 b2 3d
       -0.015657216 0.07594971 0.021954978 0.087259434
0000a0 53 0b 6f bd 5a e2 a3 bd 8b f1 82 3d d7 9d 0c bd
       -0.05836041 -0.080021575 0.06393727 -0.034330215
0000b0 82 bd a7 3d 05 56 40 bd 66 f5 f2 3c ad a6 ea 3b
       0.081904426 -0.046957035 0.02965803 0.0071609826
0000c0 85 fe a4 3d 19 e6 9e bd 3a d5 b2 3d 98 da b7 bd
       0.08056358 -0.077587314 0.08732076 -0.0897724
0000d0 4e 13 85 3d 27 d4 64 39 d6 65 a5 bd cb 3e f4 3d
       0.06497823 0.00021822807 -0.08076064 0.11926039
0000e0 18 3d 84 bd ba 1a ea 3d 13 45 4b bd 91 6c d7 bc
       -0.06456965 0.11430879 -0.04962642 -0.026296886
0000f0 d2 45 d4 bc 24 73 70 3d 43 af 8b 3d 21 26 9c bd
       -0.0259122 0.058703557 0.06820538 -0.0762446
000100 d9 b7 56 bd 14 b5 9b bd fd e5 43 3c 99 0d 62 bc
       -0.052421425 -0.07602897 0.011956689 -0.013797187
000110 fa 13 0a 3c d7 63 20 bd db b8 c1 3d 02 c3 91 3d
       0.008427614 -0.039157715 0.094590865 0.07117273
000120 4f 05 b9 bd e6 f6 d3 3c e5 c5 93 bd f8 1c 3f 3d
       -0.09034216 0.025874566 -0.0721548 0.046658486
000130 7c c1 c6 bd 29 03 76 3d da 70 e2 3c 99 88 d4 3c
       -0.09704873 0.060061608 0.027641702 0.025944041
000140 e9 21 89 bd 5c 53 b1 3d 57 b9 09 3d 4c 8d 27 3d
       -0.06695921 0.08658478 0.03362402 0.040906236
000150 6a e4 b3 bd f2 01 18 3d 10 8f bb 3b 9e df 9d bc
       -0.08783801 0.03711123 0.0057238415 -0.019271668
000160 bd 86 e1 bc 84 92 ee 3c eb b5 97 bd 26 0c 6a 3c
       -0.027530069 0.029122598 -0.07407745 0.014285123
000170 40 6c 87 bc 92 56 64 bc ba d1 26 bd 36 cf 2d 3d
       -0.01653111 -0.013936656 -0.040727355 0.04243394
000180 19 d0 9a bd 80 4b 86 3d 18 10 be 3d 5f 22 48 bd
       -0.07559223 0.06557369 0.092804134 -0.048860904
000190 99 07 eb 3c 78 a0 21 3d c3 4e 47 3d d7 6e 55 bb
       0.028690146 0.039459676 0.048659097 -0.0032567286
0001a0 1f 15 56 bd 86 50 1d 3d 5d 78 cb 3c 4a 91 c9 bc
       -0.052266236 0.03840687 0.024837667 -0.024605412
0001b0 b8 34 41 bb 4c cb 21 bd 5a 1f 77 3d 90 72 25 3c
       -0.0029480886 -0.03950052 0.060332634 0.010098115
0001c0 b2 f4 47 bc f6 18 a3 3d 31 f6 8a 3d aa 4c 07 3d
       -0.012204336 0.07963745 0.067852385 0.033032097
0001d0 38 fc e3 bc f9 2b 52 bb 89 18 ad 3d c7 9a 78 3d
       -0.027830228 -0.0032069667 0.08451945 0.060694482
0001e0 06 43 17 3d 9d be df bc a9 c0 ac 3d 1f ad f9 3d
       0.036929153 -0.027312571 0.084351845 0.12191223
0001f0 3a ee 8b bd c1 ec 97 3d 3b 88 74 3d 18 61 25 bc
       -0.068325475 0.07418204 0.059700232 -0.01009395
000200 54 f5 b0 3c a5 5f ac bd 48 37 95 bd 86 2f e4 3d
       0.021601357 -0.0841668 -0.07285935 0.11141877
000210 15 62 b7 bd 6b 76 30 3d d5 c6 19 be e2 6c ce bd
       -0.089542545 0.043081682 -0.15017255 -0.100793615
000220 5c fe e9 3c 59 18 7a 3c 18 02 95 3d dc d0 fb bb
       0.02856367 0.015264594 0.0727579 -0.00768481
000230 34 63 7a 3d 39 3a 2f 3c 0f f8 dc bc e2 4c dc 3c
       0.061129764 0.010695034 -0.026973752 0.02689213
000240 df 2b a1 3c 49 ab 53 3c 73 af 46 3d 23 04 b0 bd
       0.01967424 0.0129192555 0.048507165 -0.08594539
000250 4d 2f c4 bd b3 6d b0 3b 37 2b 00 bd 6c 62 76 3b
       -0.095793344 0.005384171 -0.031291213 0.0037595285
000260 d0 e2 28 bd f0 79 82 bd 06 ea 90 3d 91 7c 03 bd
       -0.04123193 -0.06370914 0.070758864 -0.032101218
000270 16 fa 1c 3d c5 c5 5b bd 0f 2c 32 3d 0c d1 de bd
       0.038324438 -0.053655405 0.04349905 -0.10879716
000280 ba b3 21 bd 4f 4d 0a 3e 12 aa 4d bd 74 c8 84 3d
       -0.03947804 0.13506053 -0.05021102 0.06483546
000290 4d d2 b3 bd 54 6d 03 bd ad 48 ca bc 36 35 af 3d
       -0.08780346 -0.032086685 -0.024692858 0.08555071
0002a0 97 19 46 bb 01 2f e1 3d 80 0e de 3d 5a 0d 79 3d
       -0.0030227655 0.109952934 0.108426094 0.06080375
0002b0 3d 26 d2 3c 35 ad 6e bc 2b da dc 3c 58 22 3d 3d
       0.025652999 -0.014567663 0.0269595 0.04617533
0002c0 0a a1 41 bd ee 6b c6 bc b1 f1 d7 3c 18 09 ab bd
       -0.04727272 -0.024221387 0.026360365 -0.08351344
0002d0 c6 11 9f 3d c1 1c 6b bc 6d cf ce 3d 27 64 88 bc
       0.07767062 -0.014350117 0.10098157 -0.016649319
0002e0 8d 1e ae bc b9 97 6a bc f2 a1 09 bd 7f 9f 91 3b
       -0.021254802 -0.0143184 -0.03360171 0.0044440622
0002f0 a1 0b 93 3c a2 17 1e bc b6 fb 53 3d da f4 86 bd
       0.017949881 -0.009649189 0.051753722 -0.065896705
000300 5d 62 bb 3c 64 3b 7b bd ce a1 34 3c 85 dd 96 3c
       0.022874052 -0.061335936 0.011024905 0.018416176
000310 ea 2f 97 bd ce b9 ca bc 17 78 34 bd 88 92 58 3d
       -0.07382186 -0.024746802 -0.04405984 0.052874118
000320 81 d5 26 3d 86 5d bc 3c 77 88 85 bd 86 bf a1 ba
       0.040730957 0.022993814 -0.06520169 -0.0012340404
000330 aa 14 d0 3c 0d 02 c2 3d 5a d4 dd 3d c2 10 52 bc
       0.025400478 0.094730474 0.108315185 -0.012821378
000340 38 ef 7f bd 64 70 79 bd a3 4e 9b 3d 9f 67 6b 3b
       -0.062483996 -0.0608982 0.07583358 0.0035919917
000350 b9 89 49 ba 2f 06 f3 bd af 3c 8c 3d f7 78 9a bd
       -0.0007688064 -0.11866414 0.06847512 -0.075426035
000360 c4 60 f9 3c b8 0a 19 bc 0d 31 8e bd 79 0e ae 3d
       0.03044165 -0.009340934 -0.069429494 0.08498854
000370 44 fc 52 bd be ed 5b bc 3e e9 de bb 09 02 ca bd
       -0.05151011 -0.013423381 -0.006802707 -0.098636694
000380 f6 50 98 bd 01 15 9c 3d 2a 90 b0 bd 4d e0 32 bd
       -0.07437317 0.07621194 -0.08621247 -0.04367094
000390 1b cc dc 3b 08 4d 1b be 12 c3 84 bb 93 b8 56 bd
       0.0067381985 -0.15166104 -0.0040515745 -0.052422117
0003a0 f4 60 b1 bd 81 7f bd 3d f7 98 03 3d 54 e3 52 3d
       -0.086610705 0.09252835 0.0321283 0.05148633
0003b0 f1 13 40 bd 9a c3 da bd da 86 c1 bd f6 37 d8 bb
       -0.046894018 -0.10681839 -0.09449549 -0.006598468
0003c0 ea 94 3c 3d 96 4e 0a bd ca 20 72 bb 2c 32 f8 bb
       0.046040453 -0.03376635 -0.0036945813 -0.0075743403
0003d0 8e 6a 97 3d 1d 3d 06 3d ef cd bf 3d fb 11 9a bb
       0.073933706 0.032773126 0.093654506 -0.0047018505
0003e0 8c bc 2c 3d 9a 4e 60 3d 83 78 fd bc 8b ad 11 3e
       0.042172 0.05476246 -0.030941254 0.14226358
0003f0 9d 2e 7d bd b3 60 b0 3c 49 17 68 3b cb 28 c4 bd
       -0.061812032 0.021530485 0.003541427 -0.09578093

adv_head.bias f4 [11]
000000 05 7c 91 3e 0e b8 b8 bd b8 84 86 bd 3b 27 3d be
       0.28414932 -0.09019481 -0.06568283 -0.18471996
000010 5c b4 c9 bd 24 73 6d be b5 c2 32 be b9 93 a3 be
       -0.09848854 -0.23188454 -0.17457087 -0.3194864
000020 36 16 96 be ad bf 74 be 2a f0 aa be
       -0.2931382 -0.23901244 -0.33386356
