models/cql_model_2022_2023.pth (torch, 249797 bytes, 9 tensors)

backbone.0.weight f4 [128, 208]
-0.39739597 -0.1793877 0.13342601 -0.054994714 0.0053109936 -0.09461207 -0.2558157 0.06161231
0.031215403 -0.061376207 -0.0061444715 0.07515804 0.000393392 -0.074172854 0.010251961 0.0037047789
-0.0068074376 -0.11007699 0.022876253 -0.03936608 -0.12425031 -0.06263158 -0.009069406 -0.10817479
-0.04311986 -0.10212522 -0.055069517 0.00798017 -0.09117426 0.04240688 0.026414312 -0.050860558
-0.033219125 -0.06550868 -0.045911413 -0.032087088 0.054417092 0.06493628 -0.048534866 -0.034922153
0.047680967 0.03162578 0.0118475575 0.035018317 0.009456517 -0.022964455 -0.02763962 0.092065625
0.025472082 -0.016480153 -0.030180352 -0.10206214 -0.12931016 -0.13009726 -0.042315338 -0.0138897905
-0.08834294 -0.032488085 -0.14965233 -0.028183337 -0.080490075 -0.064802036 -0.085208416 -0.07501369
-0.12276806 0.011029244 0.052493885 0.007000457 0.024798496 -0.06701447 -0.14180097 -0.027344719
-0.14330329 -0.050055776 -0.0359311 -0.08806705 -0.019269418 -0.07784828 -0.07255139 -0.02668688
-0.086032234 -0.10611717 0.13204119 -0.21108392 -0.0041381195 0.050028227 -0.019083157 -0.06054169
-0.13037106 -0.04743214 -0.09920251 -0.011679626 -0.08013464 0.000888567 -0.025832964 -0.09600805
-0.10496807 -0.07172486 -0.122984536 -0.10841188 -0.013931954 0.052174922 -0.002059482 -0.044306166
0.024949484 -0.012094289 -0.020274151 -0.0070879012 0.0610952 -0.060416434 0.04828655 -0.043517582
0.025464118 0.015164383 0.040789053 -0.072061405 0.0032734647 -0.03903071 0.027580172 -0.024474613
0.047911808 -0.08686806 -0.026016962 0.037026607 0.054785304 -0.0042681843 -0.051261943 -0.017630769
0.07215203 -0.057936996 -0.015201481 0.074658014 0.0008580952 -0.06050801 -0.008025548 -0.040025964
0.031079078 -0.028683467 0.04016088 0.20166467 0.024913047 -0.047071822 -0.0059838095 0.074645996
-0.049025156 0.07829186 0.0014382998 0.19346428 0.047341943 0.016278295 -0.04417243 0.046819087
-0.05058197 -0.0599441 0.09167831 0.11454746 -0.024416743 -0.0035126058 -0.00037928842 0.07843274
0.08352897 0.007223202 -0.0125258695 0.044373423 0.06623303 0.06647952 0.031474736 -0.12612475
-0.0645929 -0.05173813 -0.06447259 -0.15632941 0.040827245 -0.036552057 -0.017678767 0.070357226
-0.0074107507 0.004602939 0.0010921396 -0.108591355 0.016103445 0.034836795 0.044712394 -0.022261852
0.031765457 0.018473104 -0.07326127 -0.090513796 -0.03208438 -0.019943226 -0.050714433 0.08894615
0.03808664 0.035138685 0.11837023 0.04335395 -0.11372593 -0.055313166 -0.018901043 -0.019035904
0.027446358 0.041441727 0.012367194 -0.0557656 -0.012373445 0.015874842 0.08912112 0.0073045855
-1.4018183 -0.2597789 -0.43214425 -0.2777834 -0.14939892 0.09561487 -0.16276944 -0.045353457
-0.019794708 0.0871501 0.02371379 0.3545587 -0.14506406 0.017057104 -0.008675596 0.031804267
0.04795759 0.049534205 0.14966682 0.04594962 0.07486351 -0.034731552 0.06797442 -0.07099766
0.015330963 -0.020506956 -0.108292654 0.102928355 -0.08480799 0.20657058 -0.032375045 -0.037181966
-0.007843363 0.11752155 0.090223804 0.032948606 0.09738017 0.03016231 0.0237543 -0.05541925
0.04902461 -0.08312971 0.07328783 -0.0153393475 -0.061582107 0.10384842 -0.0026173627 0.13678223
00000000: 7c77 cbbe 69b1 37be d4a0 083e 2342 61bd
00000010: d807 ae3b f9c3 c1bd 47fa 82be 315d 7c3d
00000020: 72b7 ff3c 9e65 7bbd 9057 c9bb 75ec 993d
00000030: 2e40 ce39 f0e7 97bd d7f7 273c e0cb 723b
00000040: ed10 dfbb 0c70 e1bd fb66 bb3c 543e 21bd
00000050: f276 febd fc44 80bd d997 14bc bf8a ddbd
00000060: 739e 30bd 0727 d1bd 9390 61bd 42bf 023c
00000070: 92b9 babd d6b2 2d3d d462 d83c 2953 50bd
00000080: c710 08bd 6a29 86bd 9b0d 3cbd c06d 03bd
00000090: 75e4 5e3d 50fd 843d 7fcc 46bd 880a 0fbd
000000a0: 1e4d 433d 098a 013d 421c 423c 5e6f 0f3d
000000b0: 82ef 1a3c f41f bcbc 7c6c e2bc e78c bc3d
000000c0: d4aa d03c 6301 87bc c93c f7bc f505 d1bd
000000d0: e269 04be 3738 05be d952 2dbd 0192 63bc
000000e0: 25ed b4bd 3a12 05bd 763e 19be bee0 e6bc
000000f0: fbd7 a4bd eeb6 84bd c081 aebd c7a0 99bd
00000100: d26d fbbd 01b4 343c d403 573d 1764 e53b
00000110: 3726 cb3c e23e 89bd 4634 11be 0802 e0bc
00000120: 19be 12be 4907 4dbd 7d2c 13bd 7f5c b4bd
00000130: e6da 9dbc eb6e 9fbd d395 94bd 729e dabc
00000140: ab31 b0bd f553 d9bd ce35 073e 6226 58be
00000150: 1099 87bb 66ea 4c3d 4854 9cbc 90fa 77bd
00000160: fe7f 05be 3448 42bd b02a cbbd e75b 3fbc
00000170: a11d a4bd b9ee 683a a79f d3bc de9f c4bd
00000180: 80f9 d6bd 7ce4 92bd 51df fbbd 0c07 debd
00000190: da42 64bc 5fb5 553d 60f8 06bb 627a 35bd
000001a0: dc62 cc3c 2027 46bc fa15 a6bc a041 e8bb
000001b0: f63e 7a3d 3977 77bd 1ec8 453d 7e3f 32bd
000001c0: 209a d03c 0874 783c 6c12 273d ee94 93bd
000001d0: a087 563b aade 1fbd d0ef e13c fc7e c8bc
000001e0: 2c3f 443d e2e7 b1bd 8621 d5bc 36a9 173d
000001f0: 8e66 603d 20dc 8bbb 0bf8 51bd 676e 90bc
00000200: 72c4 933d 584f 6dbd a20f 79bc 4de6 983d
00000210: cbf1 603a 3fd7 77bd 977d 03bc 44f2 23bd
00000220: 8d99 fe3c 97f9 eabc bc7f 243d 2f81 4e3e
00000230: 7216 cc3c 62ce 40bd d513 c4bb 00e0 983d
00000240: 9ace 48bd 7c57 a03d 5585 bc3a 801b 463e
00000250: a0e9 413d 0f5a 853c 26ee 34bd 5fc5 3f3d
00000260: 0a2f 4fbd f287 75bd d6c1 bb3d dc97 ea3d
00000270: 9f05 c8bc bf33 66bb 3bdb c6b9 58a1 a03d
00000280: 3d11 ab3d 9cb0 ec3b 4e39 4dbc e8c0 353d
00000290: 2fa5 873d 6a26 883d a7eb 003d d926 01be
000002a0: 4849 84bd 5deb 53bd 350a 84bd d114 20be
000002b0: 783a 273d 9cb7 15bd 10d3 90bc 7317 903d
000002c0: e2d5 f2bb 40d4 963b 2026 8f3a 2565 debd
000002d0: 5feb 833c 07b1 0e3d 5824 373d 7d5e b6bc
000002e0: 7f1c 023d e854 973c 010a 96bd 4c5f b9bd
000002f0: e96a 03bd fa5f a3bc f0b9 4fbd 6629 b63d
00000300: bd00 1c3d 95ed 0f3d 176c f23d e993 313d
00000310: 24e9 e8bd 0f90 62bd 5cd6 9abc 2ff1 9bbc
00000320: 2fd7 e03c cdbe 293d c59f 4a3c 786a 64bd
00000330: fdb9 4abc f50b 823c 2285 b63d 4e5b ef3b
00000340: c86e b3bf bd01 85be 0342 ddbe a039 8ebe
00000350: 08fc 18be bbd1 c33d 08ad 26be 8cc4 39bd
00000360: 8328 a2bc c07b b23d 6c43 c23c b888 b53e
00000370: ac8b 14be 57bb 8b3c 1624 0ebc 3145 023d
00000380: 2e6f 443d 61e4 4a3d 4242 193e ab35 3c3d
00000390: 0a52 993d ac42 0ebd 2c36 8b3d 3967 91bd
000003a0: b82e 7b3c 34fe a7bc 8ac8 ddbd 1acc d23d
000003b0: d0af adbd 3d87 533e b29b 04bd 1e4c 18bd
000003c0: 7381 00bc 23af f03d 42c7 b83d 1ef5 063d
000003d0: 416f c73d f316 f73c 6198 c23c 4cff 62bd
000003e0: 08ce 483d e93f aabd ee17 963d e351 7bbc
000003f0: 853d 7cbd 7bae d43d 0f88 2bbb a410 0c3e

backbone.0.bias f4 [128]
-0.08355071 0.04501578 0.07698849 0.034705207 -0.03834301 -0.038922414 -0.040815208 -0.024487622
0.072411634 0.0014075572 -0.039259072 0.10359663 0.07111698 0.03651331 -0.060773388 -0.021216495
0.10079994 0.09190413 0.029796757 0.042594276 -0.0285207 -0.017862467 0.05993303 -0.03819568
0.06528304 -0.05154769 0.031278525 0.053759407 0.06821269 0.026548322 0.002668717 0.04382956
0.0817711 -0.10238047 0.06359995 0.01237502 0.05768137 0.08131512 -0.052058514 0.00280541
-0.03569714 0.07527002 0.055051718 0.09269047 0.08668423 -0.040081132 -0.035219505 0.05360009
-0.03447165 0.076231025 -0.011363753 -0.011438196 -0.007838329 -0.0024320723 -0.009302886 0.054440595
0.02810569 -0.048961014 -0.019878447 0.052491453 -0.13786262 -0.039035488 0.11228968 -0.031017654
-0.03096268 0.04829342 -0.06690928 -0.037475713 0.10382651 -0.021785181 -0.09833963 -0.07326138
0.052210063 0.07939636 0.03992738 -0.07465486 -0.018350555 -0.086487785 0.028012076 0.07824374
0.088348076 0.0451458 0.068009034 0.055834845 -0.03524792 0.097173944 0.0036044274 -0.10384308
0.07164605 0.06821027 0.0027390383 -0.031313118 0.04886474 0.012170033 -0.026734982 -0.07376131
-0.009523963 -0.015867302 -0.018328344 -0.041117307 0.072141096 -0.032278784 -0.042858124 0.03554493
-0.0229942 -0.02798876 -0.031086283 -0.009419622 -0.024059812 -0.09418482 0.013189897 -0.030349351
-0.015740575 -0.05367904 0.07795349 0.01704303 0.012042738 0.073139526 -0.018891755 -0.09293644
-0.04385293 0.0058917743 -0.054915953 0.0668662 0.110985175 -0.009212231 0.022011759 0.03737125
00000000: a21c abbd 7762 383d 24ac 9d3d 0c27 0e3d
00000010: 8f0d 1dbd 1c6d 1fbd d92d 27bd 449a c8bc
00000020: 8d4c 943d c87d b83a 1fce 20bd 782a d43d
00000030: c7a5 913d fb8e 153d 84ed 78bd 37ce adbc
00000040: 3370 ce3d 3c38 bc3d 5418 f43c 5677 2e3d
00000050: 3ea4 e9bc 4f54 92bc 567c 753d 1373 1cbd
00000060: 1db3 853d ac23 53bd e91d 003d d332 5c3d
00000070: 18b3 8b3d de7b d93c a4e5 2e3b a086 333d
00000080: 9b77 a73d daac d1bd b140 823d 99c0 4a3c
00000090: 4d43 6c3d 8b88 a63d 4f3b 55bd f8da 373b
000000a0: 2a37 12bd 2b27 9a3d e97d 613d 80d4 bd3d
000000b0: 8087 b13d 1d2c 24bd 5442 10bd c58b 5b3d
000000c0: 2532 0dbd 031f 9c3d 092f 3abc 4567 3bbc
000000d0: 566c 00bc 6763 1fbb 226b 18bc 1afd 5e3d
000000e0: e73d e63c 588b 48bd 20d8 a2bc 4701 573d
000000f0: dc2b 0dbe ade3 1fbd 22f8 e53d bc18 febc
00000100: 72a5 fdbc 52cf 453d bc07 89bd 2280 19bd
00000110: fea2 d43d d676 b2bc 4a66 c9bd 100a 96bd
00000120: 38da 553d 8f9a a23d e48a 233d a6e4 98bd
00000130: e753 96bc 8220 b1bd 9579 e53c 413e a03d
00000140: d6ef b43d cdea 383d 5248 8b3d 14b3 643d
00000150: 1f60 10bd 2203 c73d 4238 6c3b aeab d4bd
00000160: 2abb 923d d3b1 8b3d 7081 333b 2f42 00bd
00000170: 6526 483d d164 473c 5203 dbbc 2b10 97bd
00000180: 650a 1cbc 25fc 81bc 5325 96bc 9f6a 28bd
00000190: b6be 933d c236 04bd 008c 2fbd 8f97 113d
000001a0: 555e bcbc af48 e5bc a9a8 febc c254 1abc
000001b0: 1519 c5bc f9e3 c0bd 701a 583c 349f f8bc
000001c0: 61f2 80bc 8ede 5bbd 14a6 9f3d d39d 8b3c
000001d0: e74e 453c 2dca 953d e2c2 9abc 7655 bebd
000001e0: 219f 33bd c90f c13b 8def 60bd 25f1 883d
000001f0: 324c e33d e6ee 16bc 0152 b43c 9912 193d

backbone.3.weight f4 [128, 128]
0.011435829 -0.084627025 0.1089979 -0.11254669 0.05770659 0.0016860266 0.025019856 0.03178588
-0.025009992 -0.11095092 0.032666035 -0.108575255 -0.059200753 -0.020478318 -0.0035447131 0.02044603
0.0625906 -0.030512216 -0.06488708 -0.047158398 0.0039846348 -0.03141961 -0.034173608 0.053585153
0.052745298 0.06426766 0.017204233 0.045422044 0.034262154 0.0070126345 -0.0103007 0.057365414
0.032355234 0.009981347 -0.024798587 0.05830902 -0.0047482876 0.02529001 -0.007636295 0.076457694
0.068421945 0.001040962 0.030663667 0.10988209 -0.08340697 0.024239989 0.03609747 -0.0063185086
-0.10758999 -0.04299277 0.10870994 0.012450043 -0.07854152 -0.05920987 0.012579762 -0.049415108
-0.0907013 0.054234307 -0.043491725 -0.0070440257 -0.029328283 6.133609e-06 0.10875354 0.020939568
0.028545745 0.011909739 -0.0129382275 -0.057105083 0.04465707 0.09103194 0.054603796 0.041203927
0.01850272 0.0041138544 -0.1342281 -0.050777107 -0.03053324 -0.18961771 0.002451477 -0.044787593
-0.04282275 -0.07936536 -0.03204779 0.02778264 0.023268253 -0.024048636 0.058573205 -0.10265046
-0.07086555 -0.11710301 0.027690073 -0.08989984 0.05642977 0.03814956 0.03091649 -0.05281866
0.022712689 0.01062292 -0.022909224 0.033896413 0.053573612 -0.04188187 0.0404422 -0.07406798
0.041304234 0.02318897 -0.013373157 -0.052813873 -0.017472591 -0.01745401 0.04718255 0.04080234
-0.0041903453 0.024285784 0.09176794 0.06782582 0.009786091 0.04972111 -0.003986515 -0.06839669
0.013422391 0.025247991 0.12997061 -0.052074354 0.116196156 0.07136829 -0.02347795 -0.08825396
-0.08856353 -0.10583791 0.029522542 -0.016238857 -0.024390807 0.05425902 -0.038198598 -0.00018713002
0.02113228 0.11304978 0.07450106 0.014311467 0.0061685806 0.021816371 0.034532636 0.048881877
-0.09765895 0.008824508 0.016584761 -0.119106635 -0.07160381 -0.040291365 0.04824689 -0.12819755
-0.14697675 -0.10530706 -0.026832249 -0.02417746 -0.05396516 0.008413713 0.013382958 0.052247565
-0.08102031 -0.13948104 -0.018404245 -0.04597254 -0.08186488 0.062732756 -0.060472887 -0.0719444
-0.09813478 0.02803735 -0.03474193 -0.008287812 0.030814229 -0.023648623 -0.040948216 -0.009876409
0.010670149 -0.00882409 0.052096743 -0.081567176 -0.04975124 0.03989616 0.061809845 -0.05655905
-0.06002847 -0.16041976 -0.030405369 0.024194999 -0.12645437 0.059896823 -0.03529026 0.048960313
0.03023066 0.031402584 -0.0839207 0.008890515 -0.053500716 0.04085172 -0.0064140973 0.09169723
-0.120786004 0.044760823 0.05999418 0.04562412 0.07356489 0.044040505 0.018419502 -0.078396246
-0.023473335 -0.047536377 0.06432811 0.010436024 -0.03605803 0.11898276 0.021085195 -0.067204565
0.04531952 0.008968745 0.078964725 -0.020090442 0.018157398 0.053136166 -0.019538859 -0.097314045
0.040692404 -0.043770835 -0.08224657 -0.011470093 -0.09421269 -0.07553262 0.045748614 -0.0571943
0.08523117 -0.05243529 0.04081615 -0.022577051 -0.036916852 -0.03889741 0.020231875 0.014634695
-0.06275601 -0.021391219 0.028527724 -0.052402448 0.014471507 -0.06276874 0.09624841 -0.028051792
-0.017632639 0.0055137184 -0.08936463 0.07780193 -0.048772894 -0.035415627 -0.09710766 0.063758254
00000000: 585d 3b3c ef50 adbd 4a3a df3d e17e e6bd
00000010: bf5d 6c3d aafd dc3a 71f6 cc3c e931 023d
00000020: c1e1 ccbc 3c3a e3bd d2cc 053d b45c debd
00000030: 7d7c 72bd 25c2 a7bc 6b4e 68bb 6f7e a73c
00000040: 802f 803d c1f4 f9bc 84e3 84bd 2a29 41bd
00000050: 8a91 823b d9b1 00bd a0f9 0bbd 1b7c 5b3d
00000060: 740b 583d c39e 833d e4ef 8c3c 770c 3a3d
00000070: 7956 0c3d 3eca e53b 44c4 28bc fff7 6a3d
00000080: ec86 043d ce88 233c 6826 cbbc 70d5 6e3d
00000090: 8697 9bbb ff2c cf3c e339 fabb da95 9c3d
000000a0: ce20 8c3d e370 883a 5f32 fb3c dc09 e13d
000000b0: 46d1 aabd f192 c63c f1da 133d 7e0b cfbb
000000c0: 2458 dcbd 3019 30bd 51a3 de3d 44fb 4b3c
000000d0: 60da a0bd 0c86 72bd 591b 4e3c 7f67 4abd
000000e0: 9ac1 b9bd cb24 5e3d 6124 32bd 92d1 e6bb
000000f0: de41 f0bc 4dcf cd36 2dba de3d 7589 ab3c
00000100: c4d8 e93c 1121 433c dcfa 53bc 05e7 69bd
00000110: 55ea 363d f46e ba3d 3ba8 5f3d 73c5 283d
00000120: 0493 973c 83cd 863b 1773 09be a8fb 4fbd
00000130: d820 fabc 252b 42be f6a8 203b 3273 37bd
00000140: e866 2fbd 4e8a a2bd 8b44 03bd 6b98 e33c
00000150: 109d be3c a501 c5bc 75ea 6f3d 683a d2bd
00000160: f521 91bd b4d3 efbd 4bd6 e23c 681d b8bd
00000170: e722 673d b742 1c3d 9444 fd3c 6158 58bd
00000180: f60f ba3c c10b 2e3c 20ac bbbc f7d6 0a3d
00000190: 0170 5b3d 538c 2bbd b8a6 253d f4b0 97bd
000001a0: a12e 293d cbf6 bd3c 161b 5bbc 5c53 58bd
000001b0: ae22 8fbc b6fb 8ebc 7d42 413d 5b20 273d
000001c0: 2a4f 89bb fbf2 c63c d4f0 bb3d 43e8 8a3d
000001d0: d755 203c 5da8 4b3d 50a1 82bb 9013 8cbd
000001e0: 97e9 5b3c e0d4 ce3c 0417 053e eb4b 55bd
000001f0: 40f8 ed3d 8a29 923d d454 c0bc 7ebe b4bd
00000200: cc60 b5bd 8cc1 d8bd 42d9 f13c 5a07 85bc
00000210: 3bcf c7bc b53e 5e3d 2276 1cbd 5538 44b9
00000220: 9a1d ad3c a586 e73d 0394 983d a57a 6a3c
00000230: ce21 ca3b 3fb8 b23c 1872 0d3d 5d38 483d
00000240: 6a01 c8bd ab94 103c c4dc 873c 2eee f3bd
00000250: 05a5 92bd 8f08 25bd 889e 453d 3846 03be
00000260: 1381 16be 3aab d7bd 4ecf dbbc cf0f c6bc
00000270: 920a 5dbd acd9 093c 3244 5b3c 8b01 563d
00000280: faed a5bd 1ed4 0ebe 80c4 96bc b44d 3cbd
00000290: c6a8 a7bd 087a 803d 6bb2 77bd 9657 93bd
000002a0: e3fa c8bd 96ae e53c 8e4d 0ebd 9ac9 07bc
000002b0: 1f6e fc3c c2ba c1bc 51b9 27bd a9d0 21bc
000002c0: d9d1 2e3c ea92 10bc 6563 553d b10c a7bd
000002d0: f5c7 4bbd 286a 233d 522c 7d3d 76aa 67bd
000002e0: 6ae0 75bd 1445 24be ae14 f9bc 9734 c63c
000002f0: 417d 01be 5f56 753d 858c 10bd 9c8a 483d
00000300: 4aa6 f73c ff9f 003d 9ede abbd 86a9 113c
00000310: 9123 5bbd 2254 273d 592d d2bb c2cb bb3d
00000320: a75e f7bd 2057 373d 75bc 753d 5be0 3a3d
00000330: 30a9 963d d163 343d 7fe4 963c 368e a0bd
00000340: 274b c0bc 81b5 42bd 75be 833d dbfb 2a3c
00000350: 96b1 13bd 3cad f33d dcba ac3c 8ca2 89bd
00000360: f6a0 393d a5f1 123c 42b8 a13d b694 a4bc
00000370: d3be 943c 4fa5 593d f50f a0bc 964c c7bd
00000380: 14ad 263d 0c49 33bd e470 a8bd 0fed 3bbc
00000390: 95f2 c0bd d9b0 9abd e662 3b3d 9244 6abd
000003a0: ae8d ae3d 63c6 56bd d62e 273d 82f3 b8bc
000003b0: 2036 17bd e452 1fbd 51bd a53c 5cc6 6f3c
000003c0: 3986 80bd a33c afbc f9b2 e93c f3a3 56bd
000003d0: e619 6d3c e68c 80bd e31d c53d dfcc e5bc
000003e0: 5372 90bc 6cac b43b ce04 b7bd 9e56 9f3d
000003f0: 16c6 47bd fa0f 11bd 61e0 c6bd b093 823d

backbone.3.bias f4 [128]
-0.048826613 0.007468741 0.042108547 -0.113113776 -0.0987829 -0.112322 0.055444047 -0.011620312
0.006652666 -0.018427588 -0.050276786 -0.097449996 0.112815216 0.010487708 -0.12818804 -0.12328656
-0.116124175 -0.05424935 -0.15327369 -0.061872926 -0.06577264 -0.20701057 -0.001092422 0.0350718
0.014062313 0.00791027 -0.044369936 -0.011224335 -0.081067994 -0.09806237 -0.05806304 -0.09166329
0.0106305275 -0.11197912 -0.021959102 0.017269129 0.058973398 -0.11311543 -0.03982253 -0.02579636
-0.14980043 0.09498728 0.0077568176 -0.003608041 0.016887002 0.07075177 -0.013663036 -0.0636565
0.034887895 -0.032247096 -0.018103883 -0.029881403 -0.13187835 -0.27544025 -0.03848844 -0.07035983
-0.026909498 -0.16894649 -0.04836245 -0.022188412 -0.15354179 0.03932806 -0.12423311 -0.007982405
-0.06880138 -0.012420309 -0.109833166 -0.024616119 -0.0030650203 -0.17655993 0.0009816885 -0.066114485
0.15011433 -0.07455605 -0.12958905 -0.15500948 0.101602554 -0.027604166 -0.06705519 -0.0055551026
-0.028148217 -0.12624212 -0.04084474 -0.030720579 0.065078795 -0.09257878 -0.047213793 -0.05276823
0.00040563568 -2.0489564e-05 -0.06606138 -0.061616573 -0.04629779 -0.044251718 -0.10267967 -0.02895274
0.07902153 -0.081130914 -0.12775183 -0.2292642 0.0030409172 -0.015904782 0.07334385 0.05193155
-0.05806839 -0.015235015 0.047023278 0.0055752886 0.120546944 -0.06867721 0.015084611 -0.15277232
-0.14715362 0.04480849 -0.020821543 -0.041814197 0.039104477 -0.0477051 -0.11401012 -0.02487884
-0.023440652 -0.02780578 0.028404837 0.025429614 -0.12856142 -0.03879862 0.022748495 -0.04245107
00000000: 6afe 47bd 57bc f43b 037a 2c3d 32a8 e7bd
00000010: b04e cabd 1409 e6bd 4c19 633d 1f63 3ebc
00000020: 9bfe d93b 74f5 96bc 08ef 4dbd dd93 c7bd
00000030: aa0b e73d a3d4 2b3c ba43 03be aa7d fcbd
00000040: 83d2 edbd 9134 5ebd c7f3 1cbe 776e 7dbd
00000050: ceb3 86bd 94fa 53be 9a2f 8fba 73a7 0f3d
00000060: 9e65 663c 149a 013c 40bd 35bd 46e6 37bc
00000070: fa06 a6bd edd4 c8bd 83d3 6dbd f7b9 bbbd
00000080: aa2b 2e3c 4f55 e5bd 93e3 b3bc fd77 8d3c
00000090: 178e 713d 10a9 e7bd f31c 23bd e352 d3bc
000000a0: 4965 19be b188 c23d e72c fe3b e274 6cbb
000000b0: 9c56 8a3c 4ee6 903d edda 5fbc 575e 82bd
000000c0: 9ce6 0e3d 8815 04bd 984e 94bc d8c9 f4bc
000000d0: 1e0b 07be 8106 8dbe 0ea6 1dbd d118 90bd
000000e0: 4f71 dcbc 4f00 2dbe b417 46bd 79c4 b5bc
000000f0: 0f3a 1dbe 7616 213d ee6d febd a2c8 02bc
00000100: bde7 8cbd 8d7e 4bbc 36f0 e0bd bea7 c9bc
00000110: 82de 48bb 20cc 34be 00ac 803a 0867 87bd
00000120: 92b7 193e d8b0 98bd feb2 04be ceba 1ebe
00000130: 0015 d03d 2222 e2bc 3b54 89bd 9407 b6bb
00000140: 1797 e6bc 9d45 01be d04c 27bd b9a9 fbbc
00000150: 0848 853d f299 bdbd 4063 41bd 8023 58bd
00000160: 80ab d439 01e1 abb7 304b 87bd a961 7cbd
00000170: c0a2 3dbd 4a41 35bd b849 d2bd 4c2e edbc
00000180: 0ad6 a13d f727 a6bd 60d1 02be 3cc4 6abe
00000190: 204a 473b bf4a 82bc 4d35 963d 2db6 543d
000001a0: 1fd9 6dbd 499c 79bc 7b9b 403d e9b0 b63b
000001b0: 51e1 f63d a3a6 8cbd 7225 773c 5970 1cbe
000001c0: 70af 16be 1b89 373d f191 aabc 5d45 2bbd
000001d0: 042c 203d 6c66 43bd 237e e9bd b6ce cbbc
000001e0: 9c06 c0bc f2c8 e3bc 43b1 e83c c451 d03c
000001f0: 9ba5 03be 4deb 1ebd 0d5b ba3c 2ce1 2dbd

backbone.6.weight f4 [128, 128]
0.056451783 0.02354341 0.050688226 -0.07304728 0.042982403 -0.050222415 -0.019421842 0.056057844
0.05371419 0.038212135 0.012133648 0.05705822 0.04418729 -0.03071963 0.042074114 0.029784996
0.043816723 0.09807901 0.096973486 -0.03912188 -0.09264591 -0.017749485 0.019815307 0.06284591
-0.042680703 -0.010936948 -0.054464336 -0.05661735 0.028637793 -0.019414244 -0.09556622 0.076288015
0.050263673 0.029323367 0.11833751 -0.025368424 -0.06432568 -0.0121377 -0.053685848 -0.016462551
0.011359896 -0.047231335 0.025089573 0.10576569 -0.056771725 0.04190655 0.03452503 0.021369282
0.10026346 -0.07311253 0.065735415 0.04616449 -0.03693703 0.067244284 0.11229678 0.07703747
-0.03082937 0.015015667 0.06853547 -0.05400221 0.049073257 0.05694985 0.032728825 -0.068719834
-0.10704507 0.047714915 0.08029978 -0.025172189 -0.019423926 -0.038541697 -0.053892348 -0.02945691
-0.0016410255 -0.07267705 0.102695204 0.07340726 -0.0147336805 -0.10707856 0.042793676 0.07692884
0.06252516 0.05837351 -0.010730536 0.006956749 0.055150382 -0.036388792 0.044617616 0.052760616
-0.023380581 0.0038629344 -0.045900445 0.056274336 -0.044571683 0.056744996 0.0679481 0.02368518
-0.056094814 -0.075224474 0.0005536766 -0.032017957 -0.09276303 -0.016018813 -0.030566819 -0.004627887
0.075182766 -0.011886793 0.032101296 0.007258131 0.010528653 0.0016766952 -0.01119255 0.04997724
0.03948646 0.05799405 -0.07418652 -0.02142132 -0.029817387 0.13141486 0.06517557 -0.08134115
0.051100664 0.031392984 -0.06040819 -0.0013371051 -0.053496603 0.07338083 0.013655907 -0.06587786
-0.029905388 -0.06531817 0.04678636 0.004648181 -0.027554864 -0.03891519 -0.08527212 -0.104530774
-0.08964151 0.004498513 -0.022134505 -0.06778331 0.07462319 -0.08469545 -0.00734842 0.07937327
-0.03460162 0.025728656 -0.0069890358 0.05181067 0.04176684 0.022849625 0.019398011 -0.035603154
0.035288215 -0.08008731 -0.05056643 0.0551915 -0.0025957883 -0.041760825 0.04844103 -0.045737345
0.09629906 -0.0044263788 -0.0064803907 -0.071125 -0.08426699 -0.06909111 0.07074717 0.0055657476
-0.07077221 -0.07622694 0.054626614 0.0007100163 -0.049717084 -0.050563592 0.0068314346 0.027213003
0.067496285 -0.03698804 0.03935383 0.07231857 -0.035968453 -0.091263875 -0.0063009644 0.038252305
-0.041393608 -0.0067545506 0.034128364 0.024208754 0.015056514 -0.06922029 0.056817763 0.03660549
0.03686456 0.000987577 -0.05537473 -0.018275416 -0.048927538 -0.033758823 -0.00887087 -0.040367793
0.06028829 -0.0065278937 -0.047695685 -0.047369167 0.021370342 -0.066148676 -0.04105322 0.06914463
0.055447515 -0.08656334 -0.061066266 0.06970022 0.007047456 -0.054036986 -0.07615551 0.03613479
0.060935013 0.09785708 0.087361805 -0.042904787 -0.0134597225 -0.08418051 -0.013088366 -0.034261495
-0.015984982 0.010745668 0.050265886 -0.007654476 -0.05673647 -0.033469964 -0.049053743 0.016370568
0.0073740617 -0.032655176 -0.022826958 -0.035212617 -0.06091283 -0.07376563 0.02608546 -0.131712
0.030789359 0.000937996 0.04888189 0.040622834 0.0035052923 -0.030094808 0.08897482 -0.05946025
-0.0058115306 0.00018763525 -0.061701696 -0.040611632 0.020170273 0.008332634 -0.05394779 0.06057004
00000000: fc39 673d 1cde c03c 759e 4f3d d099 95bd
00000010: 510e 303d 05b6 4dbd 8e1a 9fbc e99c 653d
00000020: 6903 5c3d 5484 1c3d 35cc 463c e1b5 693d
00000030: bbfd 343d bca7 fbbc e855 2c3d aaff f33c
00000040: 2a79 333d a6dd c83d 099a c63d 443e 20bd
00000050: 24bd bdbd 5e67 91bc b653 a23c 5bb5 803d
00000060: f6d1 2ebd e230 33bc ff15 5fbd 98e7 67bd
00000070: ce99 ea3c 9f0a 9fbc 39b8 c3bd e43c 9c3d
00000080: 48e1 4d3d 8f37 f03c f05a f23d 71d1 cfbc
00000090: 2fbd 83bd 34dd 46bc b1e5 5bbd 79dc 86bc
000000a0: db1e 3a3c a575 41bd a688 cd3c af9b d83d
000000b0: 7889 68bd 34a6 2b3d 1e6a 0d3d a20e af3c
000000c0: ee56 cd3d 06bc 95bd 4aa0 863d fa16 3d3d
000000d0: 484b 17bd 5fb7 893d dbfb e53d d2c5 9d3d
000000e0: e08d fcbc 4604 763c 535c 8c3d 6c31 5dbd
000000f0: 0a01 493d 3f44 693d a90e 063d fcbc 8cbd
00000100: 723a dbbd b770 433d 3674 a43d e835 cebc
00000110: ed1e 9fbc e6dd 1dbd 39be 5cbd 9e4f f1bc
00000120: ae17 d7ba b5d7 94bd dd51 d23d 8c56 963d
00000130: 8965 71bc 014c dbbd 6c48 2f3d de8c 9d3d
00000140: 310d 803d 1019 6f3d 21cf 2fbc 71f5 e33b
00000150: 5ee5 613d 6a0c 15bd f6c0 363d 841b 583d
00000160: a288 bfbc 4929 7d3b 1b02 3cbd eb7f 663d
00000170: cc90 36bd 716d 683d 6028 8b3d 6c07 c23c
00000180: adc3 65bd 4a0f 9abd 9c24 113a 4325 03bd
00000190: 8bfa bdbd e339 83bc 4467 fabc 88a5 97bb
000001a0: 6cf9 993d d3c0 42bc a67c 033d 9ed5 ed3b
000001b0: 5f80 2c3c 8ec4 db3a f560 37bc efb4 4c3d
000001c0: 8ebc 213d 2b8b 6d3d 1aef 97bd c47b afbc
000001d0: 9843 f4bc 9e91 063e c57a 853d 3096 a6bd
000001e0: ee4e 513d ee95 003d 946e 77bd cd41 afba
000001f0: 411f 5bbd b048 963d 06bd 5f3c f9ea 86bd
00000200: 25fc f4bc 88c5 85bd 0ea3 3f3d c54f 983b
00000210: bdba e1bc 8965 1fbd 26a3 aebd 3b14 d6bd
00000220: f895 b7bd 4368 933b 6c53 b5bc fad1 8abd
00000230: 0bd4 983d cf74 adbd 04cb f0bb 748e a23d
00000240: 6eba 0dbd e7c4 d23c 4804 e5bb 6d37 543d
00000250: b513 2b3d 232f bb3c 94e8 9e3c 9dd4 11bd
00000260: 608a 103d d104 a4bd bf1e 4fbd 7b10 623d
00000270: 1a1e 2abb 660d 2bbd 1a6a 463d 1557 3bbd
00000280: 7138 c53d 280b 91bb 7559 d4bb fca9 91bd
00000290: 2c94 acbd a47f 8dbd e4e3 903d e060 b63b
000002a0: 05f1 90bd df1c 9cbd 28c0 5f3d 6320 3a3a
000002b0: 24a4 4bbd c51b 4fbd 3ada df3b ceed de3c
000002c0: 7e3b 8a3d c580 17bd 7b31 213d c21b 943d
000002d0: a853 13bd 8ee8 babd 5278 cebb 73ae 1c3d
000002e0: 588c 29bd 4755 ddbb 2fca 0b3d 7051 c63c
000002f0: 99af 763c 5ec3 8dbd beb9 683d a3ef 153d
00000300: 4bff 163d 9671 813a 9dd0 62bd 53b6 95bc
00000310: 3e68 48bd b146 0abd 2057 11bc b358 25bd
00000320: dbf0 763d f1e7 d5bb 8d5c 43bd 2c06 42bd
00000330: db10 af3c f578 87bd 6c27 28bd b39b 8d3d
00000340: ef1c 633d 1f48 b1bd 9f20 7abd fdbe 8e3d
00000350: 59ee e63b e355 5dbd 6cf7 9bbd 1302 143d
00000360: fe96 793d 4b69 c83d bfea b23d eebc 2fbd
00000370: 2b86 5cbc d566 acbd 9670 56bc c855 0cbd
00000380: f0f2 82bc 990e 303c 9ae3 4d3d 66d2 fabb
00000390: 8064 68bd cd17 09bd 94ec 48bd 921b 863c
000003a0: 1da2 f13b 6fc1 05bd 9aff babc 1b3b 10bd
000003b0: bb7f 79bd 6f12 97bd 2db1 d53c 83df 06be
000003c0: f739 fc3c d9e3 753a 6038 483d 2164 263d
000003d0: 0cb9 653b 6389 f6bc 6e38 b63d 978c 73bd
000003e0: a76e bebb f4bf 4439 ebba 7cbd 6258 26bd
000003f0: 213c a53c 9a85 083c 5cf8 5cbd 4a18 783d

backbone.6.bias f4 [128]
0.14122029 -0.15360303 0.052450188 -0.19583464 0.21481355 -0.03209841 0.106531136 -0.1631073
-0.102693625 -0.016186954 0.018717898 0.15610997 -0.15148565 0.03269452 0.020896856 -0.09915504
-0.18189639 0.08058632 -0.034937955 -0.07011975 0.048375525 -0.023401896 0.061857324 0.124587364
-0.043432545 -0.09435091 0.24751745 0.0676216 0.066954926 -0.16245227 -0.08192978 0.034313843
0.089031875 0.071690574 -0.031725924 0.17356661 -0.06977679 0.08891761 -0.13498521 -0.051629476
-0.04115874 -0.14716144 -0.03815143 -0.010170267 -0.00043340464 -0.02549507 0.0003644699 -0.14766052
-0.1246851 -0.031499423 0.07388448 -0.08143992 -0.053943068 0.02369834 -0.062327985 -0.11678635
-0.06395409 0.06820365 -0.14684874 -0.13321032 0.12910584 -0.103048585 -0.11729823 -0.06230017
0.20753989 -0.029663794 0.026764056 -0.24809155 0.10483333 0.047439586 -0.10892112 0.1702743
-0.06649134 0.2557641 -0.022137469 0.1433867 -0.04114194 0.21991196 -0.00848684 -0.11793656
0.20889924 0.018884506 -0.002730449 0.06403345 0.005080205 -0.09145285 0.0444373 -0.14121303
0.14903034 0.13486247 -0.09145558 -0.086106405 -0.05763018 0.025432754 -0.04999367 -0.07822489
-0.036841225 -0.10932139 -0.05032389 -0.1098529 -0.042415943 -0.03392476 0.07702487 0.10376795
-0.0508086 0.012286859 0.017336003 0.04640002 -0.13202214 0.03784009 -0.012011542 0.17102686
0.043781742 -0.14181028 0.06000484 -0.09571732 0.18824768 0.007845967 0.106985375 0.020442976
0.013911549 0.10960218 -0.1306714 -0.038596544 0.10642354 0.0832968 -0.06242809 0.11258392
00000000: 0d9c 103e 1d4a 1dbe 02d6 563d e088 48be
00000010: 15f8 5b3e 9f79 03bd ff2c da3d 9a05 27be
00000020: 0951 d2bd 819a 84bc 4756 993c 4bdb 1f3e
00000030: 0e1f 1bbe b0ea 053d e22f ab3c cc11 cbbd
00000040: 0c43 3abe 710a a53d 1a1b 0fbd f29a 8fbd
00000050: 6a25 463d 55b5 bfbc 1b5e 7d3d a927 ff3d
00000060: 53e6 31bd 0d3b c1bd 3775 7d3e 327d 8a3d
00000070: aa1f 893d e359 26be cdca a7bd ac8c 0c3d
00000080: 5856 b63d 82d2 923d 0bf3 01bd 72bb 313e
00000090: 22e7 8ebd 701a b63d 9039 0abe 6e79 53bd
000000a0: 1196 28bd 7db1 16be ad44 1cbd 31a1 26bc
000000b0: 963a e3b9 09db d0bc 5216 bf39 5234 17be
000000c0: e75a ffbd 8a05 01bd bf50 973d f9c9 a6bd
000000d0: 68f3 5cbd 0523 c23c a14b 7fbd af2d efbd
000000e0: 5dfa 82bd 5bae 8b3d 845f 16be 4968 08be
000000f0: 5234 043e 230b d3bd 0e3a f0bd 772e 7fbd
00000100: 5685 543e 7c01 f3bc 4b40 db3c b60b 7ebe
00000110: dbb2 d63d 0350 423d 0912 dfbd 635c 2e3e
00000120: 9d2c 88bd 83f3 823e a359 b5bc f7d3 123e
00000130: 7384 28bd 9a30 613e 630c 0bbc b988 f1bd
00000140: afe9 553e aeb3 9a3c 55f1 32bb f823 833d
00000150: d977 a63b a24b bbbd e303 363d 269a 10be
00000160: 699b 183e 6319 0a3e 104d bbbd 8e58 b0bd
00000170: a00d 6cbd 5a58 d03c 2ac6 4cbd 5f34 a0bd
00000180: d3e6 16bd e5e3 dfbd 6c20 4ebd 8ffa e0bd
00000190: 57bc 2dbd b0f4 0abd 37bf 9d3d 4a84 d43d
000001a0: ae1c 50bd d24e 493c 3c04 8e3c f30d 3e3d
000001b0: d030 07be 36fe 1a3d 0fcc 44bc aa21 2f3e
000001c0: 7c54 333d b736 11be a3c7 753d 7107 c4bd
000001d0: 00c4 403e 5f8c 003c 261b db3d 0778 a73c
000001e0: 44ed 633c 1c77 e03d b9ce 05be 6917 1ebd
000001f0: 96f4 d93d 8397 aa3d 99b4 7fbd 6692 e63d

value_head.weight f4 [1, 128]
0.063055746 -0.0074260575 -0.028954003 -0.0089368615 0.09117834 0.040987376 0.056041103 -0.015249719
0.037629813 0.030615507 -0.0033152597 0.056933388 -0.050412107 -0.06822539 0.08116378 0.0020795378
-0.04636599 0.011714702 -0.046235368 0.048458926 0.041493874 0.061621718 0.019740669 0.07764497
0.060684845 -0.039874673 0.058734205 -0.024443284 0.022009406 -0.06993079 -0.077980965 0.06937499
0.07424959 0.040271454 -0.07394015 0.062354304 -0.0552858 0.05714053 -0.047293995 0.030089991
-0.06685793 -0.05775909 0.04920809 0.052752648 -0.054053217 0.0800021 0.06404279 -0.003266969
-0.055506445 -0.09133274 0.068483785 -0.028859599 -0.069151446 0.035892192 0.01022746 0.020653572
0.056728046 0.026744382 0.0032764524 -0.081709795 0.063821465 0.0037690417 -0.014870448 -0.02710999
0.06266601 0.0026696369 0.05144294 -0.03489295 0.03454777 0.009431757 -0.020616377 0.09316916
-0.031563744 0.07453314 0.025210258 0.05249835 0.028167589 0.055071406 0.009846343 -0.040319845
0.076023355 0.07187636 0.011154559 0.054990582 0.06672907 -0.03513615 0.056575634 -0.00070905796
0.070737645 0.07078368 -0.0038298282 -0.009385368 0.015095092 -0.015527421 0.021329504 0.026689075
0.023722775 -0.043929804 -0.008111023 -0.016508747 0.060728926 -0.0021900288 0.034885485 0.06659275
0.020181887 -0.01411393 0.08194116 0.08545129 -0.068230376 0.021435913 0.01895521 0.11141628
0.01934683 0.045570806 0.048229787 0.018976923 0.072229825 0.02822197 0.059072964 0.055690747
0.08787552 0.07312118 -0.059783336 0.028648458 0.04494145 0.032036655 -0.040702794 0.0545597
00000000: 5f23 813d 4956 f3bb f230 edbc ea6b 12bc
00000010: b6bb ba3d 61e2 273d 5b8b 653d f5d9 79bc
00000020: b821 1a3d 5fcd fa3c d444 59bb fc32 693d
00000030: ed7c 4ebd c1b9 8bbd 3239 a63d db48 083b
00000040: 44ea 3dbd 05ef 3f3c 4c61 3dbd de7c 463d
00000050: 7bf5 293d 0e67 7c3d 2fb7 a13c 5304 9f3d
00000060: ac90 783d a053 23bd 4793 703d 483d c8bc
00000070: 124d b43c e037 8fbd 7cb4 9fbd 7a14 8e3d
00000080: 2b10 983d aef3 243d ef6d 97bd 3a67 7f3d
00000090: 5d73 62bd 300c 6a3d 59b7 41bd 497f f63c
000000a0: cfec 88bd cc94 6cbd 6c8e 493d 2913 583d
000000b0: e866 5dbd 24d8 a33d de28 833d a51a 56bb
000000c0: ba5a 63bd a90c bbbd 3a41 8c3d f76a ecbc
000000d0: 469f 8dbd b103 133d 1491 273c ae31 a93c
000000e0: ab5b 683d 0917 db3c c0b9 563b 7757 a7bd
000000f0: d4b4 823d 0702 773b 2ea3 73bc c515 debc
00000100: 0957 803d 13f5 2e3b d5b5 523d e9eb 0ebd
00000110: f681 0d3d a887 1a3c ade3 a8bc 79cf be3d
00000120: fc48 01bd d5a4 983d be85 ce3c 8308 573d
00000130: b7bf e63c 8e92 613d 8e52 213c 6c26 25bd
00000140: 22b2 9b3d ea33 933d 9dc1 363c ce3d 613d
00000150: 40a9 883d ecea 0fbd dabb 673d 13e0 39ba
00000160: e6de 903d 09f7 903d dbfd 7abb 16c5 19bc
00000170: 6851 773c b966 7ebc 36bb ae3c 0ca3 da3c
00000180: 4456 c23c bdef 33bd 19e4 04bc 5a3d 87bc
00000190: e5be 783d 9686 0fbb 15e4 0e3d c861 883d
000001a0: 7c54 a53c 1d3e 67bc c4d0 a73d 1601 af3d
000001b0: 5ebc 8bbd 5e9a af3c f547 9b3c 382e e43d
000001c0: 3e7d 9e3c 74a8 3a3d 998c 453d 7e75 9b3c
000001d0: 3bed 933d c331 e73c 7ef6 713d fb1b 643d
000001e0: 15f8 b33d 8fc0 953d 5fdf 74bd 2cb0 ea3c
000001f0: 8714 383d de38 033d f9b7 26bd fe79 5f3d

adv_head.weight f4 [11, 128]
-0.022821482 0.026077231 -0.04576726 -0.06314128 -0.07025869 0.037514668 -0.025722513 -0.045409653
-0.036367014 -0.015643401 0.05501673 0.0051190015 -0.021048442 -0.002640334 0.02493873 0.054208178
-0.07024144 0.048518706 -0.041977208 0.007665522 0.008117031 0.03892864 0.013425467 -0.025341354
0.052607566 -0.010265885 -0.019408043 0.0034499296 0.03335158 -0.032035388 -0.002678399 -0.035994146
-0.048911203 -0.012609343 -0.02655692 -0.028515896 -0.020850003 -0.024689754 -0.004501459 -0.006442384
-0.08076834 -0.0069620037 0.014958718 -0.022681983 -0.06653996 0.03301067 0.015388673 0.060823508
-0.052534375 0.014087 0.05457684 -0.022523686 0.043285314 0.0096770115 0.053589016 0.041918464
0.042182937 0.019120544 0.05809964 -0.021568628 0.024397232 0.04863502 -0.02940563 0.0071544303
-0.062166188 -0.058354437 -0.00813199 -0.066911444 0.0024890597 0.013744697 -0.026185485 -0.022653587
-0.06686707 -0.023257239 0.06759411 0.018478436 0.006437102 -0.03036988 -0.038063727 -0.03693224
-0.04032135 -0.049077846 0.07533676 -0.01547514 -0.045406368 -0.03878001 0.01816779 0.05946732
-0.03584631 -0.052412502 0.063606106 0.046271093 0.034010757 0.015184587 0.023816189 0.0042273803
0.030921713 0.0070871487 0.055317014 -0.006240073 -0.016665222 0.054474406 -0.012419236 -0.048648532
-0.002917445 -0.07873083 -0.037169043 -0.038649473 -0.06178248 0.022282818 0.010998338 -0.036015883
0.060062584 0.03586596 0.008887205 -0.001322399 -0.044905316 0.053233005 0.02893847 0.047820043
-0.043844037 0.016388843 0.030485814 0.0020255519 -0.0204938 0.04759442 -0.064921394 -0.03922837
0.012540897 -0.10318773 -0.039815404 -0.02536493 -0.05481755 -0.02278227 0.013877132 -0.031533364
-0.044340614 0.001839875 0.039854974 0.026411181 -0.074266486 -0.04421199 0.023012443 0.023705564
-0.014728991 0.042357188 0.04632455 0.022634016 0.02294997 0.04809325 -0.026807068 -0.00085973734
0.034721766 0.024106476 0.023059694 0.069012515 0.031765237 0.07833335 -0.013480847 -0.043106962
-0.0073439 -0.021868763 0.04532363 -0.005751898 0.04554307 -0.022291264 -0.007530845 -0.020009704
-0.024069177 0.04527958 0.0035265794 -0.055609036 -0.012206682 0.06495335 0.029270729 -0.0031920325
0.026118267 -0.01857985 0.039841466 0.03261898 0.11162674 -0.114224955 0.060266443 0.029750705
0.040979117 0.011368162 0.017682638 0.093447916 0.0043366565 0.03447828 0.004946146 0.061792016
-0.039028365 -0.07937902 -0.005981567 0.007999642 0.025022123 -0.032325312 0.07519211 0.026932273
0.06595345 0.013596957 0.022091512 0.01627722 -0.0048671174 0.03233621 -0.05861178 0.06819539
-0.0138562415 -0.038414612 0.0048807273 -0.017357063 -0.008940341 0.016482314 0.060767487 0.031029254
-0.046769544 -0.015423422 0.012161868 -0.0041920603 0.02905196 -0.083055094 0.013758672 0.02278772
0.015064844 -0.033372328 0.0056211688 -0.020636281 0.017061101 0.043832842 -0.02992455 -0.030807843
-0.0059193503 -0.05244838 -0.045936756 -0.0028701592 -0.049723152 0.03529247 -0.009391534 0.008775311
0.058004767 0.05242037 -0.04284008 -0.034209836 -0.03780457 -0.0053484514 0.04327834 0.06680207
-0.04276913 0.052708432 0.0054218615 0.031435136 -0.020357035 0.01881909 -0.025925033 -0.031843267
00000000: 1ef4 babc eb9f d53c 7376 3bbd 3750 81bd
00000010: cae3 8fbd fba8 193d 05b8 d2bc 79ff 39bd
00000020: 94f5 14bd 9726 80bc 3959 613d 4cbd a73b
00000030: c86d acbc 7409 2dbb 4f4c cc3c 6509 5e3d
00000040: beda 8fbd 8dbb 463d 4bf0 2bbd 0f2f fb3b
00000050: 4cfd 043c a373 1f3d 7df6 5b3c ac98 cfbc
00000060: 087b 573d 3e32 28bc 9efd 9ebc 3718 623b
00000070: ab9b 083d 8a37 03bd 1488 2fbb 996e 13bd
00000080: 1d57 48bd 6b97 4ebc e68d d9bc 2b9a e9bc
00000090: a0cd aabc 2b42 cabc fa80 93bb a21a d3bb
000000a0: df69 a5bd 8521 e4bb 6915 753c 91cf b9bc
000000b0: 1a46 88bd 3236 073d c620 7c3c 1222 793d
000000c0: 492e 57bd 29cd 663c f78b 5f3d 9883 b8bc
000000d0: f14b 313d 548c 1e3c 2880 5b3d b2b2 2b3d
000000e0: 04c8 2c3d b0a2 9c3c e3f9 6d3d b1b0 b0bc
000000f0: b4dc c73c 8435 473d 13e4 f0bc b66f ea3b
00000100: f9a1 7ebd 1005 6fbd 0a3c 05bc de08 89bd
00000110: 7e1f 233b 7031 613c f182 d6bc 0494 b9bc
00000120: 9af1 88bd f785 bebc c86e 8a3d 1760 973c
00000130: 53ee d23b 41ca f8bc b6e8 1bbd 4346 17bd
00000140: 0028 25bd da05 49bd 294a 9a3d 718b 7dbc
00000150: 07fc 39bd cad7 1ebd 9ed4 943c 0194 733d
00000160: 95d3 12bd 7eae 56bd eb43 823d c286 3d3d
00000170: dd4e 0b3d c6c8 783c 2b1a c33c d685 8a3b
00000180: 884f fd3c 503b e83b 1894 623d 8779 ccbb
00000190: 8185 88bc 8e20 5f3d 0d7a 4bbc af43 47bd
000001a0: 9b32 3fbb a13d a1bd 913e 18bd e94e 1ebd
000001b0: a00f 7dbd 758a b63c 6032 343c 6485 13bd
000001c0: 2f04 763d 2fe8 123d a49b 113c 5954 adba
000001d0: a3ee 37bd da0a 5a3d 5f10 ed3c f3de 433d
000001e0: ce95 33bd e541 863c 63bd f93c 1fbf 043b
000001f0: 9de2 a7bc 5ef2 423d 82f5 84bd edad 20bd
00000200: 5678 4d3c 1754 d3bd 7a15 23bd 1dca cfbc
00000210: 5e88 60bd e2a1 babc e95c 633c 2129 01bd
00000220: 819e 35bd f627 f13a f83e 233d 435c d83c
00000230: 0719 98bd a217 35bd 9784 bc3c 2c32 c23c
00000240: de51 71bc bb7e 2d3d d0be 3d3d f96a b93c
00000250: 9301 bc3c 6dfd 443d 7f9a dbbc ff5f 61ba
00000260: 6938 0e3d f27a c53c afe7 bc3c 6f56 8d3d
00000270: 441c 023d 3c6d a03d c5de 5cbc ed90 30bd
00000280: 19a5 f0bb 1f26 b3bc 45a5 393d 6b7a bcbb
00000290: 5f8b 3a3d 2b9c b6bc 4ec5 f6bb 64eb a3bc
000002a0: b92c c5bc 1577 393d 2f1e 673b 4dc6 63bd
000002b0: 89fe 47bc 4306 853d 2bc9 ef3c 6b31 51bb
000002c0: faf5 d53c c534 98bc ce30 233d 7b9b 053d
000002d0: 8f9c e43d c6ee e9bd f2d9 763d c0b7 f33c
000002e0: b8d9 273d 8741 3a3c 2edb 903c 9f61 bf3d
000002f0: 831a 8e3b 1939 0d3d 4813 a23b a019 7d3d
00000300: 35dc 1fbd 7891 a2bd 0501 c4bb ee10 033c
00000310: 32fb cc3c 8c67 04bd 52fe 993d 12a1 dc3c
00000320: 9a12 873d c5c5 5e3c 42f9 b43c ce57 853c
00000330: 577c 9fbb f972 043d e812 70bd 06aa 8b3d
00000340: 4a05 63bc a458 1dbd 82ee 9f3b 6630 8ebc
00000350: 827a 12bc eb05 873c 54e7 783d 1031 fe3c
00000360: 6c91 3fbd 85b2 7cbc 9242 473c 8d5d 89bb
00000370: 60fe ed3c ca18 aabd 0e6c 613c 50ad ba3c
00000380: 89d2 763c 6cb1 08bd c831 b83b 6b0d a9bc
00000390: b9c3 8b3c 118a 333d 5424 f5bc bb60 fcbc
000003a0: 1cf7 c1bb 1dd4 56bd 2e28 3cbd 4819 3cbb
000003b0: 81aa 4bbd d68e 103d f3de 19bc 52c6 0f3c
000003c0: 6896 6d3d beb6 563d 1479 2fbd 9d1f 0cbd
000003d0: f7d8 1abd 1042 afbb a144 313d 86cf 883d
000003e0: af2e 2fbd cce4 573d dfa9 b13b 21c2 003d
000003f0: ccc3 a6bc 7e2a 9a3c bc60 d4bc 166e 02bd

adv_head.bias f4 [11]
0.14063628 -0.061805498 -0.11632043 -0.10291788 -0.10074685 -0.05370862 -0.17370678 -0.21699582
-0.14044392 -0.23200679 -0.1919555
00000000: f502 103e c327 7dbd 6839 eebd 9cc6 d2bd
00000010: 5d54 cebd 92fd 5bbd 31e0 31be 2734 5ebe
00000020: 88d0 0fbe 3093 6dbe fc8f 44be
