models/dqn_bullpen_2022_2023.pt (torch, 767141 bytes, 9 tensors)

backbone.0.weight f4 [258, 208]
000000 48 17 1b bf bf cc 7c be 52 f3 30 3e 18 11 71 bd
       -0.605824 -0.2468748 0.1728032 -0.058854192
000010 19 86 ac 3d 7a 9c db 3e c3 15 47 3e 79 d7 bb 3d
       0.084240146 0.4289282 0.19441895 0.091719575
000020 d6 b5 45 3e 7f db 6e be 8b fd 77 3d e4 9f b0 3e
       0.19307646 -0.23325919 0.06054453 0.34496987
000030 1d d0 64 be 90 90 66 be 49 e8 f0 bd d5 2a 93 be
       -0.22345014 -0.22516084 -0.11763055 -0.28743616
000040 d6 5a a7 be 1d 73 a6 be 48 6b 92 be c8 ac bb be
       -0.3268649 -0.325097 -0.28597474 -0.3665526
000050 a5 7c ab be 22 53 9f be 39 53 b4 be 76 b0 7e be
       -0.33493534 -0.31118113 -0.35219744 -0.24872002
000060 ed 9e 93 be 84 db e5 be 7f 89 90 be 21 fc 9d be
       -0.28832188 -0.4489404 -0.282299 -0.30856422
000070 e4 04 c3 be 4f e1 ea bd 63 e7 d7 bc f1 36 1b be
       -0.3808967 -0.114687555 -0.026355451 -0.15157677
000080 8c 8c 22 be 37 5f 1f bd bf ac d5 3d 2b 07 1b be
       -0.15873927 -0.038909163 0.10433339 -0.15139453
000090 df 2a 0d 3a bd d9 39 bd 26 ee a5 bd ea 77 0b bd
       0.00053851114 -0.045373667 -0.08102064 -0.034049906
0000a0 42 51 e5 bd e4 3f 6a bd e4 b3 a6 bd fc df 91 bd
       -0.11197139 -0.057189837 -0.0813978 -0.071228
0000b0 45 60 fe bd 19 1c ac 3d 61 b2 24 be 72 be 01 bd
       -0.12420706 0.08403797 -0.16083671 -0.031675763
0000c0 18 b5 fb bc 13 d7 60 3c ba e4 ee 3c 37 a3 34 bd
       -0.030726 0.013723153 0.0291618 -0.044100966
0000d0 09 72 08 be 8f 3d 15 be 4e f2 df bd 9d f5 a9 bd
       -0.13324751 -0.14574264 -0.10934888 -0.082988
0000e0 4b 48 ff bd c8 13 8c be 57 66 2d be 9d 48 97 be
       -0.12464961 -0.27358842 -0.16933571 -0.29547587
0000f0 ae 0a c6 bc f9 f9 6c be 3d 71 d5 be 67 7e 04 be
       -0.024175014 -0.23142232 -0.41687956 -0.12938844
000100 72 02 48 be 3f 4c 99 bd 39 f5 77 3c 30 ac a5 bd
       -0.19532183 -0.07485246 0.015134149 -0.08089483
000110 08 c3 8b bd fc 3e de bd e1 93 98 be b7 4c e9 bd
       -0.06824309 -0.10851857 -0.29800323 -0.11391585
000120 bf 41 25 be 8b c4 27 be d2 88 3f be d9 49 6d be
       -0.16138361 -0.16383569 -0.18704537 -0.23172702
000130 88 40 00 be ae d4 8f be 83 fd 18 bd 89 17 82 be
       -0.12524617 -0.2809195 -0.037351143 -0.2540858
000140 ed a0 0e be 65 13 eb bd 05 26 38 bd e6 0e 26 be
       -0.13928576 -0.114783086 -0.044958133 -0.16216621
000150 55 0c 11 3d bf a2 15 bd ce b4 00 be 97 83 1f 3e
       0.03541215 -0.03653216 -0.12568972 0.15577541
000160 0e 53 2a 3e 6b e7 7d 3d 3f 11 8e 3e 02 9c ab 3d
       0.16633245 0.061988275 0.27747533 0.083793655
000170 61 fa 21 3e 4b c0 3e 3d 75 60 9b 3d 9d 7e 69 bd
       0.15818168 0.046570104 0.07586757 -0.057005513
000180 27 8b 71 be f9 52 70 3e d5 2d dd bd 75 7f 6b 3e
       -0.23588239 0.23469152 -0.107997574 0.2299784
000190 f8 2d 0d bf 6f 26 b9 3e 37 db 12 3d 60 e5 1d bd
       -0.5514827 0.36162135 0.03585359 -0.038548827
0001a0 fd ab 38 bd 20 ba 47 bd 38 f5 8a 3c eb 7a 3f 3d
       -0.045085896 -0.048761487 0.016962633 0.046748083
0001b0 f5 cd 0a bc 81 61 fc bd 24 50 1f bd 87 26 2b 3d
       -0.008471956 -0.12323285 -0.038894787 0.04178479
0001c0 18 a5 3d bd 98 e4 4b bc cd 17 8d 3d 97 34 e6 bd
       -0.046300024 -0.012444638 0.06889305 -0.112404995
0001d0 24 3a 24 3d b8 2d 2c 3d db 0d 67 3d 42 eb 13 3d
       0.04009451 0.04203579 0.056409698 0.03611303
0001e0 8f 32 eb 3c 90 97 89 bc d5 48 ad 3b ef 6e 8f ba
       0.028710632 -0.016795903 0.0052882233 -0.0010943095
0001f0 5d e1 2c bd 4f 56 9d bc 92 38 7d 3d 81 7f d2 bd
       -0.04220711 -0.019206194 0.061821528 -0.10278226
000200 e7 4e 21 be 17 b9 5e be 8b d3 2c be 88 11 3f 3e
       -0.15752755 -0.21750294 -0.16877572 0.18659031
000210 98 95 80 3d 59 f6 4e be d5 ec 5a be 1c ba 6c 3e
       0.06278533 -0.20211162 -0.21379407 0.2311787
000220 80 0e ae bd 87 43 a0 be f1 15 8f be c1 c7 a6 bd
       -0.084988594 -0.3130152 -0.27946427 -0.08143569
000230 79 98 f3 3d bf ed 85 be 06 65 44 be eb 1c 74 3e
       0.11894316 -0.26157948 -0.19179162 0.23839156
000240 16 4e 3f be 3e 1e 2d be 50 35 fa bd 58 a5 7e be
       -0.18682131 -0.16906068 -0.122172 -0.24867761
000250 65 82 95 bd fb f4 89 ba 6a af 7e bd e5 2a f3 bd
       -0.073002614 -0.001052528 -0.062179007 -0.11873416
000260 de 66 6c be 03 f9 cd bc e4 04 a6 bd 88 ad 23 3e
       -0.23086116 -0.025143152 -0.081064016 0.15984166
000270 22 bd 1f be 16 cf 2a be e5 c4 11 3d f2 15 2d 3e
       -0.15599492 -0.1668056 0.035588164 0.16902903
000280 51 da 11 be 05 32 1d be 0e 84 06 be d4 7e 64 3e
       -0.14243437 -0.15351112 -0.13136312 0.22314006
000290 6b 04 dc bd d1 b9 5f be 9d d9 20 be d4 0e 1c 3e
       -0.1074303 -0.21848227 -0.15708013 0.15240031
0002a0 27 70 93 bd 6d 75 52 3b 2d f7 35 bd 95 c0 00 be
       -0.07199126 0.0032113448 -0.04442518 -0.12573464
0002b0 c3 6d 3a be cf 88 f3 bd d7 e4 4b 3d 58 c2 a6 bd
       -0.18205933 -0.118913285 0.049778786 -0.08142537
0002c0 69 15 ed ba 0a f8 c2 bd 86 f6 c8 bc 45 03 8c be
       -0.0018088046 -0.09519966 -0.024531614 -0.27346244
0002d0 a5 50 ba 3e b7 f1 56 3d 96 20 78 be c5 92 92 3e
       0.36389652 0.05247661 -0.2423118 0.286276
0002e0 94 72 fc 3d 7a 60 18 bd 65 8e 54 3d f3 50 85 be
       0.123265415 -0.037201382 0.05189361 -0.26038322
0002f0 d0 69 ae 3d 37 37 89 bd 53 bd c9 bd 71 55 7d 3e
       0.08516276 -0.066999845 -0.09850564 0.24739625
000300 f1 1a d7 bd a1 4c 46 3b 1d 45 d6 bc 0e 88 bb bc
       -0.105031855 0.0030258077 -0.026156003 -0.022892024
000310 43 d4 17 3e d5 d0 9b bd 25 04 be 3d 88 32 00 bd
       0.14827065 -0.07608191 0.09278134 -0.03129819
000320 a0 25 a4 3d b0 78 65 bd 6f 77 79 bb 70 31 4a be
       0.08014989 -0.0560233 -0.0038065573 -0.19745421
000330 7d e2 93 bd 29 82 c7 bd 19 27 23 bd 38 d6 56 bd
       -0.072209336 -0.09741623 -0.03983221 -0.05245039
000340 a5 6c 7c 3e a4 40 7e bd 03 0d f4 3d a0 09 a1 be
       0.2465082 -0.062073365 0.11916544 -0.31452656
000350 fc e7 25 bd 33 d0 01 be d1 07 da 3e 00 08 c8 3e
       -0.04050444 -0.12677078 0.42584088 0.39068604
000360 d6 4a 86 3e 42 52 09 3e bc 0e 0e bc 07 35 29 be
       0.2622897 0.13410285 -0.008670505 -0.16524135
000370 6e 58 c6 3e c1 ec 11 be 0b a7 0f be 49 3c b6 3e
       0.38739341 -0.1425047 -0.14028566 0.3559287
000380 64 09 a2 3e 64 a2 be 3e c0 3e 97 3e 97 bb 9f 3e
       0.3164779 0.3723327 0.29540062 0.31197807
000390 6b 84 80 3e 5a 4e bb 3e ba 3d 94 3e 1c cb 88 3e
       0.25101027 0.36583215 0.28953344 0.2671746
0003a0 75 bc 87 3e bb 55 d6 3e ce 13 cc 3e 7f a1 9f 3e
       0.2651097 0.41862282 0.3985886 0.311779
0003b0 ce 0c 80 3e b8 e4 3e 3e ec 54 34 bb 2d 89 e5 bd
       0.2500977 0.18641937 -0.0027516438 -0.11207805
0003c0 2e 91 1f be 3a f5 85 3e c3 ed 21 3e 50 67 73 3e
       -0.15582725 0.26163656 0.15813355 0.2376988
0003d0 b7 16 97 3e d6 ce 68 3e 1d 19 7d 3e 0a a8 52 3e
       0.29509518 0.22735152 0.24716611 0.20571914
0003e0 ef 7e fe 3d 7a 50 1e 3e b2 06 47 3e e6 42 d1 3e
       0.124265544 0.15460387 0.19436148 0.40871352
0003f0 87 7b 61 3e f6 1b 07 3e 5f 73 20 3e 74 69 65 3e
       0.22019778 0.1319426 0.1566901 0.22403508

backbone.0.bias f4 [258]
000000 b9 f1 9a bd ec 1c 7f 3e e8 5c 04 be 82 b6 64 3d
       -0.07565636 0.24913377 -0.12926066 0.055838116
000010 03 98 08 3f ba 42 70 3e c0 a4 df 3d 5c 70 b1 be
       0.5335695 0.23462954 0.109200954 -0.34656036
000020 74 10 0f 3e 8a 05 7b 3d 7c 12 fc bd b1 f2 93 be
       0.1397112 0.06128458 -0.12308213 -0.28896096
000030 60 2e a5 be cd 27 09 bc 95 1c 0a bf 61 0c e5 3d
       -0.32261944 -0.008371306 -0.5394986 0.11184002
000040 49 d5 8b bd 5a 9a b3 be 96 76 11 3e fc c8 b1 bd
       -0.0682779 -0.35078698 0.14205393 -0.08680913
000050 26 18 96 be 9a 68 14 3f 6b 19 ed 3d 56 cb d3 3d
       -0.293153 0.5797211 0.11577114 0.103415176
000060 96 0c 34 bd 19 38 b9 3e 22 9b a2 be c8 5a 95 bd
       -0.043957315 0.36175612 -0.31758982 -0.07292706
000070 7d fd 7d be 46 90 15 3d f0 93 a5 3c a5 0c 44 be
       -0.2480373 0.036514543 0.020212144 -0.19145449
000080 5c 08 b1 3e 50 9f 2a be 34 0d 0b 3d 19 e8 1d 3e
       0.3457669 -0.16662335 0.03394814 0.1542057
000090 c9 b8 43 bc ca a0 55 be d7 3d 46 3f 55 83 84 bd
       -0.011945912 -0.20862117 0.7743811 -0.06470362
0000a0 6b 51 cc bd 71 78 20 bd 5d 48 23 3e 06 84 06 3f
       -0.09976467 -0.039177362 0.15945573 0.525452
0000b0 39 bc dd bc 24 14 6d 3e db fa 44 3e 4b 66 14 bf
       -0.02706729 0.23152214 0.19236319 -0.57968587
0000c0 b1 bb 33 3e e5 85 ba be 6f 0d f8 bd 62 c4 91 3d
       0.17552067 -0.36430278 -0.12111937 0.07117535
0000d0 17 b2 f8 bd 43 f5 17 3e 94 2f 20 3f 29 15 ca bd
       -0.12143343 0.14839654 0.625726 -0.09867317
0000e0 55 7b 7a 3e 8a 70 89 3e 3d 00 05 3f 11 2e 71 3e
       0.2446111 0.26843673 0.5195349 0.23552729
0000f0 9b 0d e5 be 28 0f a8 be a2 e6 f4 be 4e e0 82 3e
       -0.44736943 -0.32824063 -0.4783221 0.25561756
000100 0e c5 1f 3d 98 4c 17 3f e5 96 16 be be e8 3d be
       0.039006285 0.5910125 -0.14705999 -0.18545815
000110 e6 d8 90 3d f3 0e 71 3f 92 19 a9 3d e9 5e a6 3e
       0.0707262 0.94163436 0.0825683 0.32494286
000120 88 96 e2 3d ac 95 5d bd 21 c0 fa 3e 1d c4 8f bc
       0.11063868 -0.054097816 0.48974708 -0.017549569
000130 12 b3 4f be 32 7b 9a be 84 b3 2a 3f 8a ea b6 be
       -0.20283154 -0.30172116 0.6668017 -0.35725814
000140 b7 e0 ee be a2 22 f0 3d 76 0d c9 bd 1c 03 04 bc
       -0.4665582 0.11725356 -0.098170206 -0.008057382
000150 36 cc a7 3e df 5b b4 3e 26 da cb 3b f9 16 21 3d
       0.32772988 0.35226342 0.0062210737 0.03932855
000160 b3 53 e7 bd 25 e8 99 bd 15 89 74 be 85 d3 47 be
       -0.11295261 -0.07514981 -0.23880418 -0.19514282
000170 7b 66 88 bd 95 be 3c bb a6 a7 47 be 19 66 96 3e
       -0.066601716 -0.002880012 -0.19497547 0.2937477
000180 61 13 41 3e ed 19 87 be 48 c6 8e bf 35 7b 8e 3d
       0.18855049 -0.26386967 -1.1154261 0.069570936
000190 3d 4d 05 3d 72 c1 d6 3b c2 7d 8c bb 91 18 6f bc
       0.032544363 0.006553822 -0.0042874524 -0.014593259
0001a0 b1 12 cb 3d 3e a5 53 3f 0b f6 12 3e 8a f9 7e be
       0.099156745 0.82674015 0.1435167 -0.24899879
0001b0 d1 ed 58 3d f2 5d 27 3e 18 0a 49 3e 1f 66 84 bc
       0.052961174 0.16344431 0.19632757 -0.016161976
0001c0 91 7d 9e bd 06 f6 8c 3e 87 52 55 be 5a 48 61 3d
       -0.07738794 0.2753145 -0.20832263 0.05500064
0001d0 3b e5 ec bc 56 29 db 3d 11 43 47 be a0 13 a7 3d
       -0.0289179 0.107012436 -0.19459178 0.0815804
0001e0 fc 30 69 be e3 8d e7 3d 2b 06 5e 3e 6b a4 fc 3e
       -0.22772592 0.113063596 0.2168204 0.4934419
0001f0 58 14 1c be e7 b1 f6 bd 31 b9 61 be 6a eb 63 be
       -0.15242136 -0.12045651 -0.22043301 -0.22257772
000200 b8 7b 0d bd a7 64 5a be eb 5e 57 3f a7 80 b0 be
       -0.034541816 -0.21327458 0.8412921 -0.34473154
000210 47 37 07 3e dc 02 82 3e 03 22 43 3e 15 2c 2e 3e
       0.1320468 0.25392807 0.19055943 0.17009003
000220 38 62 ff bd c5 e2 6e 3e 21 2f f7 3d c1 11 84 bd
       -0.124699056 0.23328693 0.12069536 -0.06448699
000230 59 7e e1 be 41 9c 76 3e 0d 84 93 bd b4 37 4b 3f
       -0.44041708 0.24083044 -0.07202921 0.7938187
000240 dc 71 da 3d e1 5d 59 3e b5 e5 d6 bb 6b cc ac 3e
       0.10666248 0.21227218 -0.006558145 0.3374971
000250 d3 e3 d7 bd 9f 38 f6 3d 48 4a 96 bd c6 f0 b2 3d
       -0.10541501 0.12022518 -0.07338387 0.0873733
000260 c2 c8 6c 3f 97 a2 86 be 5f 1e 44 3e 61 0a 31 be
       0.9249383 -0.2629592 0.1915221 -0.17289115
000270 45 3b 77 be 20 cb 31 be db d6 37 be 72 2a 41 3d
       -0.24143703 -0.17362642 -0.17953055 0.04715962
000280 08 7a 79 be ea fe 55 3f d9 db 23 3e 0a 4f ed be
       -0.24362957 0.83592093 0.16001834 -0.46349365
000290 b2 d1 d2 be 8a b9 69 3e c7 c1 81 be 3e 88 d9 3d
       -0.4117561 0.22824684 -0.25343153 0.10621689
0002a0 7e 69 a2 3e 87 7f 31 be 10 02 bb 3d 74 1b 9b be
       0.3172111 -0.17333804 0.09131253 -0.30294383
0002b0 f5 bf b8 bd a7 2c be 3d 02 d7 50 3f bc 33 99 bc
       -0.09020988 0.092858605 0.81578076 -0.018701427
0002c0 00 85 2e 3e 64 71 1e be 6b 0f 4e bd ac ef af be
       0.17042923 -0.15472943 -0.050307672 -0.34362543
0002d0 82 b4 e4 3d 8c 04 75 3e eb a8 dd be b7 9e 56 be
       0.11167242 0.23927516 -0.43292937 -0.20958982
0002e0 3a 3c b9 3e 90 03 28 be 50 83 61 3d 15 51 18 be
       0.36178762 -0.16407609 0.05505687 -0.1487468
0002f0 89 82 d5 bc a3 8f 0f be fd 2a 34 3d 06 e0 a2 3e
       -0.02606322 -0.14019637 0.04398631 0.3181154
000300 18 af 8e bd 71 8b ad be 73 1c e4 3e 2c a5 f1 3e
       -0.0696699 -0.33895448 0.44552955 0.4719633
000310 30 3b 12 3f e8 78 c2 3e 64 2e 0f 3e 70 8e 72 3e
       0.5712156 0.3798287 0.1398254 0.23687148
000320 74 84 46 3e d7 b0 2f 3e 9a 59 0e bf 39 e5 b2 be
       0.19386464 0.17157303 -0.5560547 -0.34940508
000330 8d b0 90 3e 01 a8 8c be 5a 04 d0 bd 39 22 68 be
       0.28259698 -0.27471927 -0.1015708 -0.22669305
000340 47 ba 3d bc ce 67 8d be 2c 3a 12 3f 82 91 a9 be
       -0.0115800565 -0.2761826 0.57120013 -0.33118826
000350 36 c6 4a be 03 9a f7 be dc a7 91 3e 75 43 96 bc
       -0.19802174 -0.4835969 0.2844838 -0.018342713
000360 bd 7f 42 3e a7 5d ac 3e 1e 3b 7a be 5c 83 c1 bd
       0.18994041 0.336652 -0.24436614 -0.09448883
000370 b0 82 29 3e 0a 60 80 bd 22 85 d7 3b 64 58 53 be
       0.1655376 -0.06268318 0.00657715 -0.20639187
000380 cc 89 87 be 35 25 39 be 4c fa 28 3e d6 1b 15 3e
       -0.26472318 -0.180806 0.1650173 0.145614
000390 55 a2 14 3f 83 f5 aa be 74 20 a2 3e fa 6f 09 3f
       0.580602 -0.33390436 0.31665385 0.5368649
0003a0 b5 d0 93 be 90 c4 63 be bc 53 47 3e 0f 14 c6 3d
       -0.28870168 -0.22242951 0.19465536 0.096717946
0003b0 95 b2 e8 3e 70 8c e8 3d f1 64 0e be 9c f9 81 bd
       0.45448747 0.11354911 -0.13905694 -0.06346437
0003c0 c9 f5 31 3e 4c 70 7f bc a9 d7 05 bf 85 f9 46 3c
       0.17378916 -0.0155907385 -0.52282196 0.012144451
0003d0 52 46 b5 3d 9a a2 6f be 46 4b 63 3d 0c 5c 08 be
       0.08851303 -0.23401871 0.05549171 -0.13316363
0003e0 da 48 e3 bd 62 55 89 3e 09 b2 aa be ca c2 df 3e
       -0.1109788 0.26822954 -0.33338955 0.437033
0003f0 af 3d 05 3e 9e 62 d0 3d ca d2 95 3d 01 52 4b 3f
       0.13011812 0.1017506 0.073155954 0.79422003

backbone.3.weight f4 [258, 258]
000000 63 de 81 bd 7e d0 88 bd fb 55 3f 3c a7 8d 56 bd
       -0.06341245 -0.06680392 0.011678214 -0.052381184
000010 9f 81 3b be 46 59 55 be 2a c1 28 be 29 7e 13 be
       -0.18311165 -0.20834836 -0.16479936 -0.14403595
000020 5d b4 23 3c 0b bf bb bd 58 eb a1 bd 95 6d ac bc
       0.009991732 -0.09167298 -0.079062164 -0.021048347
000030 7d 54 c1 bd b5 71 44 3d f7 e1 fb bb 85 46 9f bd
       -0.09439943 0.047960002 -0.007686849 -0.077771224
000040 89 b5 36 bc 28 a9 90 bc e9 41 4f bd d7 c3 1a bd
       -0.01115168 -0.017658785 -0.050599966 -0.037784424
000050 b9 7f 7f bc bd e5 01 be ff 02 8f bd 25 cc 29 bd
       -0.015594416 -0.12685294 -0.06982993 -0.041454453
000060 02 ff db bd cc 0d 1a be f9 c0 4f be fe 82 d6 bd
       -0.10741998 -0.15044326 -0.20288457 -0.104742035
000070 8b 5c 31 bc 86 a1 ec bc f9 23 d4 bd c0 2d 3f be
       -0.010825287 -0.028885614 -0.10358424 -0.18669796
000080 28 07 24 3d 87 56 23 be 12 91 d2 3c 2f 1a da 3c
       0.040045887 -0.15950976 0.02570394 0.026623813
000090 82 12 81 bd 76 05 59 bc f4 0a 35 be 38 04 a8 be
       -0.06302358 -0.013245931 -0.1767996 -0.3281572
0000a0 c0 4c cb 3c 83 c8 1e be 1c ce d2 bd 65 ec e3 bd
       0.02481687 -0.15506177 -0.102932185 -0.11129073
0000b0 d7 9b b8 be d7 92 87 be e5 7c 9f 3c a8 96 4a bd
       -0.36056396 -0.26479217 0.019468734 -0.049460083
0000c0 0c 43 7e be a3 05 20 3d b7 ba 3f be 34 e7 5c bd
       -0.24830264 0.039067876 -0.1872357 -0.05393143
0000d0 70 8b 3c 3d 28 ef 1d bd 5f 2f 6e bd a8 1f 94 3b
       0.046031415 -0.038558155 -0.058150645 0.0045203753
0000e0 63 45 af 3d bd a7 c2 3c 75 57 38 be 5d 46 18 bd
       0.08558156 0.023761624 -0.18002112 -0.03717648
0000f0 97 72 19 bd 3b 0a 95 3b c9 b0 6f be 8f 7d c8 be
       -0.037462797 0.0045483387 -0.23407282 -0.39158294
000100 d4 4b 8c 3c dc 2e d2 bd 66 65 89 bc c9 ef c0 bd
       0.017126001 -0.10262844 -0.016771983 -0.094207354
000110 65 56 c8 bd 28 36 6c be 56 0c b3 bd 11 83 7c bd
       -0.097821034 -0.23067534 -0.08742587 -0.061648432
000120 f6 91 98 3d e1 89 84 be f8 1e ef bd e3 c6 0b be
       0.07449715 -0.25886443 -0.11675829 -0.13650088
000130 f6 ff 6f bd cb 47 0c bc e3 59 23 3c 71 1e d0 bd
       -0.058593713 -0.008562039 0.009970161 -0.10162056
000140 ee 89 1a bd f7 bc 73 bd 80 c3 ec bd 26 11 1b bd
       -0.037729196 -0.059506383 -0.11560726 -0.03785815
000150 e8 77 45 bd 2c 89 a7 bd de 18 b8 be 61 9e 5b bd
       -0.048210055 -0.0818046 -0.35956472 -0.05361784
000160 33 62 b3 3d 34 8d 13 be 95 c2 18 bd c1 ae 29 be
       0.087589644 -0.14409333 -0.037294943 -0.1657057
000170 cc b2 ea bd 1a 69 21 be 1a 95 98 bb 0a 57 be bd
       -0.11459884 -0.1576275 -0.004656446 -0.09293945
000180 a3 43 8d be 3b 83 0e be 97 a9 e4 3e aa 9d 94 bd
       -0.27590665 -0.13917248 0.44660637 -0.072566345
000190 2a 84 42 bd a5 81 37 be f0 7e a1 bd 71 d2 d6 3b
       -0.047489323 -0.17920549 -0.078855395 0.0065558483
0001a0 51 a6 3b be dc 9c 6e bd d7 da 3c be 49 00 a2 bd
       -0.18325163 -0.05825506 -0.18442856 -0.07910211
0001b0 81 b1 8c 3d f6 21 8f bc 58 c5 5c be 32 41 20 bd
       0.06869794 -0.017472249 -0.21559656 -0.039124675
0001c0 53 cf 17 be 05 67 20 be d7 5a 14 bd 25 5a 0a be
       -0.14825182 -0.15664299 -0.036219444 -0.1351095
0001d0 6e 4d 98 bd 77 ba 33 be 3f 68 73 be 82 e1 7a bd
       -0.074366435 -0.175516 -0.23770235 -0.061250217
0001e0 09 13 b7 be 3e a3 1c be e1 89 c3 bc 7f b5 1b be
       -0.3575671 -0.15296647 -0.023869457 -0.15205954
0001f0 f6 56 b2 bd a8 ed 97 3c 46 3b 27 bd 43 4e ef bc
       -0.08707993 0.01854594 -0.040828012 -0.029212123
000200 c1 aa 06 be 9b e4 fe bd ef 49 98 bd a0 ba 84 bd
       -0.13151075 -0.12445947 -0.07435977 -0.064809084
000210 77 a7 1b bd b7 e4 3f be e2 50 46 be 80 03 22 be
       -0.038001504 -0.18739592 -0.19366792 -0.15821648
000220 3d fe 93 bd ed dd 4b be 8d b4 b0 bd 53 a6 b0 bd
       -0.072262265 -0.19908877 -0.08628187 -0.08625474
000230 fc f2 80 3d 15 8e f1 3b ce d6 fd bc 47 34 0c be
       0.062963456 0.007371674 -0.030986216 -0.13691817
000240 15 6c 36 be 8a 63 29 bd f2 36 9a bc b4 0b 88 be
       -0.17814668 -0.041354693 -0.018825028 -0.2657143
000250 d6 4f 30 be 10 03 0a be 46 2b 20 3d 6d da c8 bd
       -0.17217955 -0.13477731 0.03910377 -0.098072864
000260 23 e9 02 bd 66 ab b2 bb 05 cb 2e be c3 5d 68 bb
       -0.031960618 -0.005452561 -0.17069633 -0.0035456277
000270 fd a6 d3 bc 96 a3 c5 3d f9 1f af bd 3e 75 de bd
       -0.025836462 0.09650342 -0.0855102 -0.10862206
000280 bd 2f 1a 3d fd a4 b5 bd 49 9e b3 bd 05 7d 1a be
       0.037643183 -0.0886936 -0.08770425 -0.15086754
000290 8c 90 53 be 80 ea 22 be 67 f6 00 ba 01 87 27 be
       -0.20660609 -0.15909767 -0.00049195293 -0.16360094
0002a0 a4 e4 1f be 08 98 d9 bd 01 85 28 3d b3 fb c3 3d
       -0.15614563 -0.10624701 0.041142467 0.09569492
0002b0 30 a6 ba be bb d9 24 bd 25 8a 8f bd 03 a0 10 bd
       -0.36454916 -0.040246706 -0.07008771 -0.03530885
0002c0 27 fa 1a bc 6a f3 9b bd da 67 b2 bd 37 11 e9 3c
       -0.009459055 -0.07614787 -0.08711214 0.028450591
0002d0 73 5d 26 bb 48 5c 14 be 7a 0d 2f 3d c2 1e b2 bd
       -0.002538529 -0.14488328 0.04273746 -0.08697273
0002e0 1f 65 9d bc 1c 12 28 be 7f ee 8b be 19 21 5e be
       -0.019213257 -0.16413158 -0.27330396 -0.21692313
0002f0 71 26 da bc 6b 50 76 be 41 20 94 bd 06 14 e5 bd
       -0.026629658 -0.24054115 -0.072327144 -0.1118546
000300 3e 35 84 bd 8a 68 1a 3d e8 49 21 be 7f 17 8d bd
       -0.06455468 0.037697352 -0.15750849 -0.06889247
000310 68 7d 26 be 5f 07 5b be 8c 31 1a be 5c 42 8a be
       -0.16258776 -0.2138953 -0.15057963 -0.27003753
000320 1f 9c b7 bc 0b e1 5d bd 38 37 88 3c 93 f9 43 bd
       -0.022413312 -0.054169696 0.016627893 -0.047845434
000330 21 08 25 be 04 4a 9d be 9c 1a dc bb 4a 4e f4 bd
       -0.16116382 -0.30720532 -0.0067170393 -0.11928995
000340 db 0f 28 bd a1 b3 e8 bd eb e9 77 bd f3 36 08 bd
       -0.041030746 -0.113623865 -0.060525816 -0.03325553
000350 b8 ac 80 3d 8a 07 e3 bd 9a 44 6d 3b a3 ee bd 3d
       0.062829435 -0.11085422 0.003620422 0.09274032
000360 ec da ad bd 3f 05 ae 3c 22 5e 85 bd 35 ca 03 3c
       -0.08489022 0.021242736 -0.06512095 0.008043815
000370 b2 cc 8b bd c6 e1 63 bd 71 71 c7 3c 98 f0 2f bd
       -0.06826152 -0.055635236 0.024346085 -0.042954057
000380 76 9c 7a be 56 f3 48 bd ea cd 2c be 67 5e f6 bd
       -0.24473748 -0.04906019 -0.16875425 -0.120297246
000390 f2 5b 0d bd aa da d0 bd 59 63 1e be fa e7 b2 bd
       -0.034511514 -0.10197957 -0.15467586 -0.08735652
0003a0 8f 5b 27 bc 8c f5 ee bc 67 71 7c be 1c 70 50 bd
       -0.0102147 -0.02916982 -0.24652635 -0.050888166
0003b0 de 81 08 bc a6 9b 1b bd b7 f3 24 bd 77 66 bf bc
       -0.008331744 -0.037990235 -0.040271487 -0.023364289
0003c0 4f 21 8a be 1e 13 16 ba ad b3 04 be 5b b7 f4 bd
       -0.26978537 -0.00057248946 -0.12959166 -0.11949035
0003d0 ca 71 29 bd a1 b3 8f be f6 da 9c be 79 18 cd 3c
       -0.041368283 -0.28066733 -0.30635804 0.025036084
0003e0 2f cb 50 bc 01 9e 6a be be a3 f5 3b bf 44 d8 bd
       -0.012743755 -0.22911836 0.007496326 -0.10559987
0003f0 8b 95 3c be 93 2d 15 be c1 af 82 bd 36 dc 65 be
       -0.18416421 -0.14568166 -0.06381179 -0.22447285

backbone.3.bias f4 [258]
000000 91 20 74 be 60 60 a0 be 81 44 91 be a5 08 2a 3c
       -0.23840548 -0.31323528 -0.28372577 0.010378038
000010 ed 77 de bd 0d c9 14 be d7 ef a1 3d 47 e2 33 be
       -0.10862718 -0.1452982 0.07907074 -0.17566787
000020 8b 33 84 ba 7b 32 59 be 80 48 3b be 96 c5 fa bc
       -0.0010086162 -0.21210663 -0.18289375 -0.030611794
000030 47 2b c9 bd 51 35 08 3e 90 f5 19 be 1d f6 83 bd
       -0.098227076 0.13301589 -0.15035081 -0.06443427
000040 b1 af 9c bd 31 2d c8 bd b4 69 e4 bc 6c be 52 be
       -0.07650698 -0.097742446 -0.027882434 -0.20580453
000050 52 3c d4 3c b6 4c a1 be e9 55 43 3c 1f 44 87 bd
       0.02590767 -0.31503838 0.011922338 -0.0660479
000060 eb d3 31 bc 0a 70 b7 bd d1 a6 02 be 2b 13 c4 bd
       -0.010853748 -0.08956917 -0.12758948 -0.095739685
000070 4f 7e 47 be cd fc ac bd 68 e6 ba bd 64 6e df bc
       -0.19481777 -0.084466554 -0.09125978 -0.027274318
000080 90 b7 b6 3d ae 57 a3 bd 2c 7e 21 3e 85 7a 17 3e
       0.089217305 -0.07975708 0.15770787 0.14792831
000090 dd 4f 67 be 87 39 3f be a5 3b 9b 3e 01 2a 3b be
       -0.22589059 -0.18674289 0.30318943 -0.18277742
0000a0 cb 6c 68 3d 1b f3 c2 bc 67 f6 e8 bc 55 64 17 3e
       0.056744378 -0.023797562 -0.028437806 0.14784367
0000b0 80 0d 1e 3d 64 1e 18 be 99 c1 35 bd 19 a6 58 be
       0.038587093 -0.14855343 -0.044374082 -0.21157111
0000c0 ff 1b 76 3c 45 e1 f1 ba 85 85 c0 bd 7e de 88 be
       0.015021323 -0.0018453976 -0.09400467 -0.26732248
0000d0 08 a7 ab bc 74 3d 43 be 6a a9 d9 bd 1d ce 5f be
       -0.02095367 -0.19066411 -0.10628016 -0.2185597
0000e0 c6 e1 6a 3c 32 4b e1 3d 50 25 bb bc 38 94 5b 3f
       0.014336055 0.110006705 -0.02284494 0.8577304
0000f0 db 2b d2 bd 84 28 38 be 38 b0 50 3e f9 49 83 be
       -0.10262271 -0.17984205 0.20379722 -0.25642374
000100 42 62 cc bd ba 28 78 be 46 be e7 bd bb a5 32 be
       -0.09979679 -0.24234286 -0.11315589 -0.17446034
000110 09 c7 92 3e 4e 8c cf 3e 5b 3b 90 be 0a 92 ab bd
       0.28667477 0.4053673 -0.28170285 -0.08377464
000120 fd 7c d8 3c ba eb 1b 3e ee c0 b5 bd 2b 95 9f be
       0.026426787 0.15226641 -0.08874689 -0.31168494
000130 f4 4a aa 3d 57 70 05 bd 41 c8 4b be 65 1a 61 bd
       0.083150774 -0.03257784 -0.1990061 -0.054956812
000140 c9 66 56 3e ad cb 38 bc c0 42 f2 bd 91 0c 54 bd
       0.20937647 -0.011279029 -0.11829138 -0.051769797
000150 db 40 18 3e fa b4 17 be 86 b8 1b be d5 29 33 be
       0.1486849 -0.14815131 -0.15207109 -0.17496426
000160 02 92 a2 bd b4 cb 1b 3f bc f8 c8 bd 9a 65 94 be
       -0.07938005 0.608577 -0.09813067 -0.28983766
000170 25 d6 d6 bd 37 45 10 be c6 b4 1b be cd 33 9e be
       -0.104900636 -0.14088903 -0.15205678 -0.30898896
000180 5c 39 16 be 3a 79 23 be db a2 5c be 1d 8b 65 bd
       -0.14670318 -0.15964213 -0.215465 -0.056040872
000190 e9 53 4f be 34 e8 89 be 1b 87 df bd 52 33 ec 3e
       -0.20246853 -0.2693497 -0.10914441 0.46132904
0001a0 8e c4 58 be c0 f5 af 3d 68 54 f1 3c e3 a7 64 be
       -0.2116873 0.08591795 0.029459193 -0.22329669
0001b0 a4 ef 4e be 9b cc 45 bd a9 34 8f be 3a 2f 38 be
       -0.20208603 -0.04829083 -0.27969864 -0.17986766
0001c0 2b 83 ae be d8 98 d2 3e 73 c1 82 be 30 f9 d0 3d
       -0.34084448 0.41132236 -0.25538215 0.10203779
0001d0 29 33 38 bd 5b 0e be bd 8e 5a 83 3c 90 67 6a be
       -0.044970665 -0.09280082 0.01603439 -0.22891068
0001e0 6d 87 b8 bd 12 44 a4 bd 8d 3d a4 3c 4a 8e bd bc
       -0.090102054 -0.08020796 0.020048881 -0.023139138
0001f0 02 45 8b 3d a4 51 23 bd 06 87 39 be f0 75 4e be
       0.068002716 -0.03987278 -0.18117914 -0.20162177
000200 f1 28 34 be 59 d7 13 be 37 bd f5 3d 3d f6 d1 bd
       -0.17593743 -0.14437617 0.119989805 -0.10252044
000210 ef fe 88 bd 10 f7 57 3e 9e 1e 03 be 96 4b 28 be
       -0.0668925 0.2109034 -0.12804648 -0.16435084
000220 c7 b6 df bd 18 d7 d3 be b4 5f 39 be 8e b8 4f be
       -0.10923534 -0.4137504 -0.18102914 -0.20285246
000230 c8 36 44 be 1a 1d 3b bc 03 21 84 be 21 29 19 be
       -0.19161522 -0.011420513 -0.25806436 -0.14957096
000240 8b 9a 9a be cf c3 86 bd 01 1a b1 bd d1 d9 48 be
       -0.30196032 -0.06580316 -0.08647538 -0.1961434
000250 17 56 de bd 9e 96 53 3e de b5 5a be 99 81 d6 bc
       -0.10856264 0.20662925 -0.2135844 -0.026184844
000260 10 9a db 3d 85 a5 e0 3d 51 e3 3f be 12 9c fb 3d
       0.107227445 0.1096907 -0.18739058 0.122856274
000270 ce 6c d5 3d 9b 4e ad 3c 7a f7 fd bc df 2d 65 bd
       0.104211435 0.021155646 -0.031001795 -0.05595195
000280 70 13 9f bd c2 5a 60 3e cf 06 a3 be ad 1b 25 3e
       -0.07767379 0.21909621 -0.31841132 0.16123839
000290 a8 92 0a be 0c 08 08 be 43 02 2d be 39 00 e0 3b
       -0.13532507 -0.1328432 -0.16895394 0.006835964
0002a0 18 0a 88 bd 13 1d 51 be 93 37 10 be c6 f0 6b be
       -0.0664255 -0.20421247 -0.140837 -0.23041067
0002b0 4d 8b 2d be 2a f6 88 be cf a1 8c bd f6 1f dc bd
       -0.1694767 -0.26750308 -0.068668 -0.107482836
0002c0 e0 19 80 be 3b e1 9e bc f4 26 82 bd e3 1a 23 bc
       -0.2501974 -0.019394508 -0.06355086 -0.009955141
0002d0 ef 61 4a be 7f 62 0b 3b e2 9c 05 3d 94 1c 5c 3d
       -0.19763921 0.0021268425 0.03262032 0.05373819
0002e0 4e ae 5d be 6f 50 f5 bd 24 72 0d 38 e3 df 24 be
       -0.21648523 -0.11978232 3.372332e-05 -0.16101031
0002f0 23 90 8f be c7 a2 e3 3b 2a 3b 0c 3e a0 6c fa bd
       -0.28039655 0.006946895 0.13694444 -0.1222775
000300 d4 54 1f be ba 14 80 be 33 3b 22 be fb 2e 87 be
       -0.15559703 -0.25015813 -0.15842895 -0.2640303
000310 cc 31 61 be 8f d3 94 bd 73 13 88 3c f6 f7 bf 3e
       -0.21991652 -0.07266914 0.016610837 0.37493867
000320 af b8 8f be a2 0f 3c 3e 1d 98 06 be 96 37 87 be
       -0.2807059 0.18365338 -0.13143964 -0.26409596
000330 b6 ad e1 bd 60 59 67 be 00 82 3d be fe a9 3d be
       -0.11019461 -0.22592688 -0.18506622 -0.18521878
000340 29 5b 59 be b9 10 68 be 61 9e 6c bd 7d b2 59 bd
       -0.21226181 -0.22662629 -0.05776823 -0.053148735
000350 27 6d 01 3e 76 b7 72 3d 01 0a 68 bd 6c 91 7c bd
       0.12639295 0.059256993 -0.056650165 -0.061662123
000360 cd f9 72 be 37 79 69 3d 0e 94 05 be ef 52 13 be
       -0.23728104 0.057000365 -0.1304476 -0.14387105
000370 fc f6 35 be 2b ad ea bc a8 05 7e 3e ee 5f 84 bd
       -0.17769998 -0.028647026 0.24806845 -0.0646361
000380 5d 83 ad be 22 c5 65 bd 75 f1 0e 3d d8 b2 5d bd
       -0.33889285 -0.056096204 0.03489824 -0.054125637
000390 ef 61 d5 3d 78 f7 9a 3d 30 b8 3e be e3 4d 1c 3e
       0.1041907 0.07566732 -0.1862495 0.15264086
0003a0 77 1a 00 3e 3f 2c a4 3c 6b 62 59 bd f2 e3 8f be
       0.12510096 0.02004063 -0.053072374 -0.28103596
0003b0 53 f0 73 3e cb a1 7e 3c 13 16 c9 bd ac d0 61 bd
       0.23822145 0.015541504 -0.098186634 -0.055130646
0003c0 6f 12 0a be cc aa 26 bf 92 01 5e be a3 8b a0 bd
       -0.13483594 -0.65104365 -0.21680287 -0.078391336
0003d0 1f 52 6c be 15 6f 68 bd d4 c0 b5 bd 02 d5 2c 3e
       -0.23078202 -0.05674656 -0.0887467 0.16878131
0003e0 05 a6 f6 bd 6f b0 97 be 7b 2a 58 bd fa ee 03 bf
       -0.120433845 -0.29626796 -0.052774888 -0.51536524
0003f0 1d 10 41 be 3b c8 1e be e1 28 17 be 79 60 ff bd
       -0.18853803 -0.1550607 -0.14761688 -0.124695726

backbone.6.weight f4 [258, 258]
000000 ff fc e6 bb bf 41 ac 3d 8a d9 8e 3d c5 d6 52 bc
       -0.0070492025 0.084109776 0.06975086 -0.012868588
000010 b1 1f dc bc ca bf aa 3d 1f 09 8c bd 1b 7c ae bc
       -0.02687058 0.08337362 -0.06837677 -0.021299412
000020 dc 97 72 3d b3 22 14 3d 8c da 15 3e c4 6a c1 bd
       0.059226856 0.036165904 0.1463415 -0.09444192
000030 57 fe a7 bb 11 40 8b 3c d1 6b c8 bd 8c 37 dc 3d
       -0.005126755 0.016998323 -0.09786189 0.10752782
000040 bc 71 dd 3c 71 43 34 bd 86 b8 5d be b0 db 75 3d
       0.027031772 -0.04400963 -0.21652421 0.060023963
000050 df e8 03 3d 8b 2d b5 3c 4f 33 42 bc 0b 46 cb bc
       0.032204505 0.022116443 -0.011853053 -0.024813673
000060 79 ad e7 3c c3 09 93 bc 2f a9 12 3d 38 b2 95 3c
       0.02828096 -0.01794899 0.035805877 0.018273458
000070 78 34 7b 3d 9b b8 1d 3d c4 0f 92 3d b1 e0 51 bc
       0.061329335 0.03850613 0.07131913 -0.012809918
000080 cc cb b2 bc 8e c6 ac bd 78 08 bb bd 47 7f 84 be
       -0.021825694 -0.08436309 -0.09132475 -0.25878355
000090 61 76 16 be 33 34 66 bd 75 98 6a 3d e5 8a 5e bd
       -0.14693595 -0.056202125 0.0572743 -0.05433168
0000a0 fc 00 02 be 8e 02 ca 3b 52 3b 8c 3c 3f be 68 bd
       -0.12695688 0.0061648553 0.01711813 -0.056822058
0000b0 45 47 8b 3d d8 f3 ae bd 15 3e e5 bd 1d 0b 32 bd
       0.06800703 -0.08542603 -0.11193482 -0.04346763
0000c0 aa ee e6 bd 10 89 22 3c 59 b4 9d 3b 21 68 d2 3c
       -0.1127599 0.009920374 0.004812759 0.025684418
0000d0 4e bf 91 3d 84 74 e4 3d 04 11 d5 bc a5 cc 0b 3e
       0.071165666 0.11155036 -0.02600909 0.13652284
0000e0 92 52 26 bd 92 b0 21 bd 26 3b 25 3d b6 8d f3 3d
       -0.04060609 -0.03947503 0.04033961 0.118922636
0000f0 b8 d0 84 bd 8d 33 39 bd d3 0d 43 3d 01 7d 88 bd
       -0.064851224 -0.04521518 0.047620606 -0.066644676
000100 f1 30 a8 bd 47 4d 17 3d d6 77 e7 bb 41 27 1e 3c
       -0.0821246 0.03693893 -0.007063846 0.009652914
000110 c4 c2 ea bd 5b 41 87 bc 4e 9d 8c 3c 43 0a 33 3b
       -0.1146293 -0.016510656 0.017164852 0.002731935
000120 d4 13 32 3d a7 61 8d 3d 2c 87 ee ba e8 9c e1 3c
       0.04347594 0.06903391 -0.0018198243 0.027540639
000130 6d f4 dc bc 72 ae a2 bb 92 60 80 bd 1d 6b 0c bd
       -0.02697202 -0.004964643 -0.06268419 -0.03428184
000140 8b 21 d1 3c 9b 5f 9d 3c 1d 74 86 bc d5 d0 50 3b
       0.02552869 0.019210627 -0.016412789 0.0031862755
000150 74 ec c3 bc 3e e3 2a 3d 36 65 b1 3d ba df 02 bd
       -0.02391646 0.04172062 0.086618826 -0.031951644
000160 78 f5 31 bd 22 f9 e2 bb a1 b8 0d 3b 15 54 16 bd
       -0.043446988 -0.0069266716 0.002162494 -0.03670128
000170 0d 3e 15 bd 7a 6b 27 3d 26 88 3f 3d 5e ae d4 3c
       -0.03643613 0.040873982 0.0467607 0.025962051
000180 9e d3 38 3d cb a1 05 3d 9d bf 82 bc 5e d3 3c bd
       0.04512369 0.032625 -0.015960509 -0.046100013
000190 63 c1 8b 3d b6 86 0d 3d 27 6b 9e bd a5 36 01 3e
       0.06823995 0.0345523 -0.077352814 0.12618501
0001a0 38 79 d6 3c 4e 29 28 3c 53 37 c2 3d 1d fd 19 3d
       0.026180848 0.010263754 0.094832085 0.037594903
0001b0 df 20 14 3d 52 ce 18 be 48 16 62 bd 21 f4 2b 3c
       0.03616416 -0.14922455 -0.05519703 0.010495217
0001c0 de 25 15 bc 60 c1 42 3b d3 34 af bb 56 70 2b bc
       -0.0091032665 0.0029717311 -0.0053468733 -0.010463795
0001d0 f6 7a a5 bd 70 de 0f bd 48 eb 23 3d 6d ca 73 bd
       -0.080800936 -0.035124242 0.040019304 -0.05951922
0001e0 76 05 4c bd ae 2d 9c 3b d6 73 d8 bc ee 41 0e bc
       -0.049809895 0.0047661876 -0.026422422 -0.008682711
0001f0 7a e1 ab 3d eb 4e 5c bb 03 60 c9 bc 5d 60 10 bd
       0.083926156 -0.0033616375 -0.024581915 -0.03524815
000200 1d 9a be bd 81 c1 0d bd 70 82 37 bd a1 02 56 bd
       -0.093067385 -0.034608368 -0.04480213 -0.0522486
000210 50 25 7c bd 73 a3 b7 3d b3 dc 54 bd d7 68 8c bc
       -0.06155902 0.08966722 -0.051968288 -0.017139835
000220 a6 30 88 3d af ba e6 3d 94 6a 11 3c 0f a4 d7 3c
       0.06649904 0.11266076 0.008875508 0.026323346
000230 b2 dd 0d be 49 aa 14 be 56 12 29 bd 37 9f 92 3d
       -0.13854101 -0.14518084 -0.041277252 0.07159274
000240 9a fd 6b 3c c2 e5 11 bd fa 54 c6 3c 86 14 7a 3c
       0.014403725 -0.035619505 0.024210442 0.015263682
000250 1c 69 60 3c eb 7c ef bd 32 2b 13 3d 58 e4 d0 bc
       0.013696935 -0.11693748 0.035929866 -0.025499508
000260 c4 64 a8 3c 96 53 e2 3b 93 93 52 3d 58 37 33 bb
       0.020555861 0.006906937 0.05141027 -0.002734622
000270 58 2d 13 3c a0 bb 43 bd 12 cf 7a bc 5f c5 20 3d
       0.008982979 -0.047786355 -0.0153081585 0.039250728
000280 68 c0 70 3d ba 1a 4b 3d a8 62 2d be 8f f7 b9 bc
       0.058777243 0.049586035 -0.16932166 -0.022701053
000290 cd 60 a6 3c 12 24 f6 3d 90 9c 04 3d 1f 89 05 be
       0.02030983 0.120185986 0.032375872 -0.13040589
0002a0 5d c3 49 be 66 19 99 3c 95 ac bf bc d0 52 3b bd
       -0.19703431 0.018688869 -0.023397723 -0.045733273
0002b0 e6 00 07 be b5 e0 e8 3c ef 09 38 bc 2a 7d 7d bc
       -0.13183936 0.028427461 -0.011232837 -0.015471736
0002c0 de 7e 36 bd 74 60 56 3c 69 14 5a bc c3 89 a9 3c
       -0.044554584 0.01308452 -0.01331053 0.020695573
0002d0 7b 2d 88 bd 13 5c 54 bd dc 65 33 bd 40 85 8a bd
       -0.066493 -0.05184562 -0.043798313 -0.06763697
0002e0 46 d5 09 3c df 03 90 bd 73 cf 18 3d fa bc 15 3d
       0.008412665 -0.07031988 0.037307214 0.036557175
0002f0 28 a7 c6 bc da 63 78 3a 6a e1 8d 3d e7 f4 8b bb
       -0.024249628 0.0009475328 0.0692776 -0.004271138
000300 58 7b ae bc b6 75 63 3d 74 9f 39 3d 6f a0 48 ba
       -0.02129905 0.05553218 0.045318082 -0.0007653301
000310 ca 92 a0 bd 5b 4b 5e bd 68 05 bb 3d dd fd 72 bc
       -0.07840498 -0.054271083 0.091318905 -0.014831034
000320 d0 77 19 bd 32 ba f8 bd f6 70 d2 bb b3 35 ca bc
       -0.037467778 -0.12144889 -0.0064221574 -0.024683809
000330 f5 1c 64 bd e2 8e b3 3b a3 81 eb ba 39 dd 81 3d
       -0.055691678 0.0054796794 -0.0017967712 0.06341023
000340 4e 03 0b bd f9 d8 f2 bc bc 1e c7 3c 3f 59 f5 3b
       -0.0339387 -0.029644476 0.024306647 0.0074874456
000350 b0 be 87 bd 90 38 0d 3d ee 7d a0 3c 43 51 52 3c
       -0.06628168 0.03447777 0.019591298 0.012836757
000360 ac 43 7d ba 39 19 44 3c 98 bb ee b9 51 b5 d2 3d
       -0.0009661268 0.011968904 -0.00045534666 0.102884896
000370 ef ed 31 3c 08 30 47 bd 7d 05 c8 bc dd c8 b0 3c
       0.01085995 -0.04862979 -0.02441668 0.021580154
000380 b5 15 12 bd 19 2a a0 bb 9a 4d 8e 3c 50 b6 59 bd
       -0.035665233 -0.004887831 0.017370988 -0.053152382
000390 59 f5 0b bd bb c2 5b bd c2 2f 03 3e 88 a2 5d ba
       -0.03416953 -0.053652506 0.12811187 -0.00084547
0003a0 b6 51 80 be 78 85 b4 3d b2 d0 55 3b c5 f5 1b bc
       -0.2506234 0.0881452 0.0032625613 -0.009519045
0003b0 ae bb 98 bb 41 3a f6 bd 56 2b bc ba fc ec 88 bd
       -0.004661045 -0.1202283 -0.0014356177 -0.06685826
0003c0 a5 12 c2 bd fc aa d1 b9 f1 9c 74 3d 3c e4 a9 3b
       -0.094762124 -0.0003999098 0.059719983 0.0051846784
0003d0 b5 8e 9d bc 54 d8 b1 bb 06 78 be 3b 5a 37 ae 3b
       -0.019233087 -0.0054273997 0.0058126478 0.005316657
0003e0 35 e0 f3 bc 01 95 85 bd a4 0b ec 3d 88 1c e6 bb
       -0.029769996 -0.06522561 0.11525658 -0.007022444
0003f0 50 c6 c4 bd 25 f3 77 3c 46 10 5c bc de c2 25 bd
       -0.096081376 0.015133654 -0.013431614 -0.040469043

backbone.6.bias f4 [258]
000000 a8 51 8d 3f 62 93 94 be 47 87 5a 3f fb 03 b9 be
       1.1040545 -0.29018694 0.85362667 -0.3613585
000010 33 88 44 3e c5 d0 af be b2 35 bc 3e b5 0d ad 3d
       0.19192581 -0.34338966 0.36759716 0.0844988
000020 22 e1 d4 be ed c1 c0 3e c5 80 07 bc 0a 7a de 3d
       -0.41578013 0.37647954 -0.008270447 0.10863121
000030 cb 1d 28 3f 6a 6b 7a 3e 33 4a 06 3f c9 eb 9e 3e
       0.6567046 0.24455038 0.5245697 0.31039265
000040 12 c5 f0 3f 77 80 3b 3f 4b f8 84 be 90 00 b2 be
       1.8810141 0.73242897 -0.25970683 -0.34766054
000050 a8 91 23 3e 62 d1 84 3f 02 24 80 be 59 e6 0a 3f
       0.15973532 1.0376399 -0.25027472 0.5425773
000060 e4 11 60 be 67 f0 05 bf c2 2b bf 3e 3f 62 26 3f
       -0.21881825 -0.5231995 0.37338072 0.6499366
000070 62 44 05 3f 49 b6 9b 3d 51 ec ca 3d 63 e9 ab be
       0.5205747 0.076031275 0.09908355 -0.33576497
000080 1b 8b c5 be 21 06 66 bd 7c b6 e6 bc 75 0a 8e 3e
       -0.38582692 -0.05615819 -0.028163187 0.27742353
000090 d0 30 08 bf d4 08 f6 be a2 5d 29 be b2 70 de be
       -0.5319948 -0.4805361 -0.16539624 -0.43445355
0000a0 01 ac d5 be 8f a4 d9 3e ed b3 ef 3e 1f 90 7e be
       -0.4173279 0.4250836 0.4681696 -0.24859665
0000b0 a7 39 af 3f 30 4d 9f 3d 2d 30 32 3e 43 20 8d be
       1.3689469 0.07778394 0.1740119 -0.27563676
0000c0 82 17 7d be ba b3 38 3e c1 9e 71 3e b9 ed 20 3f
       -0.24715999 0.1803731 0.23595716 0.62862736
0000d0 98 aa e0 3e 2a 92 2a 3f 01 2d f8 be dc b7 28 3f
       0.43880153 0.6662928 -0.48471835 0.6590555
0000e0 ea fe 80 bd 27 62 93 be 46 35 1e 3e 81 00 88 3e
       -0.06298621 -0.28785822 0.1545001 0.26562884
0000f0 93 99 e4 3e 96 c7 ee 3e 33 1f c6 3e 03 9d 63 3f
       0.44648418 0.46636647 0.38695678 0.88911456
000100 7a 8f 8f 3e 2d f2 ab 3f 6d 05 72 3d 31 be 37 3f
       0.2803915 1.3433281 0.059087206 0.71774584
000110 49 af b4 be 83 4e 92 bd 56 cb 93 3e e0 98 e1 bd
       -0.35289982 -0.07143881 0.2886607 -0.11015487
000120 e9 bd 86 3e 50 c9 97 be 30 0c ad 3e d4 84 24 3f
       0.26316765 -0.29645777 0.3379836 0.6426518
000130 4a 9d c8 3e 41 65 6c 3e 8c 5f b0 be 64 7e fa bd
       0.39182502 0.230855 -0.34447896 -0.12231138
000140 47 24 b6 3e be 56 30 bf 02 a0 d2 3d 2d fb 61 3f
       0.35574552 -0.6888236 0.10284425 0.8827389
000150 19 6d 4b 3f 47 a2 d3 bd 04 07 dd 3e 53 98 c0 3d
       0.79463345 -0.10333686 0.43169415 0.094040535
000160 42 ed 9e be 4a 22 68 3f 38 84 ba 3f 84 1c 38 3f
       -0.31040388 0.9067732 1.45716 0.7191851
000170 d5 44 8d 3f 87 a4 9d be 9e c1 0b 3f d2 f2 b6 be
       1.1036631 -0.30789587 0.5459231 -0.35732132
000180 de a3 76 3e f5 35 71 be 38 95 fa 3c 4f 90 ce b9
       0.24085948 -0.23555739 0.030588731 -0.000393989
000190 cb 80 8e be 1e 78 26 3e 4f 84 7a 3e 7c b7 2f 3f
       -0.27832636 0.16256759 0.24464534 0.6863935
0001a0 26 09 88 3d 82 62 3c 3e 0a 35 72 3f 4c a0 d6 3d
       0.0664237 0.18396953 0.9461218 0.10479793
0001b0 62 e2 1b 3f d2 0c 83 be 3f 37 18 3f b8 f7 6f 3f
       0.6089231 -0.2559572 0.594593 0.93737364
0001c0 be 3a 07 bd 06 c2 05 3e 3e 1c c7 3e 06 5c b0 bc
       -0.033015005 0.13062295 0.38888735 -0.021528255
0001d0 b7 8c 15 3e 47 81 60 3e fb 62 e4 bd c9 c6 60 3e
       0.1460446 0.21924315 -0.111516915 0.2195083
0001e0 69 1b 24 3e 9f d9 b4 ba 6b 0f bc 3f 6f 7d 9e be
       0.16026081 -0.0013797766 1.4692205 -0.30955073
0001f0 8f b7 b5 3d 67 3e 03 bf f9 22 35 3f 3b 36 d6 3f
       0.08872902 -0.51267093 0.7075649 1.67353
000200 e1 50 1c 3d 5a e0 c0 be 54 2d 82 3e f3 04 b7 be
       0.03816307 -0.37671167 0.25425208 -0.35745963
000210 ad 29 af be 6c b5 31 3d 86 09 fc bd 64 a3 bc 3e
       -0.34211484 0.043385908 -0.12306504 0.36843407
000220 0b 47 05 3e f9 42 ca 3d f5 02 4f 3e 59 65 26 bf
       0.13015382 0.09876055 0.20215972 -0.64998394
000230 3e a9 38 3f b3 46 47 3f 6f 68 14 3e b8 32 34 3f
       0.72133243 0.77842253 0.14492963 0.7038989
000240 29 ba be be ef e1 6f be 40 3b 98 3f 68 78 01 bf
       -0.37251404 -0.2342603 1.1893082 -0.5057435
000250 9c bd de be d9 a2 0a 3e c7 7f 93 3e ef 64 31 3f
       -0.43504035 0.13538684 0.28808424 0.6929464
000260 c1 63 43 3e 4b 28 26 3f 85 85 4f 3f d7 16 8c 3d
       0.19081022 0.6490523 0.8106311 0.06840294
000270 ac 81 a3 3e 5f dd ad bd 63 e6 27 be a7 6d 3e 3f
       0.3193487 -0.08489489 -0.1639648 0.74386066
000280 eb 92 c1 3e c2 59 c6 3f 19 58 9f 3f 5d cb 85 bd
       0.37807402 1.5496142 1.244876 -0.06532929
000290 bb 59 18 bf c2 8e a4 be c7 e0 9b 3d 5b 6f 3e 3f
       -0.5951192 -0.32140166 0.07611232 0.74388665
0002a0 05 67 2d 3f be 10 27 3f 83 13 1c bf 53 d8 a6 3d
       0.6773532 0.6525992 -0.6096727 0.08146729
0002b0 84 38 74 3e ab 68 c8 3e 73 16 9c 3e cc f2 87 3d
       0.23849684 0.39142355 0.30485877 0.06638107
0002c0 2b 44 61 3b 4e 50 1e 3f a4 60 7e 3f b1 47 ce 3e
       0.0034372907 0.61841285 0.9936621 0.4028907
0002d0 c6 08 cc 3e 20 52 52 3e a3 25 36 bd ae ea 21 3f
       0.39850444 0.2053914 -0.044469487 0.6324872
0002e0 00 68 50 3f c1 f8 b2 3d f3 a2 3f 3f 24 6f db bd
       0.8140869 0.08738852 0.74858016 -0.10714558
0002f0 d9 4b ac be 0c 8f 6f 3e d5 88 24 bc c6 9c b6 be
       -0.33651617 0.23394412 -0.010042389 -0.35666484
000300 ae 07 46 3e 48 8b 5b 3f c2 4b f8 3e bf 88 c7 be
       0.19338867 0.857594 0.484953 -0.38971516
000310 d0 9c 76 be 4c bd 0f bb dc e6 9b 3e 81 18 da 3e
       -0.24083257 -0.0021932898 0.3044957 0.4259682
000320 f3 6e 50 bd a4 a2 f9 3e ff 53 3a 3f 31 88 92 be
       -0.05088706 0.48756897 0.7278442 -0.2861953
000330 32 23 59 3f 35 0a de 3e bd 68 fe be fb e8 2f 3f
       0.8481933 0.43367162 -0.49689284 0.68714875
000340 59 2f 01 3f 2a 53 cc 3e 2f 9e 1d 3e 6c b5 95 3d
       0.5046287 0.399072 0.15392374 0.07309994
000350 b6 6b 3a 3f 96 56 9b 3f 37 2b f2 3e 72 ea 20 3e
       0.72820604 1.2135799 0.47298595 0.15714434
000360 8f da 62 3f e8 5c c0 3e 4a ca c3 be cd 0f ab be
       0.88614744 0.37570882 -0.38240272 -0.33410493
000370 d7 5f b8 be 0e 9f 83 be fd 75 f0 3f 86 3c 95 3e
       -0.3601062 -0.25707287 1.8786007 0.29147738
000380 78 b5 0e be f9 ef 91 3f 12 c3 44 3f 86 44 dd be
       -0.13936412 1.1401359 0.76860154 -0.43216342
000390 e0 6a 30 bf 91 10 60 3f c6 f3 32 3f e5 5d 20 3f
       -0.6891308 0.8752528 0.6990322 0.6264327
0003a0 b8 c1 70 3c d9 e4 6a be 51 d4 ec 3d 5a 90 7e 3f
       0.014694624 -0.22938861 0.11563934 0.99439013
0003b0 0c bb c3 3f 43 75 d4 be f5 cd 58 3f c1 5b 97 bd
       1.5291457 -0.41495714 0.84689265 -0.073905475
0003c0 7a 9b a9 3d 29 50 49 be 73 3d af be a5 5d 9a 3d
       0.08281608 -0.19659485 -0.3422657 0.075373925
0003d0 4e 52 3c 3f e3 da 5a 3f e5 93 46 3f 06 6e 32 3f
       0.73563087 0.85490245 0.7756942 0.6969913
0003e0 cb 4b 74 3e 84 d7 07 3f 92 4b 55 be 32 1c 14 bb
       0.23857038 0.53063226 -0.20829609 -0.0022599814
0003f0 22 9c 89 be 57 46 e8 bc 00 f8 bc 3f f7 0e 7d 3f
       -0.26876932 -0.028353853 1.4763184 0.9885096

value_head.weight f4 [1, 258]
000000 91 a9 76 3d 5a 5e 0a 3d e0 d4 27 3d 4f a6 83 bd
       0.060220305 0.033781387 0.040974498 -0.06428205
000010 37 6b 4b 3d 98 35 01 3d f5 3b 86 3c df 5e 9f 3d
       0.049662795 0.03154525 0.016386012 0.07781767
000020 44 b4 c6 3c 00 b7 1b 3e f3 56 13 3c 80 37 2b 3d
       0.02425588 0.15206528 0.008992898 0.041800976
000030 3b 1e f6 3c 82 53 e2 3a 52 10 f3 3c 88 01 15 3c
       0.030043712 0.0017267319 0.029670868 0.009094603
000040 cb f6 c3 3d 46 fa f7 3c 4b 62 ab bc 27 0d c9 3b
       0.095685564 0.030270707 -0.020920893 0.006135601
000050 ac 48 83 3a b7 cb 8b 3d 95 41 80 bc 56 d3 82 3c
       0.0010016165 0.06825965 -0.015656272 0.015969913
000060 ae 28 92 3c 8b a6 a1 bc 32 82 6f 3c 0f fd bb 3c
       0.017841663 -0.019732734 0.014618443 0.022947816
000070 92 63 8d 3a c1 c5 a1 ba b9 9c 87 3b 4d bb 5a bd
       0.001078712 -0.001234226 0.004138556 -0.05340128
000080 29 2f c9 bb d7 cf 87 bc b6 35 86 bc 11 80 9c 3d
       -0.006139655 -0.016578598 -0.016383033 0.07641614
000090 7b 43 3b bd b4 31 a3 ba f6 0c 62 bd 83 59 83 bd
       -0.04571865 -0.0012450726 -0.05518814 -0.064135574
0000a0 41 99 08 bd b7 01 81 3c a6 9c 8d 3c 22 ca 2e bd
       -0.03334928 0.015747888 0.01728661 -0.042673238
0000b0 ce 48 b2 3d 63 fa 95 bb e4 fb 24 bc 37 1f 95 3b
       0.08705293 -0.0045769676 -0.010069821 0.0045508402
0000c0 bd 50 d0 bc 6a c4 8c 3b 2b 0c ed 3d a7 21 2b 3d
       -0.025429124 0.0042958753 0.115745865 0.04178014
0000d0 e3 ca 73 3c ed bf 6e 3d 2f 3f 04 bd c1 54 ff 3c
       0.014879915 0.058288503 -0.03228682 0.031168343
0000e0 ed 62 0c 3e 31 3d 0a 3d 71 83 24 3b ff aa 5a 3d
       0.13709612 0.033749763 0.002510276 0.05338573
0000f0 de 13 0a 3d 57 8d 8f 3b df 80 0b 3d fe d0 55 3d
       0.033710353 0.0043808627 0.034058448 0.052201264
000100 2f 82 a3 bc fd 7d 9d 3d ba 1d e3 3a 91 a3 27 3d
       -0.019959537 0.07690046 0.0017327585 0.040927473
000110 ed 09 c8 bc 66 3f 9d bc c4 c5 a7 3c 72 fb 16 bb
       -0.024418795 -0.01919527 0.020480044 -0.0023038057
000120 77 d3 b9 3a 0b 5f 61 3c 51 aa d8 bb a5 5c e6 3c
       0.0014177401 0.01375557 -0.0066121 0.028120348
000130 70 04 a6 3d ba 26 ea 3b 2d 7c 26 bd 6e bb 06 3e
       0.08106315 0.00714573 -0.040645767 0.13157436
000140 fa 08 6c ba 4e a7 be 3c 80 00 09 bc 1b 12 5f 3d
       -0.0009004023 0.023273136 -0.008361936 0.054460626
000150 5c 10 27 3d 6a dd c7 bc be 41 6a bc 2b 23 40 bb
       0.040787086 -0.02439757 -0.014297901 -0.0029317837
000160 b0 c2 f1 bc 69 0a 36 3d 37 34 99 3d 2f 63 2f 3d
       -0.02951178 0.04444352 0.07480662 0.0428192
000170 19 98 86 3d 64 2f 49 bb 17 b1 bf 3c fe 14 ae 39
       0.06571979 -0.0030698413 0.023399873 0.00033203507
000180 26 e8 9c bd c8 c5 2f bd 38 cd 00 3d e2 f6 95 bc
       -0.07661466 -0.04291323 0.03144571 -0.0183062
000190 3a 16 26 3c 47 b9 d4 3d e6 87 4e 3c 5f 63 10 3d
       0.010137135 0.10386901 0.012605643 0.035251018
0001a0 15 a6 6a bc bb a7 e6 bb e8 73 57 3d 97 15 38 bc
       -0.014321824 -0.007039038 0.05260077 -0.011235616
0001b0 92 8e 0d 3d 49 8e e0 bc 67 ce b7 3b 70 8a 71 3d
       0.034559794 -0.027411597 0.005609322 0.058969915
0001c0 f2 82 98 3d c6 36 c9 3c 51 6c 91 3c e3 f6 2c 3d
       0.07446851 0.02456225 0.017751845 0.042227637
0001d0 c6 1d 37 bc bb 5c 4b 3d 57 00 16 bd 6a 4f f8 bb
       -0.011176532 0.04964898 -0.036621418 -0.0075778263
0001e0 42 55 97 3c f8 e4 90 bc e5 41 9f 3d a4 41 6b 3d
       0.018473271 -0.017687306 0.0777624 0.057435647
0001f0 5b c6 1e 3e e0 0a 79 bd 8f 9b 25 3d 25 04 bf 3d
       0.15505354 -0.060801387 0.040431555 0.093269624
000200 33 1f 3e 3d be b4 21 bd 40 90 83 bc de 4b f0 bd
       0.046416473 -0.03947901 -0.016059995 -0.117332205
000210 56 0a b5 3c 43 7f 69 bb fd 9b 8e 3d 70 d9 ac bc
       0.022099655 -0.0035628832 0.06963346 -0.021099776
000220 d3 c2 97 3d b6 b6 d7 3c fa 6b 98 3d fa 26 86 bc
       0.07410207 0.02633224 0.0744247 -0.016376007
000230 62 36 fa 3c 92 93 38 3d 94 f9 8c bb c8 5f 1b 3d
       0.03054351 0.04506261 -0.004302213 0.03793314
000240 98 ac d3 bc 7e aa 23 bd 43 35 97 3d 8f 87 00 3b
       -0.025839135 -0.039957516 0.07383206 0.001961205
000250 03 04 c4 bc ca 39 7f bc 02 d9 9d 3b 36 0c 29 3d
       -0.023927694 -0.015577743 0.004817129 0.04127141
000260 da 9f 05 ba 5e 6e 9a 3c 59 28 3f 3d a7 c7 aa bc
       -0.0005097367 0.018851455 0.046669338 -0.020847155
000270 68 8d 22 bd 66 20 92 3d a4 67 0c bc 69 e5 18 3d
       -0.039685637 0.07135086 -0.008569632 0.037328158
000280 69 6d 47 3c 71 de ab 3d 06 74 69 3d ca e9 24 3c
       0.0121720815 0.08392037 0.056995414 0.010065505
000290 4a 32 96 bc 3d 9e 5c bc 12 b9 b4 ba 15 81 fe 3c
       -0.018334527 -0.013465461 -0.0013788065 0.03106741
0002a0 49 a5 c1 3c 43 e1 2d 3d 3e 7b a9 3b 4f 18 5d 3d
       0.023638384 0.042451154 0.0051721623 0.05397826
0002b0 11 27 51 bd 8e ed bc ba b1 3b 0b 3c 31 72 3d bd
       -0.051062647 -0.0014414059 0.008498118 -0.04625148
0002c0 70 57 12 3d 52 da e0 3c 22 94 4c 3d 9b 1f 59 3b
       0.03572792 0.027447853 0.049945958 0.003313041
0002d0 f1 9f 08 3d 33 ce a2 3d e3 96 c8 3d 00 a9 42 3d
       0.033355657 0.07949486 0.09794404 0.047524452
0002e0 34 af 2c 3d a7 d5 0d bc 85 a8 3a 3d 50 94 c5 bb
       0.042159274 -0.008656896 0.04557087 -0.006029643
0002f0 d1 7f ed bc 40 40 cd 3b 3c 60 8b 3c 15 b0 2a bd
       -0.028991612 0.0062637627 0.017013662 -0.04167183
000300 08 d7 b8 bc 1b 62 4d 3d e5 8b db 3c 50 16 e2 bc
       -0.022563472 0.05014239 0.026800105 -0.02759853
000310 da 73 54 bd 0a 19 1d bd b1 06 d1 3d 16 f5 82 3d
       -0.051868297 -0.038353957 0.102063544 0.06394403
000320 48 71 3f 3d 69 e3 05 3c 36 8b 88 bd 05 e1 b0 bc
       0.046738893 0.008171895 -0.066671774 -0.021591673
000330 c8 23 21 3d e2 07 08 3e 84 70 d4 bb f2 97 8e bb
       0.039340764 0.13284257 -0.0064831395 -0.0043516094
000340 71 87 d2 3c d6 77 8f 3c e5 62 f9 3c d1 98 28 3e
       0.02569935 0.017513197 0.030442664 0.16464545
000350 49 d0 19 3d af c1 91 3d 95 4f 72 bd c6 3d 90 bc
       0.03755215 0.0711702 -0.059157927 -0.01760758
000360 2c 23 6e 3d e4 b8 13 bc 4d 1f 68 3c 82 83 31 39
       0.05813901 -0.009016249 0.014167619 0.00016929026
000370 d2 51 8b 3c 7f c0 8d bc e9 8c dc 3d 6f 71 09 3d
       0.017006788 -0.017303703 0.10769064 0.033555444
000380 1e 7f ba bc d7 75 95 3d 4e b6 57 3d cd 17 ae bd
       -0.022765692 0.07297867 0.052664094 -0.085006334
000390 4d d9 5e bd 70 7d 3c 3d 19 7e ef 3c 79 2f e5 3c
       -0.054406453 0.046018064 0.029234933 0.027976738
0003a0 e8 ef 88 3b 7e 87 e5 3c 93 e1 6e bb 0c 31 1d 3d
       0.0041789897 0.02801871 -0.003645037 0.038376853
0003b0 42 00 bf 3d 41 9b 6e bd c2 96 2b 3d 83 fc 3f bc
       0.09326221 -0.05825353 0.04189182 -0.011717918
0003c0 76 91 94 3a be a4 87 bc de 61 7a 3b 6e d8 9a 3c
       0.0011334855 -0.016558047 0.0038205306 0.01890203
0003d0 c9 30 0d 3d 4f de 27 3d 33 19 40 3d f3 d1 08 3d
       0.034470353 0.040983494 0.04689903 0.03340335
0003e0 f3 b9 1f 3c 86 f1 ed 3c 85 54 69 3c d2 8a 67 3d
       0.009748924 0.029045831 0.014241342 0.056528874
0003f0 3e 8b a3 bc 67 cc a6 bb 91 52 c3 3d bd 74 8f 3d
       -0.019963857 -0.0050902846 0.09537233 0.07004688
