models/shallow_dqn_bullpen_2022_2023.pt (torch, 183361 bytes, 7 tensors)

backbone.0.weight f4 [128, 208]
0	0xc0c9000e	-6.2812567
1	0xc010b68c	-2.2611418
2	0x3f6dad54	0.928426
3	0x3f6f0341	0.9336434
4	0x3f42661a	0.75937045
5	0xbcc16031	-0.023605438
6	0xbf1b9c0c	-0.60784984
7	0x3d8862b8	0.06659454
8	0x3f87a2b7	1.0596532
9	0xbef3cea0	-0.4761858
10	0x3d1ebb01	0.03875256
11	0x3ff511ff	1.9146117
12	0xbef44ea7	-0.47716257
13	0xbda99262	-0.082798734
14	0x3c252015	0.01007845
15	0x3e802d1e	0.25034422
16	0x3ebf51fe	0.37367243
17	0x3e3f5779	0.18685712
18	0x3f0f5c7a	0.56000483
19	0x3dfbd6a6	0.122968
20	0x3df20b69	0.118185826
21	0x3e0bdba9	0.13658012
22	0x3eb5fd6a	0.35544902
23	0xbe98ce92	-0.298451
24	0x3d8c17ff	0.068405144
25	0x3cf5a94f	0.02998796
26	0xbe94a5d1	-0.29032758
27	0x3ec3a18a	0.38209182
28	0xbf41f27d	-0.7576063
29	0x3f5ea3dc	0.8696878
30	0xbc6ef1ab	-0.014583985
31	0xbd298e65	-0.041395564
32	0x3b7ab5fb	0.0038255441
33	0x3ebe02cc	0.3711151
34	0x3ea81c1c	0.32833946
35	0xbd057920	-0.032586217
36	0x3f543944	0.8289988
37	0x3deb3fd9	0.11486787
38	0x3ca329c4	0.019917376
39	0xbda85b9b	-0.08220597
40	0x3d82cc39	0.06386609
41	0xbec9bc97	-0.39401695
42	0xbd909e06	-0.070613906
43	0xbe27c3b5	-0.1638325
44	0xbf651133	-0.8947937
45	0x3eaf3530	0.34220266
46	0x3f6e361b	0.9305131
47	0xbf1bced2	-0.6086246
48	0xbd1f5db9	-0.03890774
49	0x3ba97450	0.0051713362
50	0xbc80db30	-0.015729517
51	0x3f0dac36	0.553409
52	0x3f25aa9b	0.6471345
53	0xbdcfabfa	-0.10140224
54	0x3fadcc24	1.3577924
55	0x3dba99cd	0.091113664
56	0xbdf389d0	-0.1189152
57	0xbee41257	-0.44545242
58	0xbd66c0c1	-0.05633617
59	0xbef1e1b9	-0.47242525
60	0xbeb565a5	-0.3542911
61	0xbee9cb0d	-0.45662728
62	0xbfdeaf3c	-1.7397227
63	0x3f55a4fd	0.8345488
64	0xbfcc1e25	-1.5946699
65	0x3fb52a7a	1.4153588
66	0x3a6b1987	0.00089683424
67	0x3baf08ae	0.005341611
68	0xbc39057c	-0.0112928115
69	0x3dbab47b	0.09116455
70	0xbf5b271d	-0.8560656
71	0x3ee51256	0.44740552
72	0x3e804f40	0.25060463
73	0xbeaa0dd3	-0.33213672
74	0x3e8cf3b6	0.27529687
75	0xbeb0cf32	-0.34533077
76	0x3fa449a4	1.2834973
77	0xbfca8a77	-1.5823506
78	0x3dbab5c3	0.091166995
79	0xbf53c5b2	-0.82723534
80	0xbf9c0807	-1.218995
81	0xbe726650	-0.23671842
82	0xbf1e588d	-0.6185387
83	0x3f2ca145	0.6743358
84	0xbbf23ac4	-0.0073922593
85	0x3ba40c1f	0.0050063278
86	0x3d11fd41	0.035641912
87	0x3b0992ca	0.0020992034
88	0xbfb45979	-1.4089805
89	0x3f2bbf04	0.6708834
90	0xbf18fbe4	-0.59759355
91	0xbd249d8a	-0.040189303
92	0x3edca69c	0.43095863
93	0x3df925ea	0.12165435
94	0x3f5590bb	0.83423966
95	0xbf78a33a	-0.97124064
96	0x3f18da54	0.5970814
97	0xbd76ff3a	-0.060301997
98	0xbe8aec23	-0.27133283
99	0xbf337589	-0.7010122
100	0x4028d675	2.6380894
101	0xbfcfb3c7	-1.6226739
102	0xbd82730a	-0.06369598
103	0x3e79efa4	0.24407822
104	0xbd7cdb50	-0.06173259
105	0xbcc8603b	-0.024459949
106	0xbd74186d	-0.059593607
107	0xbd3a5d59	-0.04549918
108	0xbcafdc86	-0.021467458
109	0x3e3f329a	0.18671647
110	0x3c2dca25	0.010607277
111	0x3d6653f0	0.056232393
112	0xbc1527b9	-0.009103709
113	0x3ce131ae	0.02748951
114	0x3d453dd2	0.04815466
115	0x3e7e6e70	0.24846816
116	0x3d08a048	0.03335598
117	0x3d30b7ef	0.043144163
118	0xbd72f65e	-0.059316985
119	0x3c185d69	0.0092996145
120	0xbc6b89b7	-0.0143760955
121	0x3e4455f0	0.19173408
122	0x3d746ff2	0.059677072
123	0x3a61f5cd	0.0008619696
124	0xba7e9564	-0.0009711592
125	0x3d44491f	0.047921296
126	0x3c892485	0.016741047
127	0x3e462c46	0.19352826
128	0x3f379799	0.71715695
129	0x3e76f801	0.24118043
130	0x3e9b8356	0.3037364
131	0xbf42e9d4	-0.76138043
132	0xbc6754bd	-0.014119324
133	0xbe45686f	-0.1927812
134	0x3e0ab4fb	0.13545601
135	0xbef27ed4	-0.47362387
136	0x3d02b639	0.031912062
137	0x3c674e26	0.014117753
138	0xbc8be32d	-0.0170761
139	0xbee664a9	-0.44998673
140	0xbcbf66bf	-0.023364423
141	0xbe404d4d	-0.18779488
142	0xbece85ad	-0.40336362
143	0xbeba96b5	-0.36443105
144	0x3eb2b353	0.3490244
145	0x3e927861	0.28607467
146	0x3eaf99c4	0.34297
147	0xbdb02ba8	-0.08602077
148	0x3d88b02f	0.06674229
149	0xbe05acd5	-0.13054211
150	0x3cc0ec40	0.023550153
151	0x3d6c113f	0.057633635
152	0xbf58f3c8	-0.8474698
153	0xbe0b638d	-0.13612194
154	0xbdbbb2ee	-0.091649875
155	0xbf150d4e	-0.58223426
156	0xbbd15076	-0.0063877655
157	0xbe963057	-0.29333755
158	0x3e0e0f1c	0.13872951
159	0x3fb27453	1.3941749
160	0x3ee50b08	0.4473498
161	0xbdf5d124	-0.12002781
162	0xbc97854c	-0.018496178
163	0xbf836e5d	-1.0268055
164	0x3d14e582	0.03635169
165	0xbcd8bd2b	-0.02645739
166	0x3f32930d	0.6975563
167	0xc000a25c	-2.0099096
168	0xbde01b50	-0.109427094
169	0xbdabc48b	-0.08387097
170	0x3e0bc5ac	0.13649625
171	0x3f99aa18	1.2005033
172	0xbd3f588e	-0.04671531
173	0xbe7d1a18	-0.24716985
174	0xbd8cf3a0	-0.06882405
175	0x3f90611a	1.1279633
176	0xbf93d0ef	-1.1548136
177	0xbe9d7344	-0.30752003
178	0xbe5a826f	-0.21338819
179	0xbf3d13a1	-0.73858076
180	0x3ddc9170	0.107699275
181	0x3ecf4f8a	0.4049037
182	0x3ea3c1b5	0.31983724
183	0xc0568ec5	-3.352464
184	0xbf0bf71f	-0.5467395
185	0xbdd1f0ad	-0.102509834
186	0xbe82e0c2	-0.25562102
187	0x3f30686c	0.68909335
188	0x3e4ce27b	0.2000827
189	0x3e36f04d	0.17865105
190	0xbe4739ea	-0.19455686
191	0x3fa285ac	1.2697043
192	0x3d8af8bd	0.06785724
193	0x3f138c3a	0.57635844
194	0x3f405a07	0.7513737
195	0xc00af48e	-2.1711764
196	0x3e2d2c02	0.16911319
197	0x3f2faf57	0.6862692
198	0xbd54a0e9	-0.05191127
199	0x3ffcd35f	1.9752005
200	0x3cfd52fb	0.030923357
201	0xbea4c14f	-0.32178733
202	0xbed58ca6	-0.4170887
203	0x3ed7c4c9	0.42142323
204	0xbd18de3a	-0.037321307
205	0x3ea7a3bb	0.32742104
206	0xbe2126b6	-0.15737423
207	0x3f20407a	0.62598383
208	0x3f0537f4	0.520385
209	0x3fa16c11	1.2611104
210	0x3f93a59c	1.1534915
211	0xbe233aca	-0.15940395
212	0xbe9028b2	-0.28156048
213	0xbe9f6cc6	-0.31137675
214	0xbf35b03b	-0.7097203
215	0xbe9fe493	-0.31229076
216	0x3f1dffde	0.6171855
217	0xbec2e9c4	-0.38068974
218	0x3d407948	0.046990663
219	0x3db967fd	0.09053037
220	0x3d06b74e	0.032889657
221	0xbe901312	-0.2813955
222	0xbe84bb6e	-0.25924248
223	0xbe051c95	-0.12999184
224	0xbe412d26	-0.18864879
225	0xbe0d2b33	-0.1378601
226	0x3d18b7c3	0.037284624
227	0xbe1125f9	-0.14174642
228	0xbe1068f2	-0.14102533
229	0xbe54713c	-0.2074632
230	0xbdf9ad26	-0.121912286
231	0xbddaae2f	-0.10677754
232	0x3eb33d35	0.35007635
233	0xbd643013	-0.05570991
234	0xbd180dc1	-0.03712249
235	0xbe8b5b56	-0.2721812
236	0xbb5834c4	-0.0032990435
237	0xbe26220a	-0.16223922
238	0xbd866025	-0.06561307
239	0xbdffe97f	-0.12495708
240	0xbc83417d	-0.016022438
241	0x3e0a5e02	0.13512424
242	0x3e0448f9	0.12918462
243	0x3d2a0e8a	0.04151777
244	0x3e8dc16f	0.2768664
245	0x3de3712d	0.11105571
246	0x3d4994ae	0.049214058
247	0x3e28a997	0.16470943
248	0x3d994179	0.07483191
249	0x3d88b63c	0.066753834
250	0xbf1cce4e	-0.61252296
251	0x3e5362fa	0.20643225
252	0x3e6f07bc	0.23342794
253	0x3e205e95	0.1566108
254	0x3ea381b3	0.3193489
255	0xbcdf8743	-0.027286178

backbone.0.bias f4 [128]
0	0x3e626427	0.22108518
1	0x3db40364	0.08789709
2	0xbc388bf1	-0.011263833
3	0xbda9b2b7	-0.0828604
4	0x3fdcb29b	1.7242006
5	0x3ddba74c	0.10725269
6	0xbdb6560a	-0.089031294
7	0xbe1b48a9	-0.15164436
8	0xbe57aa2a	-0.21061006
9	0xbe3d87f6	-0.18508896
10	0xbf45f3f2	-0.77325356
11	0xbd781959	-0.06057105
12	0x3fc19245	1.5122763
13	0xbd9edf78	-0.07757467
14	0xbdcecc02	-0.10097505
15	0xbea8cc14	-0.329682
16	0xbf142324	-0.5786612
17	0x3e659ea7	0.22423802
18	0x3eebdbcf	0.46066138
19	0xbf3d121c	-0.7385576
20	0x3ee9760e	0.4559788
21	0xbf561b9d	-0.83635885
22	0xbeb84882	-0.3599282
23	0x3eda9bd9	0.42697027
24	0x3e257a2b	0.16159885
25	0xbdc5765f	-0.09641718
26	0x3ee7ce32	0.45274502
27	0x3e81eb05	0.25374618
28	0xbe2d3e19	-0.1691822
29	0x3e92fc6a	0.28708202
30	0xbf0cd1d4	-0.5500767
31	0x3f58ff86	0.847649
32	0x3f22c7ea	0.63586295
33	0xbf62b965	-0.8856414
34	0xbe2db828	-0.16964781
35	0xbc386dbf	-0.011256634
36	0x3cf04725	0.0293308
37	0x3f84bc8c	1.037004
38	0x3eb3e914	0.35138762
39	0x3f384969	0.71987015
40	0x3f942ed5	1.1576792
41	0x3db189a4	0.08668831
42	0x3ed26977	0.41096088
43	0x3f1463de	0.57964885
44	0xbdfd54be	-0.12369679
45	0xbedb3eed	-0.42821446
46	0x3e92bb5c	0.2865857
47	0x3e2c8d3e	0.16850755
48	0xbe90e9cd	-0.28303376
49	0x3e02de50	0.12780118
50	0x3f1deae5	0.61686546
51	0x3dd38a24	0.103290826
52	0xbe8c0759	-0.27349356
53	0xbeb42b91	-0.3518949
54	0xbe9e79c8	-0.30952287
55	0x3f797541	0.9744454
56	0xbe75d5fd	-0.24007411
57	0x3eade6bb	0.33965096
58	0xbdc55def	-0.09637057
59	0xbef0f4b0	-0.47061682
60	0xbdc5b4a6	-0.096535966
61	0xbfb036e7	-1.3766755
62	0xbd1d6384	-0.038424984
63	0x3d46edf1	0.048566762
64	0x3d8476fa	0.064680055
65	0xbe23f479	-0.16011228
66	0x3d1aca1d	0.037790406
67	0xbf28d72f	-0.65953344
68	0xbd26965e	-0.040670745
69	0x3e9cefc5	0.3065168
70	0x3deb493d	0.114885785
71	0x3e84aa26	0.25911063
72	0x3ef566af	0.47929904
73	0xbe4a930d	-0.19782658
74	0xbf9f9e66	-1.2470214
75	0x3dcf9246	0.10135321
76	0x3ebbc5bd	0.366743
77	0x3e51faf0	0.20505881
78	0xbdc0ed57	-0.09420269
79	0xbebfac6e	-0.3743624
80	0xbf0906f8	-0.5352626
81	0x3efe06b3	0.49614486
82	0x3efe0be1	0.49618438
83	0xbf61347f	-0.8797073
84	0x3e73a8b3	0.23794822
85	0x3ef5cab1	0.48006204
86	0x3ea91ffc	0.33032215
87	0xbca62534	-0.020281412
88	0x3f545e1a	0.8295609
89	0x3e938ad1	0.28816846
90	0x3f086662	0.53281224
91	0x3e05c20b	0.13062303
92	0xbee0d393	-0.43911418
93	0xbfd7e302	-1.6866152
94	0x3eca25cb	0.3948196
95	0x3ed76b94	0.42074263
96	0x3f64945c	0.8928888
97	0x3d6c3698	0.057669252
98	0x3e850b74	0.259853
99	0x3f5328a8	0.8248391
100	0xbc8ac187	-0.016937984
101	0x3da0f1e5	0.07858638
102	0xbd9a13aa	-0.07523282
103	0x3ce9ee64	0.028556056
104	0xbd779067	-0.060440447
105	0x3f99076a	1.1955388
106	0xbebf0851	-0.37311032
107	0xbebd016c	-0.36915147
108	0xbedd1f84	-0.43188107
109	0x3f595810	0.849
110	0xbe3b5cab	-0.18297069
111	0x3ce0f65a	0.02746122
112	0xbe9b3a94	-0.3031813
113	0xbeeb166a	-0.45915538
114	0x3f32ba9c	0.69815993
115	0xbcb80881	-0.022464992
116	0xbe3dfc08	-0.18553174
117	0x3da18067	0.07885819
118	0xbe88254f	-0.26590964
119	0xbd45dd78	-0.048306912
120	0x3f9b6b06	1.2142036
121	0xbead3a27	-0.3383343
122	0xbe8e6678	-0.27812552
123	0xbe16baef	-0.14719747
124	0xbdf048fd	-0.117326714
125	0xbe870cd0	-0.26376963
126	0xbec9d027	-0.3941662
127	0xbeff36b8	-0.49846435

backbone.3.weight f4 [128, 128]
0	0x3caf08cc	0.0213665
1	0x3df4deaf	0.11956536
2	0xbe0cafbe	-0.13738915
3	0xbb385e0c	-0.0028132228
4	0x3d30178c	0.042991206
5	0x3cae3478	0.021265253
6	0x3d55cfc4	0.052200094
7	0x3dc01dd1	0.09380687
8	0xbd982bbc	-0.07430217
9	0xbc4c8ad9	-0.012484276
10	0x3e01b4ff	0.12666701
11	0x3b28db56	0.00257655
12	0xbd0077ff	-0.031364437
13	0xba8cedec	-0.0010752059
14	0xbea793ab	-0.3272985
15	0xbc21abfb	-0.0098676635
16	0x3d3efb2f	0.046626266
17	0x3d04e13c	0.032441363
18	0x3ca25d28	0.019819811
19	0x3d7d2765	0.061805148
20	0xbf8e866e	-1.1134775
21	0xbd4d4c41	-0.05012155
22	0x3c9b0cf6	0.018927079
23	0xbf10877e	-0.56456745
24	0x3eab3a10	0.33442736
25	0x3d3a5b4c	0.045497224
26	0x3c9211ca	0.017830748
27	0x39a7d73e	0.0003201309
28	0x3d7e9650	0.062155068
29	0x3e9ef7c7	0.31048414
30	0x3dc21071	0.09475792
31	0x3cfad9ea	0.030621488
32	0xbcdcee0b	-0.026968976
33	0x3c0eaa51	0.008707599
34	0x3ba5dade	0.0050614914
35	0x3d362142	0.04446531
36	0x3d83b3f7	0.0643081
37	0x3cf51f6f	0.029922215
38	0xbe46e53b	-0.19423382
39	0x3e020dbd	0.12700553
40	0xbcee4a44	-0.029088147
41	0xbe8da195	-0.2766234
42	0x3e038e4d	0.12847252
43	0x3cd4228d	0.025895381
44	0x3d3ae007	0.045623805
45	0x3dff6a20	0.124714136
46	0x3c8afad4	0.016965307
47	0x3d9c34af	0.07627236
48	0xbbb2c3bc	-0.0054554623
49	0xba91ce03	-0.0011124018
50	0xbe2a69d6	-0.16641936
51	0x3d90c515	0.070688404
52	0xbcc59eb2	-0.024123523
53	0x3d8fe2c5	0.07025675
54	0xbd947d8f	-0.07250511
55	0xbd83d180	-0.06436443
56	0x3d6c8e6f	0.057753023
57	0xbda27cfe	-0.079339966
58	0x3d96586e	0.073410854
59	0x3cca395a	0.02468555
60	0xbead32aa	-0.33827716
61	0x3c0cb686	0.008588439
62	0xbe0326e4	-0.12807804
63	0x3db7a34e	0.08966695
64	0x3d7810d1	0.060562912
65	0x3ba243e9	0.004951943
66	0xbcae8384	-0.021302946
67	0xbd038f28	-0.032118946
68	0x3cb7f204	0.02245427
69	0xbb4794c7	-0.0030453668
70	0x3d8cacdb	0.06868907
71	0x3d49c660	0.04926145
72	0xbcb71034	-0.022346593
73	0x3cfa9a32	0.030591104
74	0x3c8853d9	0.016641544
75	0x3d739c4f	0.05947524
76	0xbeee449f	-0.4653673
77	0x3e053e47	0.13012038
78	0xbf03cb8b	-0.51482457
79	0xbe5d03b9	-0.21583451
80	0xbc85399a	-0.016262818
81	0xbd05d110	-0.03267008
82	0x3d302fa5	0.043014187
83	0x3d816df0	0.06319797
84	0x3d458b16	0.048228346
85	0x3cf923b6	0.030412536
86	0xbc83b72d	-0.016078556
87	0x3cc2498b	0.023716709
88	0x3c95985a	0.018261123
89	0x3d74520f	0.05964857
90	0xbf1eef21	-0.6208363
91	0x3d0b0fde	0.03395068
92	0xbcf6706b	-0.030082902
93	0x3b44bef3	0.0030021041
94	0xbf65c8fa	-0.8975979
95	0xbcb0d861	-0.021587553
96	0xbd2d3996	-0.042291246
97	0x3c459cf9	0.012061351
98	0xbaa7ad78	-0.0012792787
99	0x3bcc284d	0.00623039
100	0xbe157593	-0.14595632
101	0xbe0bce58	-0.13652933
102	0x3c4033d6	0.011731109
103	0xbeca2693	-0.39482555
104	0x3c919ec4	0.0177759
105	0x3c1eacbc	0.009684738
106	0x3d2ab4f4	0.041676477
107	0x3cd57327	0.026055885
108	0x3d4454d1	0.04793245
109	0xbd418d8c	-0.04725413
110	0xbeaa0495	-0.3320662
111	0x3d194549	0.03741959
112	0x3d56d364	0.05244769
113	0xbe237003	-0.15960698
114	0xbd85d3c3	-0.06534531
115	0xbe97762b	-0.29582343
116	0x3cbf8e71	0.023383351
117	0xbea9b685	-0.33147064
118	0x3e819cd1	0.25314954
119	0x3de463ac	0.111518234
120	0x3d962e5e	0.073330626
121	0x3d23fcbe	0.040035956
122	0xbabb81c0	-0.0014305636
123	0xbe9c3cfc	-0.30515277
124	0xbeca8836	-0.39557046
125	0xbb9d100a	-0.004793172
126	0xbc63a2d4	-0.013893802
127	0x3cc3a2b9	0.023881303
128	0xbe0bfdc4	-0.13671023
129	0xbd9bc653	-0.07606187
130	0xbe3affc9	-0.18261637
131	0xbc91065e	-0.017703231
132	0x3d93483a	0.071915105
133	0xbee29ee2	-0.44261843
134	0x3d1e3bc7	0.038631227
135	0x3c8e5968	0.017376617
136	0x3e58a8d0	0.21158147
137	0xbd9123f7	-0.07086938
138	0x3bd504e8	0.006500829
139	0xbcef7694	-0.029231347
140	0x3cb413af	0.021982042
141	0x3d76d88d	0.060265113
142	0xbe849712	-0.25896508
143	0x3dd23cdf	0.102655165
144	0x3b3f715d	0.0029211857
145	0xbe8dad62	-0.27671343
146	0x3bb6cea4	0.0055788327
147	0xbcb2e000	-0.021835327
148	0xbe87f6a7	-0.26555368
149	0x3ccb3b43	0.024808532
150	0xbe4827d0	-0.19546437
151	0x3b8f62a5	0.004375773
152	0x3e9cd9f4	0.30635035
153	0x3d897dde	0.067134604
154	0xbd715447	-0.058918264
155	0x3ccb5315	0.02481989
156	0xbd7111b1	-0.058854762
157	0xbf0d9f42	-0.55321133
158	0x3dc098e0	0.094041586
159	0xbd3fca63	-0.04682387
160	0xbc291cd3	-0.010321814
161	0x3d2a256d	0.0415396
162	0xbd1c88b6	-0.038216315
163	0xbe2f48a4	-0.17117554
164	0xbeda39ae	-0.4262213
165	0x3d6719d1	0.056421105
166	0x3d44785d	0.04796635
167	0xbe20ad11	-0.1569102
168	0x3ab37c08	0.001369358
169	0x3dbf3d15	0.09337822
170	0xbd287d07	-0.04113486
171	0xbd6f7767	-0.05846348
172	0xbcc94889	-0.02457072
173	0xbf079ec2	-0.5297662
174	0xbdb3d07d	-0.0878
175	0xbde452a6	-0.111485764
176	0xbd5fcb27	-0.0546371
177	0xbd50caac	-0.050974533
178	0xbe6529ac	-0.22379178
179	0xbce71322	-0.028207365
180	0xbdf0acb0	-0.117516875
181	0x3e6c628a	0.23084465
182	0xbab86500	-0.0014068186
183	0x3dbbc948	0.09169251
184	0xbebc6960	-0.36799145
185	0xbc132867	-0.008981801
186	0xbf3e743e	-0.7439612
187	0x3d6af07e	0.057358257
188	0xbe3c8e58	-0.18413675
189	0x3e208d2a	0.1567885
190	0xbe176978	-0.14786327
191	0xbe0d27ef	-0.13784765
192	0xbe2719cb	-0.16318433
193	0x3e2bdbb5	0.1678303
194	0xbc9ae667	-0.018908693
195	0xbde2b6b2	-0.110700026
196	0x3e262621	0.16225483
197	0x3d97a6f5	0.074048914
198	0xbe755781	-0.23959161
199	0xbd97f023	-0.07418849
200	0x3c538b76	0.012911668
201	0xbdd9599f	-0.10612797
202	0xbdbde8dd	-0.09272931
203	0xbe1784c2	-0.14796737
204	0xbeec12e0	-0.4610815
205	0x3ca6357c	0.020289175
206	0xbdd2daa7	-0.10295611
207	0x3ea62db7	0.32456753
208	0xb8be728e	-9.0812435e-05
209	0xbde7abd3	-0.1131207
210	0xbd9d7513	-0.07688346
211	0xbd063e07	-0.032773998
212	0xbee3cb81	-0.444912
213	0xbd30fdab	-0.043210667
214	0xbf011dd0	-0.50436115
215	0xbe51aa35	-0.20475085
216	0x3acc4df9	0.0015587203
217	0xbbda3385	-0.0066589736
218	0x3ee7db6e	0.452846
219	0x3cc602b4	0.02417121
220	0xbd9beb1d	-0.07613204
221	0x3db9c7ed	0.09071336
222	0x3ebd45dc	0.3696736
223	0xbdd219c3	-0.1025882
224	0xbd3d75db	-0.046254974
225	0x3d5e5dc6	0.054288648
226	0xbf39191f	-0.72303957
227	0x3cfdb26f	0.030968873
228	0x3de556b6	0.111981794
229	0xbf55a897	-0.8346037
230	0xbb42e4e3	-0.0029738478
231	0x3ca40165	0.020020196
232	0x3e544063	0.20727687
233	0x3d1509ea	0.036386408
234	0x3dfbff61	0.12304569
235	0xbefc2764	-0.49248803
236	0xbe08c28c	-0.13355464
237	0xbd1f4322	-0.038882382
238	0xbdb04226	-0.08606367
239	0xbd27e755	-0.0409921
240	0x3c81aea3	0.015830344
241	0xbea82e09	-0.32847622
242	0x3d07b774	0.03313394
243	0xbea0a825	-0.31378284
244	0x3d0c54b0	0.03426045
245	0x3d42f0de	0.04759299
246	0xbe01324b	-0.12616841
247	0x3da4d51f	0.08048462
248	0x3b030a0e	0.0019995007
249	0xbd4744ba	-0.048649527
250	0x3ec5240c	0.38504064
251	0xbdd5b163	-0.104342245
252	0x3db9b77b	0.09068199
253	0x3db0a6ab	0.086255394
254	0x3cacd872	0.021099303
255	0xbebec698	-0.3726089

backbone.3.bias f4 [128]
0	0x3d8feefa	0.07028003
1	0x3e8894f2	0.26676136
2	0x3faa37a5	1.3298231
3	0x3ea64651	0.32475522
4	0x3dc75576	0.09733097
5	0x3e5f7cde	0.21824977
6	0x3eaa71eb	0.33290038
7	0x3f8dc0c8	1.1074457
8	0x3e82b03b	0.25525078
9	0x3e053a1c	0.13010448
10	0xbe920d43	-0.28525743
11	0xbe91bf23	-0.28466138
12	0x3e4837e9	0.19552578
13	0x3e7a956f	0.24471067
14	0x3ea8163c	0.32829463
15	0x3e338d89	0.1753446
16	0xbf42cae2	-0.76090825
17	0x3e241d7c	0.16026872
18	0x3e46d6da	0.19417897
19	0x3ef5e349	0.48024967
20	0x3f4bf2d5	0.7966741
21	0xbef48e60	-0.47764874
22	0x3ea076f9	0.3134077
23	0x3e85fec3	0.2617093
24	0x3f1e08b4	0.6173203
25	0x3e8ff858	0.2811916
26	0x3d9b5244	0.0758405
27	0x3e8fed3f	0.28110692
28	0xbee51995	-0.4474608
29	0xbe816a97	-0.25276634
30	0x3ea9f2ef	0.33193156
31	0xbec09983	-0.3761712
32	0x3e5d766b	0.21627204
33	0xbea97550	-0.33097315
34	0x3d9a0624	0.075207025
35	0x3e902bed	0.28158513
36	0x3e931db8	0.2873361
37	0x3eaacfd4	0.33361685
38	0x3e804207	0.25050375
39	0x3e8f2689	0.27959087
40	0x3ec2852e	0.37992233
41	0x3ec73cc7	0.38913557
42	0x3d191892	0.037376948
43	0xbe10fd0c	-0.1415903
44	0x3d812e26	0.0630763
45	0xba6a25ac	-0.0008932005
46	0xbebb1f9e	-0.3654756
47	0x3de6e009	0.112732
48	0x3e88aea8	0.26695752
49	0x3e5b941b	0.21443217
50	0x3e91fa04	0.2851106
51	0xbe1c3d32	-0.15257719
52	0x3e7f02b2	0.24903372
53	0x3f32d216	0.69851816
54	0x3ed4141e	0.41421598
55	0xbe86c8df	-0.26325127
56	0x3f0df421	0.55450636
57	0xbe6338c1	-0.22189619
58	0xbf012e82	-0.5046159
59	0x3e8aaece	0.2708649
60	0x3e701498	0.23445356
61	0x3e09b64b	0.13448445
62	0x3e0bbb22	0.13645604
63	0x3e3f8fb9	0.1870717
64	0x3de4da80	0.11174488
65	0x3e4d8d76	0.20073494
66	0x3e18a336	0.1490601
67	0xbf3e3a65	-0.74307853
68	0xbf0e2b3e	-0.5553473
69	0x3e1c2ce7	0.15251504
70	0x3eba68bd	0.36408034
71	0xbec13559	-0.37736014
72	0x3e2f8814	0.17141753
73	0x3e625276	0.22101769
74	0xbed1c0a7	-0.40967295
75	0x3eebefba	0.46081334
76	0x3e95e766	0.29278105
77	0x3e9192f8	0.2843244
78	0xbf8b87e1	-1.0900842
79	0xbe902bf9	-0.28158548
80	0xbe2dda25	-0.16977747
81	0x3e5e8d79	0.21733655
82	0xbf444db8	-0.7668109
83	0x3da4b798	0.0804283
84	0x3ea4b303	0.32167825
85	0x3e8c99b6	0.27461022
86	0xbec1b1f7	-0.3783109
87	0x3ea407d9	0.32037237
88	0x3e095f31	0.13415219
89	0xbf9bfeb9	-1.218711
90	0x3d11bff0	0.035583436
91	0x3e95f63b	0.2928942
92	0x3e69fbaf	0.22849916
93	0x3e8df381	0.2772484
94	0x3e30e5d6	0.17275175
95	0xbf0184bd	-0.5059317
96	0xbf9adaed	-1.2098061
97	0x3e075333	0.13215332
98	0x3f42dbf3	0.76116866
99	0xbfd3b9a8	-1.6541033
100	0xbf1d1f7a	-0.61376154
101	0x3e3240f9	0.17407598
102	0x3e9272cd	0.2860321
103	0x3ea01020	0.31262302
104	0x3e9551a3	0.29163846
105	0x3e0cedf7	0.13762651
106	0x3b31ed6e	0.0027149576
107	0x3e748423	0.23878531
108	0xbd912be2	-0.07088448
109	0x3c0d6b21	0.008631499
110	0x3df84bd6	0.121238396
111	0xbe455626	-0.19271144
112	0xbf50ccb4	-0.8156235
113	0x3ead8fc6	0.33898753
114	0x3e352391	0.17689349
115	0xbf2094a9	-0.6272684
116	0x3dc5b638	0.09653896
117	0x3dde64e7	0.10859089
118	0xbf03299d	-0.5123537
119	0xbe303948	-0.17209351
120	0x3ee0209b	0.43774876
121	0x3ee82bf8	0.45346045
122	0x3ec100b0	0.37695837
123	0x3ec72969	0.3889878
124	0x3e998706	0.29985827
125	0x3e299e45	0.16564281
126	0x3e237f1e	0.1596646
127	0xbe979d59	-0.29612234

value_head.weight f4 [1, 128]
0	0x3ce3e707	0.027820123
1	0x3dcd7d13	0.10033622
2	0x3e101034	0.14068681
3	0x3d6c651f	0.057713624
4	0x3d14ff44	0.036376253
5	0x3d45cb69	0.04828969
6	0x3d6c1428	0.05763641
7	0x3da160d1	0.078797944
8	0x3d124027	0.03570571
9	0x3d69e928	0.05710712
10	0x3cbfb494	0.023401536
11	0x3e26071c	0.1621365
12	0x3ded5787	0.1158896
13	0x3daf568a	0.08561428
14	0xbda6d5ee	-0.081462726
15	0x3d31745f	0.04332387
16	0x3e2385bb	0.15968983
17	0x3d0be735	0.034156043
18	0x3d039eb3	0.03213377
19	0x3d8addbc	0.06780574
20	0x3ebe7430	0.3719802
21	0xbe0160ff	-0.12634657
22	0x3d3c65bc	0.04599546
23	0x3d1380d5	0.036011536
24	0x3cdb3d1d	0.02676254
25	0x3d1bd8b4	0.03804846
26	0x3d9b3b13	0.07579627
27	0x3d25d955	0.040490467
28	0x3da4681d	0.080276705
29	0x3dbddd80	0.092707634
30	0x3d5fcc54	0.05463822
31	0x3db963c8	0.09052235
32	0x3dc9a5bf	0.09846067
33	0xbe76650f	-0.24061988
34	0x3d48fcf8	0.049069375
35	0x3d31e492	0.043430872
36	0x3dbbb9c3	0.091662906
37	0x3db076a4	0.08616379
38	0x3d2f2be5	0.04276647
39	0x3d2e5c56	0.042568527
40	0x3e0c856e	0.13722774
41	0x3d439fac	0.047759697
42	0xbd2ea7b3	-0.0426404
43	0xb9a8e64f	-0.0003221505
44	0x3cd22891	0.02565411
45	0x3ce847fa	0.028354634
46	0x3de7c241	0.11316348
47	0x3d5c0161	0.053712253
48	0x3d743d64	0.05962886
49	0x3d194a76	0.037424527
50	0x3d303371	0.04301781
51	0xbd39cd39	-0.04536173
52	0x3d299ee9	0.041411314
53	0x3da70740	0.0815568
54	0x3d354a6c	0.044260427
55	0xbe902203	-0.2815095
56	0x3dc744d7	0.09729927
57	0xbed67c7c	-0.4189185
58	0x3dc89aa6	0.09795122
59	0x3d1ee703	0.03879453
60	0x3d2dbc58	0.042415947
61	0x3d294e55	0.04133447
62	0x3d051772	0.032493062
63	0x3d1e5604	0.03865625
64	0x3d0e2ddb	0.0347117
65	0x3d7551e7	0.05989256
66	0x3d00ed7f	0.031476494
67	0xbe43693d	-0.19083114
68	0xbe32c0e9	-0.17456402
69	0x3d0491d0	0.03236562
70	0x3d3a3d64	0.045468703
71	0xbde65e59	-0.11248464
72	0x3d7af946	0.061272882
73	0x3d6d3875	0.05791517
74	0x3dd76f16	0.10519235
75	0x3d6f2896	0.058388315
76	0x3d03b9e8	0.032159716
77	0x3d672cb8	0.05643913
78	0xbd827704	-0.06370357
79	0x3d286fec	0.041122362
80	0x3ad4203c	0.0016183923
81	0x3d1c60af	0.038178142
82	0xbdf7f0a2	-0.12106444
83	0x3d8f6859	0.070023246
84	0x3d1582eb	0.036501806
85	0x3d3dd6a7	0.046347287
86	0x3e095e7b	0.13414948
87	0x3d812376	0.06305592
88	0x3d02fe8f	0.031981047
89	0xbc5cbf39	-0.013473325
90	0x3d124658	0.035711616
91	0x3d662a02	0.056192406
92	0x3dabb05b	0.083832465
93	0x3d35a786	0.044349216
94	0x3de58a9f	0.112080805
95	0xbef0d170	-0.47034788
96	0xbdd1444d	-0.102181055
97	0x3ca6a1e7	0.020340873
98	0x3dd609ff	0.10451125
99	0x3e1c89b8	0.1528691
100	0xbda3460f	-0.07972347
101	0x3da2ab5c	0.079428405
102	0x3d1810d0	0.03712541
103	0x3d34ff0c	0.044188544
104	0x3d15f50a	0.03661064
105	0x3c6317e9	0.013860681
106	0x3ca06356	0.019578617
107	0x3d931b65	0.071829595
108	0x3dc654ef	0.096841685
109	0x3d1e4a67	0.038645174
110	0x3d1b5072	0.037918516
111	0x3da25b71	0.07927597
112	0xbeb0d92e	-0.34540695
113	0x3d3308df	0.043709632
114	0xbcdc681e	-0.026905116
115	0x3d957312	0.072973385
116	0x3d0a2e5a	0.03373561
117	0x3cf417e4	0.029796548
118	0x3db5844a	0.08863123
119	0xbda369fb	-0.079791985
120	0x3d473da3	0.048642766
121	0x3d4dfa01	0.05028725
122	0x3dd7bece	0.1053444
123	0x3dd37545	0.10325102
124	0x3d275e83	0.040861618
125	0x3d190389	0.037356887
126	0x3ce9ea9f	0.028554259
127	0xbce0984b	-0.027416369

adv_head.weight f4 [11, 128]
0	0x3d5788f5	0.052620847
1	0x3d470461	0.04858816
2	0xbc77775c	-0.015104141
3	0xbd4d05e4	-0.050054446
4	0x3d134936	0.03595849
5	0xbd694fbb	-0.056960803
6	0xbcff16a9	-0.031138735
7	0x3c9a3dc0	0.018828273
8	0x3c9e706a	0.019340713
9	0x3d17240b	0.036899608
10	0x3c06457a	0.008195275
11	0xbb8996da	-0.004198891
12	0xbc1d95c2	-0.009618225
13	0x3e107a42	0.14109138
14	0xbd45291a	-0.0481349
15	0xbcf8f7e4	-0.030391641
16	0xbd376ac6	-0.04477956
17	0x3b4db6e4	0.003138953
18	0x3d222804	0.039588943
19	0x3ce9b9af	0.028530924
20	0xbd8bd5e8	-0.06827909
21	0xbe51ede7	-0.20500909
22	0x3c12a4f7	0.0089504635
23	0xbd0a5603	-0.033773433
24	0xbdb78c24	-0.089622766
25	0xbd01c5a3	-0.03168262
26	0x3c54d939	0.012991243
27	0x3d0fc4b5	0.035099704
28	0x3d65ad6f	0.056073602
29	0x3d4eb361	0.050464038
30	0xbcb2ca59	-0.021825003
31	0xbd372888	-0.044716388
32	0x3d741fe0	0.05960071
33	0xbe5460c0	-0.20740032
34	0x3d033ca3	0.03204025
35	0x39d9d9d6	0.00041551766
36	0xbd2779be	-0.040887587
37	0xbc1e0777	-0.009645334
38	0x3b6786e9	0.0035328215
39	0xbd330851	-0.043709103
40	0xbb579ca2	-0.0032899757
41	0xbd26b80d	-0.04070287
42	0xbe67fa3b	-0.22654049
43	0xbd0bbc66	-0.034115218
44	0x3ca5350f	0.020166902
45	0x3d47929a	0.048723795
46	0xbd1a0a74	-0.037607625
47	0xbcfbc761	-0.03073472
48	0xbccc3be8	-0.02493091
49	0xbc372b93	-0.0111798225
50	0xbc2cb106	-0.010540253
51	0xbe086cc4	-0.13322741
52	0xbc6d0e3d	-0.014468727
53	0xbd215c4f	-0.039394673
54	0xbc37ea86	-0.011225348
55	0xbe901396	-0.28139943
56	0xbcef3b88	-0.029203191
57	0xbea300c3	-0.3183652
58	0x3d155274	0.036455587
59	0xbcce59d7	-0.025189323
60	0xbd66475b	-0.056220394
61	0xbdafef30	-0.08590543
62	0x3c3eb9dd	0.011640993
63	0xbba6ec60	-0.005094096
64	0xbaeb58e6	-0.0017955571
65	0x3ca769af	0.020436136
66	0xbc973b60	-0.01846093
67	0xbe0af4d3	-0.13569956
68	0xbea28c05	-0.3174745
69	0xbbc5aa79	-0.006032285
70	0xbca7a893	-0.020466125
71	0xbe83f410	-0.25772142
72	0x3b9c001d	0.0047607557
73	0x3cbb3424	0.022852011
74	0x3d33a777	0.04386088
75	0xbd1fa7be	-0.03897833
76	0x3d0f0972	0.034921117
77	0x3b738e92	0.0037163836
78	0xbe4c5e76	-0.19957909
79	0xbdae4892	-0.085099354
80	0xbda0b98d	-0.07847891
81	0x3cf5b19c	0.029991917
82	0xbe10cf1d	-0.14141507
83	0x3c82fb9e	0.015989121
84	0xbde0c982	-0.109759346
85	0xbb741208	-0.0037242193
86	0x3d7ad1ec	0.061235353
87	0x3c2f7692	0.010709422
88	0x3b7992fe	0.0038082
89	0xbe178323	-0.14796118
90	0x3d180077	0.03710982
91	0x3d2fd422	0.042926915
92	0x3cddfcba	0.027098048
93	0xbcbae6e5	-0.022815177
94	0x3cbef52d	0.023310268
95	0xbeceab44	-0.4036504
96	0xbdbb2d78	-0.09139532
97	0x3d177c5d	0.036983836
98	0xbc603318	-0.013684057
99	0x3d526ac9	0.05137137
100	0xbddc4ea2	-0.107571855
101	0x3d3c0429	0.045902405
102	0x3d060675	0.032721
103	0xbbb407b0	-0.0054940805
104	0xbb9aba97	-0.0047219503
105	0xbd1387a9	-0.036018047
106	0x3d2ba8eb	0.04190914
107	0xbccba11f	-0.024857102
108	0x3c60d950	0.013723686
109	0x3d07365c	0.033010826
110	0x3c54dd3a	0.012992198
111	0xbcb6e418	-0.02232556
112	0xbedb481f	-0.42828462
113	0xbd3f9fb3	-0.04678316
114	0xbe117bd3	-0.14207391
115	0x3dd96c64	0.10616377
116	0x3d3abc4b	0.045589726
117	0x3cc44e36	0.023963075
118	0x3d5356c3	0.051596414
119	0xbe34b381	-0.176466
120	0xbce18ec4	-0.027533896
121	0x3c8fa815	0.017536202
122	0xbbbcda67	-0.0057633403
123	0x3cda4690	0.026644975
124	0x3c177467	0.009244061
125	0xb96871b9	-0.00022167609
126	0x3d4d2895	0.05008753
127	0x3c33c972	0.010973321
128	0x3d2c6380	0.042087078
129	0x3d55cf27	0.05219951
130	0x3cf84e93	0.030310905
131	0xbd0ec11a	-0.034852125
132	0x3d08feea	0.03344623
133	0xbd1a29b0	-0.037637413
134	0xbc735b3c	-0.014853295
135	0x3d6072ec	0.054797098
136	0x3cf41e5f	0.029799638
137	0x3d0bd14c	0.034135148
138	0xbc4cebaf	-0.012507363
139	0xbde70bb4	-0.11281529
140	0xbd55044c	-0.05200605
141	0xbd479f8a	-0.048736133
142	0x3da34649	0.0797239
143	0xbc9b9a84	-0.018994577
144	0x3aa5d0b9	0.0012650705
145	0xbc6ef6a1	-0.014585168
146	0x3d328dab	0.043592136
147	0x3ccd0e92	0.025031362
148	0x3da9ad4e	0.08285008
149	0x3e621dca	0.22081676
150	0x3cb4f473	0.022089219
151	0xbd37be0e	-0.044858985
152	0x3d865d7e	0.06560801
153	0xbd0fa1ff	-0.0350666
154	0x3d1103e8	0.035404116
155	0x3d45ee0d	0.048322726
156	0xbda18993	-0.07887568
157	0xbd3a6541	-0.04550672
158	0xbcf725f2	-0.03016946
159	0xbdc0680a	-0.09394844
160	0x3d1f65ee	0.038915567
161	0x3e6a0900	0.22854996
162	0xbcdcfcc7	-0.026976002
163	0x3c8a7603	0.016901975
164	0xbd2e90ca	-0.04261855
165	0xbcccf4c0	-0.02501905
166	0xb9c47054	-0.00037467724
167	0xbd47dd91	-0.048795287
168	0xbc807a8d	-0.015683437
169	0xbcfe64a7	-0.031053854
170	0x3e73f798	0.23824918
171	0x3d295dd5	0.04134925
172	0x3bee1508	0.0072656907
173	0x3d161cb0	0.036648452
174	0xbce85753	-0.028361952
175	0xbb5b1263	-0.0033427707
176	0xbcc52f99	-0.024070548
177	0xbb8eb86d	-0.0043554814
178	0xbb7f26e1	-0.0038933086
179	0x3d694602	0.05695153
180	0xbcb04062	-0.021515075
181	0xbd70c685	-0.058783073
182	0xbbb130ca	-0.0054074274
183	0x3e935f35	0.28783575
184	0xbc3334f0	-0.010937914
185	0x3ea383b2	0.31936413
186	0x3ca7332b	0.020410141
187	0xbcbe0ba0	-0.023198903
188	0xbd626680	-0.055273533
189	0x3d4a2683	0.049353134
190	0xbb316c72	-0.0027072695
191	0x3ca09da6	0.019606423
192	0xbc7950bc	-0.0152170025
193	0x3cd4e6e2	0.025989
194	0xbcc87543	-0.024469977
195	0x3e5c627f	0.21521948
196	0x3e3ab81c	0.18234295
197	0xbc8bac5b	-0.017049959
198	0xbc8dab1e	-0.01729351
199	0x3e48b53a	0.19600382
200	0x3ba03bfe	0.004889964
201	0x38c0ad13	9.187511e-05
202	0x3c356775	0.011072029
203	0xbd1d852b	-0.038457077
204	0x3d081b93	0.03322942
205	0xbcc00d84	-0.023443945
206	0x3e6318f7	0.22177492
207	0x3c4b857b	0.012421961
208	0x3cf0fff3	0.029418921
209	0x3d1c4ad2	0.03815729
210	0x3e43bc4e	0.19114801
211	0x3ce0a611	0.027422937
212	0x3d484ed7	0.048903313
213	0x3c002d04	0.007823233
214	0xbe29e50f	-0.16591285
215	0x3c5613ac	0.013066214
216	0x3b4c5ca4	0.0031183148
217	0x3d675ba3	0.056483876
218	0x3d5d651b	0.0540515
219	0x3d1b2c79	0.03788421
220	0x3d449f37	0.0480034
221	0xbc845c7e	-0.016157385
222	0x3ccd3106	0.02504779
223	0x3ec3ac29	0.38217285
224	0x3d840498	0.06446189
225	0xb93c0a05	-0.0001793281
226	0x3bb48990	0.005509563
227	0x3d259536	0.0404255
228	0x3e46350a	0.1935617
229	0x3d250994	0.040292338
230	0x3d0a7a7e	0.033808224
231	0x3c7719c6	0.015081828
232	0xbbc8327e	-0.0061095348
233	0xbd42b314	-0.047534063
234	0x3c8d6f5f	0.01726502
235	0xbcc21ee7	-0.023696376
236	0xbde5f440	-0.112282276
237	0x3d2e1857	0.04250368
238	0x3cb4e506	0.022081863
239	0x3c4722cf	0.012154295
240	0x3eb27c56	0.34860486
241	0xbd1dea8b	-0.038553756
242	0x3dc43f1e	0.09582351
243	0xbd78c7e1	-0.060737494
244	0x3d2e3767	0.042533305
245	0x3d08355b	0.03325401
246	0xbdad1af3	-0.08452406
247	0x3db4de0d	0.08831415
248	0xbb7aee7d	-0.0038289123
249	0x3cc1bcf3	0.023649668
250	0xbc387fdf	-0.011260956
251	0x3d3a7517	0.04552182
252	0x3d344c10	0.04401785
253	0x3b7fdfb7	0.0039043257
254	0x3d0fc527	0.03510013
255	0x3e04c00f	0.1296389

adv_head.bias f4 [11]
0	0x3fcefec8	1.6171503
1	0xbf95cde2	-1.1703455
2	0xbfada498	-1.3565855
3	0xbfad5d9d	-1.3544194
4	0xbfc3055a	-1.5236008
5	0xbfc50a87	-1.5393838
6	0xbfc0d482	-1.5064852
7	0xbfd1248d	-1.633928
8	0xbfc9e00b	-1.5771497
9	0xbfdfc08c	-1.7480636
10	0xbfe3ff2f	-1.7812251
